model_DTW.pt (torch, 33184 bytes, 4 tensors)

fc1.weight f4 [300, 20]
00000000: 16fa 523e 7787 4d3e f3c4 8dbd 3e4b eb3d
00000010: 473d 01be a333 eabd ca83 9e3d d31d 60be
00000020: f207 13be c6d3 9cbd 0386 49bd 3da1 25be
00000030: 5779 cdbd 18df 18be 2ec0 4e3e 30ba 053e
00000040: 3388 513e 7f37 523e 6811 e1bd 6da1 43bd
00000050: d548 193e e7a7 073e 0967 e3bb d9ca ce3c
00000060: 1f2a 14bd cce6 dabd dc7a 3cbd a59c afbc
00000070: 63ad 96bd ddcf 203e 48ac d3bd c748 ac3d
00000080: dc3c 28be c9e7 79bd a91d a7bd ad34 00bc
00000090: cb38 bb3d 863b a6bd 43c6 eb3d 70e7 273d
000000a0: 206d ecbd 6bbb 093d c6b3 1d3d bc31 103e
000000b0: 6fc9 2abb 2c5c d2bd b600 46bd 4860 55be
000000c0: 5c36 bd3d 96c3 14be e4a4 673d c4cd 2a3e
000000d0: fada 3abe 0c11 8cbc 6ee2 093c 63f4 583c
000000e0: 3051 f23c 5b82 9dbd efb5 94bd 32b5 1a3e
000000f0: e340 c33d 26fd bbbd fd3a 25be 6deb 36be
00000100: 5ecb 20be 7d09 39be db7b 2bbc a10b 303e
00000110: 9999 cd3d 5be7 3dbe f852 01be da49 2d3e
00000120: ec97 6fbe 0fcb 45be 2565 da3c 0870 47be
00000130: 8cab 6d3d 5978 853c c1d5 d4bd 1a49 f3bd
00000140: f89a 163e eb7f 3e3e b6bd 1bbe 3e53 9bbd
00000150: c15c 0ebe b862 e43d 23a9 c33d e981 ac3d
00000160: 0651 6ebd 4dde 07be ce3a 31be df1c 47be
00000170: a3a3 ab3d fdb1 193e ace7 593e 9113 9dba
00000180: db53 033e 0a7b 8abd 017a 9a3d 9f43 7c3d
00000190: b639 19bc ff45 4d3e 4496 26bd b945 5a3e
000001a0: 290f bbbc 27f9 2cbe d6fa 07bd 0e27 23bd
000001b0: 0f55 c23d da1d 84bd 1450 babd ae0d d13d
000001c0: cb5e bd3d eafb 05be f0dd a03d 8a33 d4bd
000001d0: 4daf bd3c cc4d 853d 5e81 12be 44fa 3a3e
000001e0: 348b 27bd 91ee 19be dffd 7fbd 9b00 c33d
000001f0: e8f2 063c 2336 113e 3a02 ffbb 261f 593e
00000200: 1242 033d 12d4 44be 2c4d 4f3e bffb 60bc
00000210: 20e4 37be 70ae 8a3d 3a22 763d 1680 473d
00000220: 7bb4 2cbe f563 bcbd df93 14be e1d5 34be
00000230: 831b 173e 4606 0abe 918c 013e 9ea2 6f3e
00000240: d8d5 d9bd e04e 443e 5424 bb3d 11c4 4e3e
00000250: 121c fabd c37b 0bbe 684b d13c d99b 57be
00000260: dfff 8fbd cba6 93bd a277 3dbe 7478 96bc
00000270: d93e 403d 1cea 2fbe 6ca2 00be 9218 703e
00000280: 49d8 46be c0a4 ae3d c14d f53c 2d16 5d3d
00000290: 41d5 68be 270a 1bbe b934 f33d c95f 07be
000002a0: 5442 40bc 7fa0 e33d bc6d 613d 53d0 07bd
000002b0: ce53 b4bd 9d00 1c3e 2465 343e 77ce 0d3e
000002c0: 49df 1abe e1a7 11be 5ffb e93c 3bde dcbd
000002d0: f3c2 4dbe 90cf f9bd 9702 06be e226 d1bd
000002e0: 5fb4 4dbe e33d dc3d 167f 79bd 9233 40be
000002f0: f90c 59bd 01cc 1b3e fdfa 89bb ad90 553e
00000300: 1803 943c 4d14 4abd 505b 45be af68 743b
00000310: f085 e9bd 08e3 c1bd b520 0dbe 52e7 29be
00000320: 9e6c 27be 3487 59bd 4aff 183e 796f 5e3d
00000330: fbd8 493e 8369 24be 7972 ccbd 2d93 1abc
00000340: ce62 5ebe 2528 d1bb 0f1a 67bd 02d0 253e
00000350: 8cc4 0d3e b7fb 363e 06e9 393e b0d1 453c
00000360: 4beb 403e 6ff0 dfbb c26a 243e 7e1c 013e
00000370: a6a0 17be 93ab 3cbe fca5 3ebd ecfc 1b3e
00000380: a8aa edbd f7d7 833d 59ff 4abe b024 30bd
00000390: 9ed1 5b3e 5637 2dbd a8dc 663e 430d 46be
000003a0: c084 69bd 8561 8e3d 92d9 833a 483e 613e
000003b0: b42c b5bd 96e8 e13d f894 26bb c843 d13d
000003c0: 461f ec3b 5a09 b3bc 27af 6bbd 9fcd e73d
000003d0: a263 9ebd 3200 503e 86c8 143c 3514 cb3c
000003e0: 8b79 dc3b 4842 3bbe 023e 34bd a791 143b
000003f0: 7d7e 39bd a35c 1dbd a023 45be 8c7b 1bbe
0.20603213 0.20071207 -0.06922331 0.11488961 -0.12621032 -0.1143563 0.077399805 -0.21886377
-0.143585 -0.0765758 -0.04920007 -0.16174789 -0.10032909 -0.14928854 0.20190498 0.13059306
0.20462112 0.20528983 -0.10989648 -0.04776137 0.1496919 0.13247643 -0.006939773 0.02524321
-0.036172982 -0.10688552 -0.046015605 -0.021436999 -0.0735729 0.15704294 -0.103355944 0.08412319
-0.16429466 -0.061012063 -0.08159954 -0.007825059 0.09141692 -0.08116822 0.11512425 0.0409922
-0.115442514 0.033626 0.038501523 0.14081472 -0.0026060005 -0.10271487 -0.04834052 -0.2083751
0.09238884 -0.14527735 0.056553736 0.16680056 -0.18247595 -0.017097972 0.008415801 0.01324186
0.029579729 -0.07690879 -0.072612636 0.15108183 0.095338605 -0.091791436 -0.16135783 -0.17863245
-0.15702578 -0.18070026 -0.010466541 0.17191936 0.10039062 -0.18545286 -0.12629306 0.16922703
-0.23397797 -0.19315742 0.026659558 -0.1947633 0.058024928 0.016292738 -0.10392333 -0.118791774
0.14707553 0.18603484 -0.15209088 -0.075842366 -0.1390257 0.111516416 0.09553745 0.08423216
-0.05818274 -0.13268395 -0.17307588 -0.19444607 0.083808206 0.15009303 0.21279782 -0.0011983981
0.12824957 -0.06761749 0.07542802 0.061587926 -0.009352138 0.20046233 -0.04067065 0.2131566
-0.022834377 -0.16891919 -0.0331982 -0.039832167 0.0948888 -0.06451006 -0.09097305 0.10207687
0.09246596 -0.13084379 0.07854831 -0.10361393 0.023154879 0.06508979 -0.14307162 0.18259531
-0.04090424 -0.15032412 -0.06249797 0.095216 0.008236624 0.14180808 -0.007782248 0.21203288
0.03204543 -0.19221523 0.20244282 -0.013731896 -0.17958117 0.067715526 0.060091235 0.048706137
-0.16865723 -0.09198753 -0.14509533 -0.17659713 0.14756589 -0.13478956 0.12651278 0.23401877
-0.106364906 0.19170713 0.091377884 0.20191981 -0.12212385 -0.1362143 0.025548652 -0.21055545
-0.070312254 -0.072095476 -0.18502668 -0.018367983 0.046934936 -0.1717915 -0.12561959 0.23446873
-0.19418444 0.08527517 0.029944303 0.053976227 -0.227376 -0.15140592 0.118752904 -0.13220133
-0.011734564 0.111145966 0.05503629 -0.033157658 -0.08805047 0.15234609 0.17616707 0.13848291
-0.15124239 -0.14224197 0.028562246 -0.107845746 -0.20093898 -0.121977925 -0.13086925 -0.102124944
-0.20088337 0.107539915 -0.060912214 -0.18769673 -0.052990887 0.1521454 -0.0042108283 0.2085597
0.018067881 -0.049335767 -0.19273114 0.0037293842 -0.114025 -0.09467131 -0.13782008 -0.16592148
-0.16350028 -0.053107455 0.14941135 0.054305527 0.19711678 -0.16055875 -0.099827714 -0.0094345035
-0.21717378 -0.0063829594 -0.056421336 0.1619263 0.13844508 0.17869459 0.18155298 0.012073919
0.18839757 -0.006834082 0.1605635 0.12608525 -0.14807376 -0.18424825 -0.046545014 0.15233201
-0.11604816 0.064376764 -0.1982397 -0.043003738 0.21466681 -0.0422891 0.22545111 -0.19340996
-0.057011366 0.06952194 0.0010059348 0.21996415 -0.08846417 0.1103069 -0.0025418382 0.10218006
0.0072058765 -0.021855045 -0.057540085 0.11318516 -0.07733847 0.20312575 0.009081012 0.024789909
0.0067283562 -0.18287003 -0.044004448 0.0022669823 -0.045286644 -0.038418423 -0.19251871 -0.15183848

fc1.bias f4 [300]
00000000: 97b7 f6bc d356 19be ac7b 1abe 8c75 63bc
00000010: 38c4 5a3d 77cf 24be b44b 99bd 8424 03be
00000020: 2561 a33d f599 9b3d 3589 fabc 3534 bdbd
00000030: bc6d 55be b633 d7bd 8b89 16be 03e3 803d
00000040: c97e 4c3e a72e 983d 2d73 01be 973d 2d3e
00000050: e964 ae3d 5e7f 16bd 9e4f 9c3d a72a 1abe
00000060: 3eb6 373e 1540 2b3d 1abb 35be 64f2 333e
00000070: bdee 0c3d 7265 033e 8de0 1d3e 6d94 40be
00000080: d00d 16bd c58c c03d 7e40 11bd 99fe 9e3d
00000090: f702 543e b422 dabd 473f fd3d 1014 4f3e
000000a0: 8edf 983c 757d 1a3e 62c3 a8bd 95a4 fbbd
000000b0: c7bd 393e db9e 543e c1ee fa3d 4a99 463e
000000c0: eedf 2ebd 5a7e 463e 0f6a f23d d82f d3b9
000000d0: f261 dd3c 261c a5bc 6019 afbb f42c c03c
000000e0: 9016 c9bb 8aec 5cbe be5e 133e 2d00 cb3d
000000f0: 34be bc3c 44c6 f33c 68d1 f1bc dc74 20be
00000100: f76f 453c c488 cbbc 898f d83c 377c 3fbd
00000110: 6561 aabd 8831 54bd 2439 ecba 4f3f 89bd
00000120: 1d96 363d 6980 c13d 08b2 98bd a6a4 96bd
00000130: 966a 303e e678 813d 646c 60be 48f8 1e3d
00000140: 75bc 8a3d d6c7 02be e940 0d3e 901a 613d
00000150: 6c50 4d3e 03d6 abbd 6543 073e 3957 27be
00000160: 9164 adbd 00da 32be 01bc 913d 3653 0fbe
00000170: a417 623e f9da a13d 2f4b 1f3e 57c8 0f3e
00000180: 21cf d4bc 7203 e23d 0a27 903d b120 cb3d
00000190: cd94 abbc f54c c7bd c089 4cbd dc4e b9bd
000001a0: 08d2 343e ff0b 4c3e cbd4 da3d 6ffb 22bd
000001b0: b581 dbbd 6183 3abd a2f8 83bd 2b90 5c3c
000001c0: aaa5 073e 1735 0b3e 59a7 cf3d 7ddd dbbb
000001d0: aeb2 073e 3194 e13d 0a6b 8b3d e115 d1bd
000001e0: 4e42 023d 77c5 1cbe 78cb f13d f423 5b3b
000001f0: 4ff6 ff3b 74e4 96bd 172e 29be 6f87 50bd
00000200: 97b3 50bd 0a82 5abd 4c46 143e 673e f1bd
00000210: 7e80 a3bd 93aa 06be 1da7 473e 1755 933d
00000220: 0bb5 4b3e f648 863d 6b81 4ebe 205f 4ebe
00000230: 48b0 3fbe b717 43be 41a9 5abe cb63 0abe
00000240: a100 3bbd 4aa7 093e f1da c2bd 4d1c 3abd
00000250: 101f d43d 4732 033e 9029 bfbd 2220 c7bd
00000260: 5e6b 6c3b c19c 3f3d bed0 82bd b372 063e
00000270: 31e5 ad3d 06f9 c8bc fcff 933c 9483 64be
00000280: e927 3cbe 1529 073b 804e 2cbe 9cac 64be
00000290: 1dbb 43be b904 a63c 6c82 31bd ae63 4dbc
000002a0: 0dba 103e 4f19 593e e41e 063e 8c44 dfbd
000002b0: 353e a33c bc36 40be b146 59be 0692 43be
000002c0: 465b 33be e4cf 31be 82dd 073d dbb3 2fbd
000002d0: 9ae1 e93d df64 48be 0ab6 26be 525c eb3d
000002e0: 8935 f43d 69f5 fc3d 9fe2 52be 1a2a 98bd
000002f0: 4aae a7bd d11e 4abe c1b0 1a3e 7a16 2a3d
00000300: df41 e13d 8fcb 2ebe 6c8d 4b3e 0302 1ebd
00000310: 90a0 54be 8109 abbc e54f 3e3e 54c8 52be
00000320: 3d2f 233e 6fb3 5abe c343 273e 847d d73d
00000330: ca8a 153d 0cad f7bc 82c2 f0bd eded 1dbe
00000340: b08f 7d3d e14f 86bc 5321 23be 70b1 1cbe
00000350: 3453 b63c 1b75 4e3e dcb8 42be ae7e c53d
00000360: d2f9 ea3d c1ce 59be cf4c b83d cbfe 3abe
00000370: 3314 733c a254 80bd 082d 243c 5943 983d
00000380: f9a0 65be 3630 dbbd f84c f5bc cc4b 5bbd
00000390: ed7a 93bd 52a0 c73d b07d ebbd c722 983d
000003a0: 2bcc 31bd d4ac 57bb 99f4 0abd 176f dfbd
000003b0: 5f2d 93bd 2118 13be 28d3 2e3e d049 873d
000003c0: 656a 22be b2f5 ec3d f661 abbc 0b91 f13d
000003d0: d2eb 60bd 173c 17be ba42 1a3e fa4a d7bd
000003e0: 48dd 78bd f7a8 a0bd 7971 eebd 506c f7bd
000003f0: f366 34be ffff 4dbe 7cd7 f43d 9bbb 20bd
-0.03011684 -0.14974527 -0.1508624 -0.013883006 0.053409785 -0.16094767 -0.07485142 -0.12806898
0.07977513 0.07597724 -0.030583004 -0.09238473 -0.20842642 -0.1050791 -0.14700906 0.06293299
0.1997024 0.07430773 -0.12641592 0.16918026 0.08515341 -0.03674256 0.07632373 -0.15055333
0.17940614 0.04180916 -0.17747155 0.17572933 0.034407366 0.12831667 0.1541769 -0.1880662
-0.036634266 0.0940185 -0.035461895 0.077634044 0.20704256 -0.1065115 0.12365585 0.20222497
0.018661287 0.1508692 -0.08240391 -0.12287251 0.181388 0.20763724 0.1225257 0.19394413
-0.042694025 0.19384137 0.11836635 -0.00040280703 0.027024243 -0.020155024 -0.005343601 0.023458935
-0.006136723 -0.21574607 0.1439161 0.09912143 0.023039915 0.029757626 -0.029518798 -0.15669578
0.01205062 -0.024845488 0.02643563 -0.04674932 -0.08319358 -0.05180505 -0.00180224 -0.06701528
0.044576753 0.094483204 -0.07455832 -0.07355623 0.1722816 0.06321888 -0.21916348 0.038811
0.067742266 -0.12771544 0.13794293 0.054956973 0.2005021 -0.08390429 0.13209303 -0.16341867
-0.08466447 -0.17465973 0.07115937 -0.13996586 0.2207933 0.07903094 0.15556024 0.14041267
-0.025977673 0.110358134 0.07038696 0.09918345 -0.020944977 -0.09731475 -0.049936056 -0.09048244
0.17658246 0.19926451 0.10685118 -0.039790567 -0.10718099 -0.04553545 -0.06443907 0.013462107
0.1324679 0.13594471 0.10139341 -0.006709753 0.13251755 0.110145934 0.068075255 -0.10209251
0.031801514 -0.15309702 0.11806387 0.0033438178 0.0078113447 -0.07367793 -0.16521488 -0.05091041
-0.05095252 -0.05334667 0.14479941 -0.117794804 -0.07983492 -0.13151006 0.19497342 0.07193964
0.19893281 0.06556885 -0.20166557 -0.20153475 -0.1871959 -0.19052015 -0.21353628 -0.1351463
-0.045654897 0.13442722 -0.09514416 -0.045437146 0.10357487 0.12812148 -0.09334099 -0.09722926
0.0036074738 0.04678035 -0.06387471 0.13129692 0.084909804 -0.024532806 0.018066399 -0.22315818
-0.183746 0.0020623852 -0.1682682 -0.2233147 -0.19114347 0.020265924 -0.04333727 -0.0125359725
0.14133473 0.2120106 0.13097721 -0.10901746 0.019927124 -0.1877088 -0.21218373 -0.19098672
-0.17515287 -0.1736446 0.03317023 -0.042896133 0.11419983 -0.1956973 -0.1628038 0.11492218
0.119242735 0.12351496 -0.20594262 -0.07429905 -0.0818754 -0.19738318 0.15106489 0.04152534
0.10998892 -0.17069839 0.19878167 -0.038576137 -0.20764375 -0.020878555 0.18585165 -0.20584232
0.15935989 -0.21357511 0.16334443 0.10521987 0.036509313 -0.030233882 -0.117558494 -0.15422793
0.06190461 -0.016395511 -0.15930681 -0.15302062 0.022256471 0.2016186 -0.19015831 0.09643303
0.11473431 -0.21270277 0.08999025 -0.18261258 0.014836359 -0.062661424 0.010020502 0.074347205
-0.22424687 -0.10702555 -0.029943928 -0.053539082 -0.072011806 0.097473755 -0.11498582 0.07428508
-0.0434076 -0.003290941 -0.033924673 -0.109098606 -0.07186388 -0.14364673 0.17072737 0.066058755
-0.15860899 0.115703 -0.020920735 0.11795243 -0.054912396 -0.14769016 0.15064517 -0.105123475
-0.060757905 -0.078447275 -0.11642737 -0.12081206 -0.17617397 -0.20117186 0.11955163 -0.039241415

fc2.weight f4 [5, 300]
00000000: 55fd 9f3c 86db 25bd b81e 1cbd ecaa e8ba
00000010: cd00 9bbb 8f75 f13b 2237 7fbd 3a0f cb3c
00000020: 70d3 b83c 4de2 18bd 9632 2c3d c022 e4bc
00000030: 70de 443d b358 243d ec6c 593c 1398 52bd
00000040: d023 40bd f139 f7bc 6bc9 153d f27b 633d
00000050: d54f 2cbd b040 213d ae00 34bc 3a96 49bc
00000060: 8ecb ce3c a8e5 53bc efd2 1ebd a5f7 b1bc
00000070: 1d5e 7a3c fe75 d43c fb70 60bc da98 80ba
00000080: 4c0a 083d e10a 27bd 11dd 2a3d 7192 543c
00000090: 54fb 2cbc 3773 553c 1286 16bd 42cd 583d
000000a0: 8453 373d 4ca7 593d 95dc 4b3d b190 c5bb
000000b0: d030 4f3d e368 4b3c 70ca 6a3c 9857 0dbd
000000c0: 62a4 6fbc d548 4f3d 9817 0b3d 5ac2 4d3d
000000d0: 43b7 ff3c 7f0d fe3c bc1d b63c 185d fabc
000000e0: 6e3a 4cbd 023e 94bb 534e e3bb 4a4a 00bd
000000f0: 011a 453d 2fa9 273c f32e 513d 720c e43c
00000100: ac8b 36bc 9efa 4339 f7d1 6ebd b066 183d
00000110: 64b6 243d 47ba d6bc 9ff7 45bd 711c 683b
00000120: 5923 1fbd de12 96bc a561 543d 5716 03bc
00000130: 2b83 db3c 7f59 5aba 51e9 343d 12f5 67bc
00000140: 5d46 2b3d 0143 1f3d e032 8c3c dda7 cdbc
00000150: 296a 7dbd 4ba8 e6bb d56d 2abd 8537 2dbd
00000160: 2ab9 d83c caa5 d5bc dfe6 03bd 795d c8bb
00000170: 294b 33bd d368 eb3b ca91 033c f710 16bc
00000180: 4c06 303d 4b6b 76bd 497c b1bc 2480 0ebd
00000190: d5ea d6bc a178 313c 6a74 2fbb 2c90 6fbd
000001a0: 1bbd 093d 5be1 97bc c27a ff3c 8b57 a13c
000001b0: 685a 373c 41f0 e03c f525 513d 9020 38bd
000001c0: b955 29bd 985f a8bc 267c 32bd 3831 f3bc
000001d0: 71b9 333c 98d1 16bd a41a 62bd d59b a13c
000001e0: 50c5 24bd 23bb 16bc e368 fb3a b97d 3b3d
000001f0: 53a0 0dbc 91c7 67bd 8c97 e7bc f4d7 563d
00000200: 2b3c 4bbd 81a4 12bd 9000 06bd 203c e73c
00000210: 1384 c43c 16dc 4bbd b829 133d 8cd0 32bc
00000220: 4acb 0f3c 826b 113d 9658 7a3c d928 f23c
00000230: 8c9f 15bc eebe ac3c 4fdd 463d c836 5dbc
00000240: 4071 0eba 40ab e6bc 0937 9d3c 7f91 1abc
00000250: fe21 2a3d db00 5b3d 0a66 bdbc b8e2 78bd
00000260: 20c3 253d 6f1f 423d dc2f 1d3d cc03 ebbb
00000270: bd47 403d 04ec ddbc e721 d0bc 5b04 903c
00000280: e48d f5bb 66c4 81bd 6728 bfbb a56f 1e3d
00000290: e5aa 04bb 10ee 2b3d 541a 1b3d d48b 41bd
000002a0: 519a 243d 8aa8 34bd ff0b b0bc 2ceb 933b
000002b0: 965c aebc 0787 843c 5c94 21bd a08a b3bb
000002c0: ba85 30bc f7d1 443c 03b0 b8bc bff6 67bd
000002d0: 9b35 f8bc a73a 96ba f2ad 9c3c 65d7 8abc
000002e0: 58f3 2bbc 42b6 023d d6aa 3cbd 9222 1d3c
000002f0: 0ee1 8bbc 2fbf 1a3d a09e 60bd 7834 df3c
00000300: 769d 9abc b2cd cebb 8b00 4a3b b2dc 7cbd
00000310: 4650 2f3d f926 993c 1acc c3bc f907 a7bc
00000320: e83e cd3c a61c aebc 972e c83b 2453 393d
00000330: ba30 21bd b4ba 8bbb 3a29 c23c 13ef 9a3c
00000340: a858 3bbd 4c6d 49bc 9e22 cb3c b362 433d
00000350: 175b 083b 1e84 15bc 7a47 49bd de50 91bc
00000360: 9b33 293d 46f2 0c3d be9a 56bd d7ab 45bd
00000370: 9856 16bc 609b dfbc 4041 99bc 04c4 f4bc
00000380: 8fab 9a3b 90fc f73b 307b 413d 2ba8 bbbc
00000390: 317b 923c c1db 1c3d 3126 99bc e47b 403d
000003a0: 9e44 153b e718 f73c 1061 9ebb 51ef cb3a
000003b0: 9d89 9e3c 1030 16bd e0ce 35bb 2598 333d
000003c0: 63e3 edbb 8639 503c 41b8 523d e7ac 4dbd
000003d0: 3774 4cbc 3424 793b cad3 92bc 28a5 3abd
000003e0: 2541 373c 53d6 20bc 1538 c93c 7c02 e83b
000003f0: 1cd0 18bd 6138 0f3d 13e4 03bd c387 603d
0.019529978 -0.040492557 -0.038115233 -0.0017751134 -0.00473032 0.0073687504 -0.062308438 0.024787534
0.022561759 -0.037325192 0.04204043 -0.027848601 0.048063695 0.040123653 0.013270598 -0.05141456
-0.046909153 -0.030178996 0.03656904 0.055538125 -0.04206832 0.03936833 -0.01098649 -0.012303883
0.025243547 -0.012933172 -0.03877538 -0.021724531 0.015281227 0.02593517 -0.013698812 -0.0009811178
0.033212945 -0.04078186 0.04171473 0.0129743675 -0.010557968 0.013027958 -0.036748953 0.052930124
0.04475738 0.053138062 0.04977091 -0.0060292115 0.05058366 0.012415144 0.014330491 -0.034507364
-0.014626594 0.050606567 0.033958048 0.050234176 0.031215316 0.031012295 0.022230975 -0.030561969
-0.04986041 -0.0045239935 -0.006936827 -0.031320848 0.048120502 0.010233208 0.051070165 0.027837966
-0.011141699 0.00018690011 -0.058305707 0.037207305 0.040213004 -0.02621187 -0.048331853 0.0035417343
-0.03885207 -0.018319543 0.051850934 -0.008000932 0.026795944 -0.0008329376 0.04416782 -0.01415755
0.04181515 0.03888226 0.017114103 -0.025104458 -0.06186882 -0.007039105 -0.04160865 -0.042289276
0.02645548 -0.026080031 -0.032202598 -0.0061146584 -0.04377285 0.007184127 0.008030364 -0.009159318
0.042974755 -0.060160916 -0.02166571 -0.034790173 -0.026235024 0.010831983 -0.002677227 -0.058487102
0.03362761 -0.018540075 0.031186465 0.019695064 0.011190988 0.027458312 0.05106159 -0.04495293
-0.041341517 -0.020553395 -0.04357543 -0.029686555 0.010969506 -0.036820978 -0.055201188 0.019727627
-0.040227234 -0.00919989 0.0019181039 0.045774195 -0.008644181 -0.056586806 -0.028270505 0.052452043
-0.049617928 -0.035801414 -0.03271538 0.028226912 0.02398876 -0.049770437 0.035928458 -0.010913979
0.008776495 0.035502918 0.01527991 0.029560493 -0.009132277 0.021087136 0.0485509 -0.01350183
-0.00054337457 -0.02815783 0.019191282 -0.009434103 0.041536324 0.053467613 -0.023119945 -0.06076309
0.04046929 0.04739326 0.03837572 -0.0071720835 0.046943415 -0.02709008 -0.02540679 0.017580202
-0.0074937213 -0.06336288 -0.0058336738 0.03868069 -0.0020243463 0.04197508 0.037866905 -0.04725249
0.04018623 -0.044106044 -0.021490095 0.0045141187 -0.021284383 0.016177667 -0.039448127 -0.005479172
-0.01077407 0.01201295 -0.022544866 -0.0566318 -0.030298999 -0.0011461572 0.019125912 -0.016948411
-0.010495029 0.031912096 -0.04606136 0.009590762 -0.017075088 0.037779983 -0.054838777 0.027246699
-0.018873911 -0.006311142 0.0030823078 -0.06173391 0.042801164 0.018695341 -0.023901034 -0.020389544
0.02505441 -0.021253895 0.0061090696 0.045245305 -0.03935311 -0.0042642 0.023701299 0.018912828
-0.045738846 -0.012294125 0.02479678 0.04770155 0.0020806247 -0.0091257375 -0.04914043 -0.017738756
0.04130898 0.034410737 -0.052393667 -0.048259582 -0.009175919 -0.027295768 -0.018707871 -0.029878624
0.0047201584 0.0075679496 0.04723662 -0.022907337 0.017881008 0.03829551 -0.018694969 0.04699315
0.0022776495 0.030163242 -0.004833348 0.0015558993 0.019352729 -0.03666693 -0.0027741715 0.04384627
-0.0072597726 0.012709027 0.05144525 -0.05021372 -0.01247888 0.0038015964 -0.017923255 -0.04556766
0.011184965 -0.009816724 0.024562875 0.0070803743 -0.037307844 0.034965876 -0.03219993 0.054816972

fc2.bias f4 [5]
00000000: 9930 3d3d ca9d 183d e53d 84bc 375e a43c
00000010: 84b8 733c
0.046188924 0.037259854 -0.016142795 0.020064456 0.014875535
