model_weights/taxi_weights/model_taxi_MSE.pt (torch, 395022 bytes, 6 tensors)

fc1.weight f4 [300, 20]
000000 e4 38 58 3e 38 ac df bc 05 cc 42 3e 12 bf 5c bd
       0.21115452 -0.0273038 0.1902314 -0.053893156
000010 c2 93 99 3d a5 9f 22 be 93 d4 5a bc de aa 2c bd
       0.07498886 -0.15881212 -0.013356346 -0.04215514
000020 80 63 aa bd 2f 14 10 bc e2 71 b6 3c 30 ab c6 3d
       -0.08319759 -0.008793875 0.0222711 0.0970062
000030 b1 8c 37 be d2 19 dd 3d 3d fc 7a 3d 9d be 57 3e
       -0.17924763 0.107959405 0.06127571 0.21068807
000040 8e d8 dd 3d e0 89 b1 3d 19 70 45 be 83 01 31 3e
       0.1083232 0.08668876 -0.19281043 0.17285733
000050 d2 84 c5 3d bd aa 28 3e 28 1a 0a be 94 a1 f9 3d
       0.09644474 0.16471381 -0.1348654 0.12189022
000060 a1 91 49 bc c1 b0 25 3c 68 f5 51 3e 18 77 f9 bd
       -0.012302787 0.010112942 0.20503771 -0.121809185
000070 51 ad d3 bb a2 72 0e bd 97 a1 1d 3e e0 3a 12 3e
       -0.00645987 -0.03477729 0.15393673 0.14280272
000080 72 fe 95 3d ef 60 3c 3e 1f 8b 0b 3e 1e a6 78 bd
       0.07323922 0.18396352 0.13627289 -0.060705297
000090 6d 1f db 3d e3 0f 1e b9 cc d2 94 bc b6 76 94 3d
       0.10699353 -0.00015073972 -0.018166922 0.07249205
0000a0 c1 b6 38 be e5 df 99 bb ec 78 5a be cc ac 04 be
       -0.18038465 -0.0046958798 -0.2133519 -0.12956542
0000b0 96 aa ab 3d 59 ad ea bd 02 66 7d bd 60 32 03 3e
       0.08382146 -0.11458845 -0.06186486 0.12812185
0000c0 3a fc 13 3d 02 3e f2 3d 9b 0e 4a 3e 34 ff fc bd
       0.036129214 0.11828233 0.19732134 -0.12353364
0000d0 2c c3 0c 3e 43 a6 48 be 36 3f a7 bd b8 ee 1b be
       0.13746327 -0.19594674 -0.081663534 -0.15227783
0000e0 bf 03 e5 bc b7 0a 1b be ff f3 40 3d 18 16 87 3d
       -0.027955888 -0.15140806 0.047107693 0.06596011
0000f0 51 dd 61 3e 3b 39 38 bb 01 15 41 be 18 11 16 3e
       0.22057082 -0.0028110284 -0.18855669 0.14654958
000100 f0 6c 5c 3e 4f ec 49 be 08 38 14 3e 77 79 11 bd
       0.21525931 -0.19719051 0.14474499 -0.03551623
000110 9c cc 1f bb c3 d7 d8 3b 5e bd 63 3e b7 26 64 3e
       -0.0024383431 0.0066175177 0.22240207 0.22280394
000120 12 a6 24 be 56 7f c5 bd a7 c7 36 3d 70 33 bf 3c
       -0.16078976 -0.09643428 0.044623997 0.023339957
000130 2b 0a 2f be 3d 42 06 be 1e 0d d5 bd 04 91 0f bd
       -0.17093723 -0.13111205 -0.104028925 -0.035050407
000140 0f 35 1f be 3e 66 8d bd 74 9c 30 bd 5b 79 43 3d
       -0.15547584 -0.06904267 -0.043117955 0.047723155
000150 3c 87 58 3e 55 f9 50 3e f7 dc 40 3e 8c 95 3b 3e
       0.21145338 0.20407613 0.18834291 0.18318766
000160 a5 ad 46 3e 9b 9a 17 3e 5c 39 61 3d 78 76 2a 3e
       0.19402178 0.14805071 0.054986343 0.16646755
000170 ee 46 1d be 3d d5 49 bd be 1c 28 3e 0e f5 26 3d
       -0.15359089 -0.049275625 0.16417214 0.040761046
000180 da cc 93 3d b0 57 2b be a6 8c 2d 3d b4 ee 4b 3d
       0.07216807 -0.16732669 0.04237046 0.049788192
000190 93 6d 8a bd dd 70 42 3b 6d ba 0f be 66 67 82 bd
       -0.06759181 0.0029669323 -0.1403596 -0.06367378
0001a0 32 9a d0 3d e8 fd df 3a 4d 43 2f 3d 22 f3 72 3e
       0.101856604 0.001708922 0.042788792 0.2372556
0001b0 0b 10 3a 3e 94 6e 3f be 2a f8 21 3e ba df 7a 3e
       0.18170182 -0.18694526 0.15817323 0.24499407
0001c0 21 51 ea 3d f3 d8 17 be 05 02 a9 3d 52 07 18 bd
       0.11441255 -0.14828853 0.08252338 -0.037116356
0001d0 2e 41 24 be 9e 12 d7 3c 2d c3 c9 bd 59 92 f0 bd
       -0.16040489 0.026253995 -0.0985168 -0.117466636
0001e0 b0 ec 70 3d c3 66 31 3e 03 5f 34 bd 29 10 78 bd
       0.058819473 0.17324357 -0.044035923 -0.060562287
0001f0 9e d3 bd 3d 6d c4 6b 3d 08 d7 59 3e 20 7a 46 be
       0.092688784 0.057560373 0.21273434 -0.19382524
000200 e5 ba 52 be c8 77 53 3d 32 de 15 3c 17 6b 0b 3e
       -0.20579107 0.051627904 0.009147214 0.1361507
000210 16 e6 61 3d 3c 3f e6 bd 45 6f 53 3c 20 74 36 be
       0.055151068 -0.1124253 0.012904947 -0.17817736
000220 55 4e c5 3d 8d 65 e0 3a d4 93 c1 3d 76 2a 18 3e
       0.09634081 0.0017120108 0.09452024 0.14859948
000230 9d 5f 49 3d b3 78 ba 3d c0 02 85 bd cf 04 dc bd
       0.04916345 0.09105053 -0.06494665 -0.10743105
000240 e7 ed 1b 3e f1 54 37 be 9f 7a f8 bc e0 29 01 3e
       0.15227471 -0.17903496 -0.030331908 0.1261363
000250 50 0e 39 be 5f 55 31 3e 59 29 cc bd 0a 19 0f 3e
       -0.18071866 0.17317723 -0.09968824 0.13974395
000260 9d 12 65 3e fe f0 e7 3d c0 23 4b be 46 bf 9a bd
       0.22370382 0.113252625 -0.19837856 -0.07556014
000270 14 49 17 3e e3 b7 de 3d 11 6f 6e 3b 89 4f ee bb
       0.14773971 0.10874917 0.0036382119 -0.007272665
000280 e2 6a 4c 3e 73 2d 8b 3c 73 8e 2f bd d5 e6 ce ba
       0.19962648 0.016989445 -0.04286046 -0.0015785346
000290 c1 79 27 bd 9b ed b1 3d df 50 5a bd a1 b6 fb 3d
       -0.040887598 0.08687898 -0.05329978 0.12290693
0002a0 15 7e 24 3d a2 59 b3 3d e0 c3 b2 3d 0c 2d 2c 3d
       0.040159304 0.087573305 0.087287664 0.042035148
0002b0 02 a8 2c 3e 8a f7 f9 3c d8 df 3f 3d d2 89 cb bd
       0.16860965 0.030513544 0.046844333 -0.099383965
0002c0 15 7d ff 3d 66 3b 01 3e b0 97 59 bb 8e 36 dd bd
       0.124750294 0.12620315 -0.0033201985 -0.10801421
0002d0 e3 f6 63 3b 45 ca ab 3d bc 48 fd bd 92 82 c3 bc
       0.0034784607 0.08388189 -0.123673886 -0.023865972
0002e0 8d 4d 29 3e d6 4a 94 bd ed c0 27 3e 92 f8 37 3e
       0.1653349 -0.07240836 0.16382189 0.17965916
0002f0 9e df 43 be 0b 79 45 bb 57 ba c5 3d a0 82 25 be
       -0.19128272 -0.0030131962 0.09654682 -0.1616311
000300 da da 67 3c da bb 5b be 92 9d 02 3d 85 7d 40 3e
       0.014151299 -0.21458378 0.031888552 0.18797882
000310 a0 ea df 3c a0 f2 66 3e d3 79 f9 bd 66 f5 5c 3e
       0.027333558 0.22553492 -0.12181439 0.21577987
000320 13 91 83 bd 8a 60 e3 bd ce de ab 3d 54 c8 0f bb
       -0.06424155 -0.11102398 0.08392106 -0.0021939473
000330 91 a6 4a be 86 8d 35 be 36 ad 5a 3e b6 ce 9e 3d
       -0.19790103 -0.17729768 0.21355137 0.07754271
000340 aa b7 a3 3d 80 e1 1e be 26 97 53 3e 24 c0 21 be
       0.079940155 -0.15515709 0.20663127 -0.15795952
000350 37 2c 43 3e 67 69 1f 3d 89 eb 26 3e 99 c9 9f 3c
       0.19059835 0.03891888 0.16300787 0.019505309
000360 1f 15 af b9 43 75 33 3e 82 55 40 3e 84 87 9e bd
       -0.00033394338 0.175252 0.18782619 -0.07740691
000370 97 81 1f 3e d7 33 05 3e ed 2c 43 3e 09 ca d9 3d
       0.15576778 0.13008057 0.19060107 0.10634238
000380 39 70 75 3d c2 16 0c bd 6b 70 0a 3e 07 db f0 3d
       0.059921477 -0.03420139 0.13519447 0.11760526
000390 31 5b f6 3d d7 1c 0b 3e 8d 75 ff 3c fd fe 86 3c
       0.12029112 0.1358522 0.031183982 0.01647901
0003a0 f7 85 17 be 84 e4 13 3e 3c 76 e7 3d ca 4d 28 bc
       -0.14797197 0.1444264 0.11301848 -0.010272453
0003b0 38 ae 5b be c5 64 4a 3e b6 a9 95 3d da d9 47 3e
       -0.21453178 0.19765003 0.073077604 0.19516698
0003c0 ff b8 67 3e d1 fc 0e bd 52 86 07 3e 3b c2 2e 3c
       0.22629164 -0.034909073 0.13234833 0.010666425
0003d0 9f 39 16 3c 52 d7 2e be 76 37 09 be 8c 39 32 be
       0.009169011 -0.17074326 -0.13400063 -0.17404765
0003e0 a8 db d6 3d e7 f0 38 3c c3 c9 ae bd 51 50 75 bd
       0.10491115 0.011287904 -0.08534577 -0.05989105
0003f0 cd c3 54 3e 30 9a 53 be fd 31 e5 bc 15 c7 74 bd
       0.20777817 -0.20664287 -0.027977938 -0.059760172

fc1.bias f4 [300]
000000 ba 47 4d be be a8 3d 3e 03 5d fc 3d 1a 4d b9 3d
       -0.20046893 0.18521401 0.12322428 0.09047909
000010 23 b6 9b 3d 68 de ab 3d 57 26 0b be b9 a3 a1 bd
       0.07603099 0.0839203 -0.13588844 -0.07892556
000020 72 f8 2c 3e 09 6e 59 3e 7f 7c f2 bd 14 47 09 3d
       0.1689165 0.21233381 -0.11840152 0.03351505
000030 e1 08 39 3e 05 01 72 3e 4e 5f fd 3d 64 87 c1 3d
       0.18069793 0.23633201 0.123716936 0.09449652
000040 a1 93 2b 3e e3 20 31 3e 6a d5 30 3d b4 f4 2f be
       0.16755535 0.17297702 0.043172278 -0.1718319
000050 cd d7 0a 3e 21 21 17 be 6a c7 59 be 3a 6a 8b 3d
       0.13558884 -0.14758731 -0.21267477 0.068073705
000060 96 e3 22 be d7 85 08 bc e2 bc 22 3e e4 cc 4b 3d
       -0.1590713 -0.008332691 0.15892366 0.049755946
000070 79 87 f3 3c a9 8e ab bb 40 9e c7 bd 74 06 ac bd
       0.029727684 -0.0052355123 -0.09746981 -0.08399668
000080 52 79 12 be 77 01 41 3e 82 1d 23 be cc 1b 78 3e
       -0.14304093 0.18848215 -0.15929225 0.24229354
000090 dc 49 93 3d 20 86 66 bc 90 50 4c be 13 01 2e be
       0.07191822 -0.014070064 -0.19952607 -0.16992597
0000a0 11 c9 38 3e 7f f1 f5 bd 85 b0 5b 3d 50 d4 f6 bd
       0.18045451 -0.12008952 0.05363514 -0.12052214
0000b0 96 8c 4d be 9a ea 8b 3e 7a 0e af 3d 49 47 57 3e
       -0.2007316 0.27327424 0.08547683 0.21023287
0000c0 2b 7f 16 3e ff 6a 4c 3d 01 fb 92 bc 82 3e 41 be
       0.14696948 0.049906727 -0.017941954 -0.18871501
0000d0 25 28 60 3e 9d cb 09 bd f7 40 0d 3d 84 a4 55 3e
       0.21890314 -0.033641446 0.034485783 0.20863539
0000e0 51 bd 40 be 8d 0f cc 3d e3 83 0b 3d 7d a5 23 3e
       -0.18822218 0.099639036 0.034061324 0.15981098
0000f0 0a ec 90 bd 40 6e b6 bd c8 b2 01 3e bb b1 83 3e
       -0.07076271 -0.08907747 0.12665856 0.25721535
000100 9c 26 38 3e eb bf 2a be d5 e0 78 bd 05 c1 46 bd
       0.17983478 -0.16674773 -0.06076129 -0.04852392
000110 1d e5 d2 bb 1b ce b5 39 d8 c5 33 3d f7 fe 94 3c
       -0.006436004 0.0003467657 0.04388985 0.018187983
000120 0f f5 80 3d f5 51 2f be df e1 03 be e9 68 df bd
       0.06296741 -0.17121108 -0.12879132 -0.10908682
000130 cf be 4f be a0 3a 66 3e 80 bf 55 3e 67 79 08 3e
       -0.20287631 0.22483301 0.20873833 0.13327561
000140 c8 ae f1 bd 86 58 46 3e 04 95 25 bb ff 62 e6 3d
       -0.11800915 0.19369707 -0.0025265822 0.11249351
000150 41 f0 07 3e 95 ca 2d be 41 76 51 be 90 2b 64 be
       0.13275243 -0.1697181 -0.20455267 -0.22282243
000160 18 0b 45 3c 5e 70 7f 3e b7 42 38 be 8b 0d d2 bd
       0.012026571 0.24945208 -0.179942 -0.10256489
000170 f2 79 59 3e 60 69 03 3e f1 57 4a 3d 16 a3 a1 bc
       0.21237925 0.12833166 0.049400274 -0.019731086
000180 d3 3b 3c be eb 93 7c 3e 50 31 28 be 63 1f 30 be
       -0.18382196 0.24665801 -0.16425061 -0.17199473
000190 e3 84 3c be 35 8b 17 3e f6 43 ae bd 0b b2 2f 3e
       -0.18410067 0.14799197 -0.08509056 0.17157762
0001a0 b1 46 63 3e 16 24 30 3e d6 b5 a4 bd 48 48 f7 3d
       0.22194935 0.17201266 -0.08042495 0.120743334
0001b0 eb b6 52 be 99 1f 5c 3d a3 de d3 3d 88 bd f7 3d
       -0.2057759 0.05374107 0.10345199 0.12096697
0001c0 56 03 38 be 44 ea e7 bd 54 2f 66 3e 51 80 1c 3e
       -0.17970023 -0.113239795 0.22478992 0.15283324
0001d0 28 e7 67 bc 02 8d e6 bd 9e 6b 15 3e 0b f8 1c 3e
       -0.014154233 -0.11257364 0.14591834 0.15328996
0001e0 6f d9 04 be da 07 22 be d0 15 13 be 82 29 17 bd
       -0.1297357 -0.15823308 -0.1436379 -0.03690482
0001f0 0e e5 42 3d 03 d1 03 be 5f 10 83 bd e4 25 74 3c
       0.047581725 -0.128727 -0.06399607 0.014901612
000200 09 ec 51 bd 53 b6 6c 3d b0 ec 2d bc b9 79 49 3e
       -0.05125049 0.057791065 -0.010615513 0.1967534
000210 70 2d 22 be 7a 7c 18 3e 4d e1 24 be 76 4c e6 3d
       -0.15837646 0.14891234 -0.1610157 0.112450525
000220 50 58 88 3d 44 07 03 be 65 bd 5d bd f5 b8 05 be
       0.06657469 -0.1279574 -0.0541357 -0.13058837
000230 93 4d 17 3e ab fe e2 3d e9 91 12 3e c3 34 33 be
       0.14775686 0.1108373 0.14313473 -0.17500596
000240 b6 8f 2c 3e 29 a0 a8 3d e7 14 db 3d de 4a a4 3c
       0.16851696 0.08233673 0.10697346 0.02005523
000250 d6 d8 29 3d 0f 70 12 bd ae d7 1e 3c 5b 65 17 3d
       0.041466556 -0.0357514 0.009694977 0.036961894
000260 72 49 33 3e 57 ce 1c be b7 c3 3a be 2b dd 51 3d
       0.17508486 -0.15313087 -0.18238722 0.051236313
000270 fc e1 6a 3e a2 c8 24 3e 25 0b 10 be 28 47 36 bd
       0.22937769 0.1609216 -0.14066751 -0.044501454
000280 09 8b e1 bd c1 9b ce 3d ac 28 ac bd 1e 84 e2 3d
       -0.11012847 0.100883015 -0.08406195 0.110603556
000290 cf ea f8 3d 00 0f e0 3d ee 7d 4b be 14 72 c9 3d
       0.12154161 0.10940361 -0.19872257 0.09836212
0002a0 f7 e6 0e bd 83 28 9f 3d f3 59 f3 bd 30 b2 84 3e
       -0.034888234 0.07771399 -0.11882391 0.25917196
0002b0 8e 68 af bd 04 60 f0 3d 4d 91 b2 3d f5 99 2e 3b
       -0.08564864 0.117370635 0.0871912 0.0026642059
0002c0 4c 80 f7 3d 78 c1 08 3e 88 01 73 bc 3f 45 57 3e
       0.120850176 0.13355052 -0.014831908 0.21022509
0002d0 70 0c a2 3d 1c 05 a0 3d fe e9 e7 bd da 14 08 3e
       0.079125285 0.078134745 -0.11323927 0.13289204
0002e0 2d 06 45 be 9b 71 6f 3e 4f 04 61 3e 39 ce 8c bc
       -0.19240637 0.23383181 0.219743 -0.017188178
0002f0 9d 70 36 be d9 76 08 be 82 6d 9a 3d a2 d5 46 3d
       -0.17816396 -0.13326587 0.07540418 0.04854358
000300 3e fa 61 3e a5 5f 36 bc f4 93 dc bd 7d 4e 38 3e
       0.22068116 -0.011131202 -0.10770407 0.17998691
000310 76 67 2b be 16 c3 df bd 4e 18 12 be fe aa d5 3d
       -0.16738686 -0.109258816 -0.14267084 0.10433005
000320 38 93 22 be dc aa 29 be 53 a3 d0 3d 5f ba 9c 3c
       -0.15876472 -0.16569084 0.101874016 0.019131837
000330 9f 14 9b 3d c8 cf 25 3d 66 80 21 be f3 38 a1 3d
       0.075722925 0.04048136 -0.15771636 0.0787219
000340 1d a5 95 bd 13 a2 f4 bd c4 2d cb bd 0e 35 2d 3e
       -0.073068835 -0.11944976 -0.099208385 0.1691477
000350 80 a1 2f be 8c d1 d3 3c ca aa 1a 3e 8e 17 0c bd
       -0.17151451 0.025856756 0.15104213 -0.03420215
000360 7c 36 af bd cf e1 08 3e 17 bb 11 be 44 19 80 3d
       -0.08555314 0.13367389 -0.14231525 0.06254819
000370 5e 24 da 3c 5b e3 63 3e f6 0c a5 bd dd 97 39 bd
       0.02662867 0.22254698 -0.08059113 -0.045310844
000380 a1 dc a6 3d be 95 44 3e 6b ad 15 3d 6c 12 46 3e
       0.081475504 0.19197747 0.036542337 0.19342965
000390 95 94 20 3e d9 fc 5c 3e 4a 56 3a bd b7 29 5d 3e
       0.1568168 0.21580829 -0.045492448 0.21597944
0003a0 b5 7e 08 be b9 dd 53 bd 73 57 12 be 46 e8 46 be
       -0.13329585 -0.051725123 -0.14291172 -0.19424543
0003b0 ea 0e ae 3d 84 97 49 3e 26 cc 0d bd 8c 0a 38 3e
       0.084989384 0.19686705 -0.03461852 0.17972773
0003c0 6d e4 38 3e c9 9c bd bd b5 e7 38 be 5a 68 3a 3e
       0.18055888 -0.0925842 -0.18057139 0.1820387
0003d0 54 77 44 be 35 c4 23 be 8b 91 ec 3d 5b ef bf bd
       -0.19186145 -0.15992816 0.115511976 -0.09371825
0003e0 1f cf 00 3e a6 d2 2a 3e ba 3d b6 3d 0c cc 8b 3d
       0.1257901 0.16681919 0.08898492 0.06826028
0003f0 a7 90 05 3e 06 82 69 3e 48 d8 36 3d d9 2d 9e 3d
       0.13043462 0.22803506 0.044639856 0.077235885

fc2.weight f4 [300, 300]
000000 65 ea ae 3d 8f 47 a9 3d 54 1b 66 3d cc 79 69 bb
       0.08540801 0.08265602 0.056178406 -0.0035625575
000010 bb 59 11 3d 45 17 bf 3c e5 aa 00 3d f8 3e 22 3d
       0.035485964 0.023326525 0.031412978 0.039610833
000020 aa 37 87 3d a4 b7 81 3c d3 32 0c 3d 89 99 ae 3d
       0.06602414 0.015834637 0.034228157 0.08525378
000030 09 1a 88 3d e2 4e da 3d 1a 03 ca bc 2c e6 93 bc
       0.06645591 0.10659577 -0.024659682 -0.01805409
000040 8b 32 16 bc f2 5e dc 3b a8 0f 84 3c af 7b 83 3c
       -0.009167324 0.0067251856 0.016120747 0.016050188
000050 c1 08 59 bc d7 11 22 3d 35 df c4 bc 80 3a a6 bc
       -0.013246716 0.039567795 -0.024032215 -0.020291567
000060 0f 6b b1 3d fb e1 95 3c 20 bd 8e 3d 37 e5 b1 3d
       0.08662998 0.018296232 0.069696665 0.086862974
000070 31 a5 cb 3c fc 77 d6 3d 63 ca f7 3c 85 6d 9e 3e
       0.024859043 0.10472104 0.030247873 0.30942932
000080 a7 cb a4 3d ac 18 09 3d ea 46 c9 3d b7 da 70 3d
       0.08046656 0.033470795 0.09827979 0.058802333
000090 c8 10 80 3d 82 b7 a8 3d c9 11 39 3d 7b 55 15 3d
       0.06253201 0.08238126 0.045182977 0.036458474
0000a0 28 a7 f9 bc 02 8f 9e 3b 31 d9 81 3d 72 67 d0 bc
       -0.030475214 0.004838825 0.06340254 -0.025439952
0000b0 02 4c 2c 3d 70 24 35 3e 13 4e 9e 3d ef 23 8d 3d
       0.042064674 0.17689681 0.07729735 0.068916194
0000c0 81 b7 2b 3d 08 a8 c8 3d 3a 7d b6 3c 16 35 0d 3d
       0.04192305 0.097976744 0.02227651 0.034474455
0000d0 16 12 be 3d 60 28 af 3d 63 8f 2c 3d 4e e7 c3 3d
       0.09280793 0.08552623 0.04212893 0.09565602
0000e0 8c 0a 4c bb 38 e7 2a 3c 74 9d ec 3b 4c 99 0f 3d
       -0.0031134216 0.010431103 0.0072209183 0.035058305
0000f0 7f 20 17 3d b5 b7 51 3d 2e 7f 8e 3d 75 8d 89 bb
       0.036896225 0.051200587 0.06957851 -0.004197771
000100 bd 39 f4 3c e9 c5 54 bc 06 12 40 bc ec 8e df 3b
       0.029812688 -0.012986639 -0.011723047 0.0068224575
000110 64 bf 98 3c 29 94 d1 3c de 53 b2 3d e0 fd fb 3c
       0.01864595 0.025583344 0.08707403 0.030760705
000120 61 bf ba 3d a3 56 b9 3d f8 95 70 3d c8 47 84 3d
       0.09118534 0.09049728 0.05873677 0.06459004
000130 23 58 a6 3d fc 45 10 3e 17 93 3a 3e da a2 24 3d
       0.081222795 0.14089197 0.18220173 0.04019437
000140 08 63 75 3c a7 9e 26 3c 24 8c 8f bb e0 b5 28 3d
       0.014977224 0.010169662 -0.0043807197 0.041189075
000150 91 a6 7d bc 1e ac a6 3d 79 64 d4 3c 2b 9a 55 3c
       -0.015481607 0.081382975 0.025926815 0.013037245
000160 f2 da 5e 3d 70 a9 c0 3d d1 f6 86 3d 6c a3 db 3d
       0.05440802 0.09407318 0.06590045 0.107245296
000170 6f b8 6e 3c b6 fd dc bb 6d 0c 94 3d b0 4e 4c 3d
       0.01457034 -0.006744112 0.072289325 0.04987973
000180 15 5a 00 3d 81 df 8b 3c 9c 2d b7 3c 1c 06 99 bb
       0.03133591 0.017074348 0.022360615 -0.0046699177
000190 f9 88 af 3d 1e 77 97 3d 4f 94 35 3d e3 9a 42 3d
       0.08571047 0.07395767 0.04433089 0.047510993
0001a0 6f 57 a1 3c 93 bc cc 3c 0c af 93 3d c2 30 be 3d
       0.019695012 0.024992263 0.07211122 0.092866436
0001b0 f9 34 b2 3d 3e 16 0d 3d 9c 2b a6 3d 9c 6d a5 3b
       0.0870151 0.03444504 0.081137866 0.005048467
0001c0 d4 75 7a 3c a9 e8 9b 3c 3c 6c 31 3d e2 d9 c0 3c
       0.0152868815 0.01903184 0.04331611 0.023541395
0001d0 33 fb 5d 3b bb 0c a2 3d d1 f0 8e 3d 86 f8 9a 3d
       0.003387165 0.079125844 0.06979526 0.07566933
0001e0 78 3c d1 3c 7c 41 8a 3d a0 c8 3f bc cd f6 c9 3d
       0.025541529 0.067507714 -0.011705548 0.09861527
0001f0 a5 bb 52 3c 6a cc ac 3d 76 60 65 3d 05 87 81 3e
       0.012862121 0.084374264 0.056000195 0.25298324
000200 d9 b5 2c 3d b8 65 99 3d 0f 61 9e 3d bc e2 11 3c
       0.04216561 0.074901044 0.07733356 0.008904155
000210 bd 5f bb 3b fa b4 64 bd b0 48 29 bd dd a0 68 3d
       0.0057182 -0.055836655 -0.041329086 0.056794036
000220 98 5b 09 3d c1 40 bd 3d 6a 38 9d 3d 78 7c 39 bc
       0.033534616 0.092408665 0.07676776 -0.01132118
000230 e7 05 85 3d 09 2e 99 3c cc 02 4d 3d 64 4e c7 bc
       0.064952664 0.01869871 0.050051495 -0.024329372
000240 ed 76 80 3d 1a 81 c6 3d 2b 9a eb bb e9 e7 20 3e
       0.06272683 0.09692593 -0.007190009 0.15713467
000250 3d 76 4a 3d 2e 8f 03 3d 71 30 06 bd 35 75 63 3d
       0.049429167 0.03211897 -0.03276104 0.0555317
000260 c2 62 10 3d 52 c6 03 3d da 35 a3 bc a8 cf 73 3d
       0.035250433 0.032171555 -0.01992314 0.05952421
000270 b9 46 10 bc a9 11 07 3c af 98 95 3d e3 b0 1c 3d
       -0.008805924 0.008243957 0.07304513 0.03825463
000280 cb 4a 1f 3e 8c 01 53 3b 2b 9a e3 3d c2 9d c0 3c
       0.15555875 0.0032196967 0.111133896 0.023512725
000290 8d 2e 15 3e 35 79 32 bc 65 6f 8d 3b 5d d5 c9 3d
       0.14568539 -0.010893156 0.004316258 0.09855149
0002a0 71 37 b7 3d 03 16 fa 3d c0 72 6e bc eb 49 ab 3d
       0.089461215 0.1221123 -0.014553726 0.08363708
0002b0 92 35 8b 3d 51 81 a0 37 45 78 c9 b9 5e 03 0e 3d
       0.06797327 1.9133704e-05 -0.00038427315 0.03467118
0002c0 cc ca 15 bc a5 df 27 3c b1 93 31 3d 87 60 c9 3c
       -0.009142589 0.010246192 0.04335374 0.02458216
0002d0 42 e1 92 3d 7c 21 5a bc 38 3f d5 3c 65 6b ac 3d
       0.07171871 -0.013313647 0.026031122 0.084189214
0002e0 4b 17 2b bc 19 b8 0b 3e 74 8a 2e 3d 59 de 5b bb
       -0.010442565 0.13644446 0.042612508 -0.0033549278
0002f0 dc e0 97 3d 4d 90 71 3d 77 f6 51 3d 87 9c 70 bb
       0.074159354 0.058975507 0.051260438 -0.0036714391
000300 fe 02 a8 3c ba 60 01 3d 5e 22 0e 3d f4 58 41 bc
       0.02050924 0.031586386 0.034700744 -0.011800993
000310 7a ab 90 bc 9d f0 e7 3b a4 87 c3 bb c0 f3 8f bc
       -0.017659891 0.007078244 -0.0059670974 -0.017572284
000320 0d 79 49 bb 3e 18 0b bb 62 37 4c 3d 40 5c cd b9
       -0.0030742318 -0.0021224166 0.049857505 -0.0003916938
000330 3d 47 5f 3b 0f 8c 2c 3c fc 18 3e bc d0 63 51 3d
       0.003406956 0.010531439 -0.011602636 0.05112058
000340 aa 1e 34 3d 2c e5 a6 bc 08 ec c6 3b e6 fb 83 3d
       0.043974556 -0.02037295 0.0060706176 0.0644453
000350 12 2e 8a bc fe 4f be 3a 35 c6 2d 3d b2 e6 30 3c
       -0.016867671 0.0014519689 0.042425353 0.01079719
000360 da c6 2b 3d 75 22 f4 bc 2b 68 06 3d 83 0c e9 3c
       0.041937687 -0.029801587 0.032814186 0.028448349
000370 ad 52 97 3d cc 69 70 3c 03 11 8c 3d 34 0f 89 3d
       0.07388816 0.014673661 0.06839182 0.06692353
000380 91 39 8e 3d d9 06 2d bd 4f 83 ac 3d 9d e2 17 3a
       0.06944574 -0.04224286 0.084234826 0.0005793961
000390 35 25 0b 3d 49 c9 24 3d 76 39 8c 3c f0 ea a5 3d
       0.03397103 0.040231023 0.017117243 0.081014514
0003a0 46 df 41 3d d5 09 b9 3b 67 45 aa bc 5d 99 b4 3d
       0.04733207 0.005646924 -0.020785047 0.08818314
0003b0 7b 8b 83 3d fc 93 a9 3c 08 59 bd 3d 15 6e c8 3b
       0.06423088 0.020700447 0.09245497 0.0061166384
0003c0 5f 60 71 3d 07 21 0a bc 32 41 ec bb b7 bb 05 3d
       0.058929797 -0.008430726 -0.0072099203 0.032649722
0003d0 0c 50 3d 3c 2a 70 e5 bc 53 51 04 3d 69 13 83 3d
       0.011554729 -0.028007586 0.03230412 0.064001866
0003e0 eb cf 2b 3d 22 68 b8 bc 27 19 50 3d 6c 4e 20 3d
       0.041946333 -0.022510592 0.050805237 0.03913729
0003f0 fa 45 a6 3d be 5c c5 3d f7 73 54 3c a5 0f 3f 3c
       0.08118816 0.0963683 0.012967101 0.011661445

fc2.bias f4 [300]
000000 0a 9f 40 3d 93 87 d6 bc 27 ed 2d bb f6 f3 df bc
       0.04702667 -0.026187694 -0.002653906 -0.02733801
000010 73 52 9b 3d cc 5c 66 3d 80 34 7c 3d 2c b9 e7 3c
       0.07584085 0.05624084 0.061573505 0.028286539
000020 3a f6 aa 3d d1 53 a8 bc 97 eb 34 bb 58 25 b4 3d
       0.08347745 -0.02054778 -0.0027606243 0.08796185
000030 c9 fa cb 3c 71 80 42 3d ac 69 0f 3d c7 c9 d5 3a
       0.024899857 0.047485773 0.035012886 0.0016310745
000040 d1 4c dd 3b 5d fa 11 bc 11 65 bb 3d 7c d6 59 3d
       0.006753542 -0.008909789 0.09150136 0.053183064
000050 9b e3 aa bd 7b e0 44 3d 9b 38 23 3c 56 14 a7 ba
       -0.083441935 0.048065644 0.009962226 -0.001274715
000060 fb 91 3c 3c 5a 24 03 3d 61 20 05 bb 87 12 29 3b
       0.011509414 0.03201709 -0.0020313489 0.0025798397
000070 06 c5 91 3d 13 61 b8 3d aa 14 71 3c 21 34 42 bb
       0.07117657 0.090028904 0.014714399 -0.0029633122
000080 84 e1 c8 bc cd 59 b9 3d 2c f4 86 3c 22 5e 7b 3d
       -0.024521597 0.09050331 0.016473852 0.06136907
000090 e2 8e 9e 3d 20 82 b8 3b 91 45 81 3d 01 1e d0 3b
       0.077420965 0.0056307465 0.06312097 0.006351233
0000a0 cc c6 dc 3b e2 02 68 3c f0 1b ef bc 63 2e 98 3d
       0.0067375656 0.014160844 -0.029188126 0.074307226
0000b0 c5 d1 71 bc 60 c3 0a 3d 71 16 99 3d 3e 28 2a 3d
       -0.014759486 0.03387773 0.074749835 0.041542284
0000c0 7b bc 4c bc c1 34 95 3c 96 41 fb 3c 8c f3 a4 3d
       -0.012496109 0.018213632 0.030670922 0.080542654
0000d0 85 d2 9c 3c 07 18 84 3d a0 a5 bf 3d b3 63 8c 3d
       0.019143352 0.06449895 0.09357762 0.068549536
0000e0 19 e1 84 3c 98 01 7f 3c 31 25 57 3c 2b b5 85 3d
       0.016220616 0.015564345 0.013131426 0.06528696
0000f0 63 f0 aa 3d 37 2b 3e 3b 4a 7d 2f bc e8 f8 c0 ba
       0.083466314 0.0029017457 -0.010711024 -0.0014722617
000100 76 a9 45 3d 50 11 84 bc 66 a7 55 3d 12 75 60 3d
       0.048257314 -0.016121536 0.052161597 0.054799147
000110 71 4d 8c 3b fb 9c 01 3d dc ec 4d bc 50 f4 a2 3d
       0.0042816927 0.03164385 -0.012568679 0.07956755
000120 9d 59 5f 3d 7b 9f af bb 4a 77 a6 bc 57 27 8a 3d
       0.05452882 -0.0053595877 -0.020320553 0.06745785
000130 d7 cc 57 3c a9 49 82 bc 6e be 9d bc 29 f6 00 3d
       0.013171396 -0.015904265 -0.019255843 0.031484757
000140 f8 0b c4 bc aa c5 88 3d 62 5e 81 3d 99 fc 6a 3d
       -0.023931488 0.066783264 0.0631683 0.057369802
000150 e0 a4 c0 3c b0 5c b9 3d 20 aa 42 3d 49 68 7e 3d
       0.023516119 0.09050882 0.047525525 0.062111173
000160 58 7b d9 bc df e2 7e 3d 19 cc 5d 3d 26 cc 85 3d
       -0.026548073 0.06222808 0.05414972 0.06533079
000170 38 7c a8 3d cd 07 81 bc 1d 48 82 3d 52 a1 5a 3d
       0.08226818 -0.01575079 0.06361411 0.053376503
000180 0e ac 5c 3d 47 fc 4b bc 89 73 93 bc c3 d5 22 3d
       0.05387502 -0.012450284 -0.017999427 0.03975464
000190 37 0f c5 3d 52 85 bb 3b ab 0b db bb ac 2d 63 3d
       0.096220426 0.00572268 -0.0066847405 0.055463478
0001a0 e4 25 c7 3c 1c 9f 20 3d 0e d2 97 3d fe 4a 36 3d
       0.02431006 0.03921424 0.074131116 0.044505112
0001b0 d0 df 8b bc a7 d7 85 3d c0 d4 1e bc 48 dd 0f 3c
       -0.017074496 0.06535273 -0.009694278 0.008780785
0001c0 13 ac d6 3b c1 b8 e7 3c 98 b9 2f bb f4 72 b9 3c
       0.0065512746 0.02828634 -0.0026813503 0.022637822
0001d0 2b bc 0d 3d e3 30 21 3d a4 74 31 3d 96 8f a5 bd
       0.03460328 0.039353263 0.043324128 -0.080840275
0001e0 ae 57 00 3c 1c aa 16 3d 6b 5d f4 3c 79 1d 72 3d
       0.0078334045 0.036783323 0.029829701 0.05911014
0001f0 46 b5 58 3d b9 ca 74 3d 5a e7 88 3d 3e 50 13 3c
       0.05290725 0.059763644 0.06684752 0.008991299
000200 f7 12 20 3d f1 77 7e 3d 09 3c 98 bb 00 5c 23 3c
       0.039080586 0.062126104 -0.0046458286 0.009970665
000210 0a 43 0c 3c 1c cf 68 3d 56 f1 04 3b 93 4e ba 3d
       0.008560905 0.05683814 0.002028545 0.09097018
000220 64 35 82 3d 27 46 61 bc e5 d7 05 3d 05 5a de 3c
       0.0635784 -0.013749636 0.032676596 0.027142534
000230 f5 cb d1 bc 3b 2e 1a 3d dd 14 6b 3d d7 d7 fc 3c
       -0.02560995 0.037641745 0.057392944 0.03086464
000240 af 44 8a 3c 5c ba 99 3d 79 b5 b7 3c 45 f1 b8 3d
       0.016878454 0.07506248 0.0224254 0.090303935
000250 4c 9e 4d bc f1 8a 0d 3d c6 76 2b 3c be b3 28 3d
       -0.012549948 0.034556333 0.0104653295 0.04118704
000260 41 17 0d bd 38 f9 a9 bd d6 08 83 3d 7b ab e6 3c
       -0.034446005 -0.08299488 0.0639817 0.02815794
000270 20 53 3a bc 2d c0 28 3d ba 6a e1 3c 72 8e eb 3a
       -0.011372358 0.041198898 0.027516712 0.0017971529
000280 f5 4f 4a 3d 81 58 9c bc d6 a8 9b 3c 9c f9 bf 3a
       0.04939266 -0.01908517 0.019001406 0.0014646533
000290 53 7e 95 bc f4 39 03 bc 45 c9 1a 3d 40 a5 89 3d
       -0.018248713 -0.008009423 0.0377896 0.06720972
0002a0 3c 32 8b 3d f2 81 20 bc 3c cd ee bb 84 78 8f 3d
       0.06796691 -0.009796606 -0.0072876494 0.070054084
0002b0 5b 6f 65 3d 86 ac 05 3d 7d 40 8f 3d 6c 9b 27 3d
       0.0560144 0.032635234 0.06994722 0.040919706
0002c0 1a ec 75 bc e8 10 93 3d b6 cc c1 bb e8 e1 fe 3c
       -0.015009904 0.07180959 -0.005914296 0.03111358
0002d0 67 76 9f 3d 52 be a6 bc b1 46 2e bc 9b 8e 51 3d
       0.07786255 -0.020354424 -0.010636971 0.05116139
0002e0 41 5c 48 3d 9f 61 36 3d 39 e1 3e 3d 6d 87 bf 3d
       0.048916105 0.044526692 0.046601508 0.09352002
0002f0 06 a5 a0 3d e6 38 7e 3d 6b 49 73 3d d6 53 03 3c
       0.07843976 0.06206598 0.05939619 0.0080155935
000300 33 54 9a 3d 87 63 c0 3d 50 49 10 3d 06 b2 b8 3a
       0.07535591 0.09393983 0.035226166 0.0014091141
000310 38 4e 12 3c 08 9a 94 bc 2c 46 0a 3c 0a 01 d8 ba
       0.008929782 -0.018139854 0.008439582 -0.0016479802
000320 b7 64 f4 bb a3 3f 3e 3d 26 be f8 3c 69 22 59 bc
       -0.007458295 0.046447407 0.030364107 -0.013252833
000330 b7 f5 b1 3a fa 94 82 3d 9c 08 46 3d c5 29 b1 3c
       0.0013577257 0.06376071 0.048348054 0.021626363
000340 63 3b 16 3c a6 c6 eb 3b ab 68 4b bc 28 ca 36 3d
       0.009169432 0.0071953116 -0.0124150915 0.044626385
000350 6e 50 35 bc 99 ac 8d 3c 0d 83 20 bc b8 73 0f 3d
       -0.011066539 0.017294215 -0.00979687 0.035022467
000360 ca 52 75 bd 85 4a b5 3c 65 61 76 bc 8b 10 9b bb
       -0.059893407 0.02213026 -0.015037869 -0.0047321967
000370 a5 52 8e bc c9 d1 a9 3d 70 46 9c 3d f8 6c 7a bb
       -0.017373392 0.082919665 0.076306224 -0.0038211923
000380 21 75 ba 3d e6 5f 26 bc 66 04 84 bd ce f3 b9 bb
       0.09104372 -0.0101547 -0.064461514 -0.0056748157
000390 d2 9b 84 3d d4 25 d3 3c a8 33 20 3d cb cb 19 bb
       0.06475033 0.025774874 0.039111763 -0.0023467417
0003a0 5e a1 16 3d a7 c4 8c bc 86 54 0b 3c 76 56 82 3d
       0.036774985 -0.017183615 0.008504039 0.06364147
0003b0 3c 4d f8 3c 21 f5 94 3d 03 d5 5c bb be 4f 48 bb
       0.030310266 0.07273317 -0.00336963 -0.0030565108
0003c0 a0 a0 5d 3c 53 e6 d6 ba 78 9d 97 3d d2 d9 78 3c
       0.0135270655 -0.0016395546 0.07403082 0.015188651
0003d0 ae 6d 82 3c 17 3f 95 3d b3 53 92 3d fd 54 6e 3d
       0.01592144 0.07287424 0.071448706 0.05818652
0003e0 73 6f 9d 3d 42 7b 1b 3c 64 f6 51 bc d0 0a 50 3d
       0.07687273 0.009489836 -0.012815092 0.05079156
0003f0 68 b1 2d 3d 8f 0f a9 3c e4 8b b2 3d ca 33 54 bc
       0.042405516 0.020637302 0.08718088 -0.012951801

fc3.weight f4 [5, 300]
000000 2f 8f b0 3e b6 a0 d9 bc 8e 3e a0 3e 85 66 9c 3e
       0.3448424 -0.02656589 0.31297725 0.30546966
000010 9e d7 91 3e 37 79 ac 3e 27 d5 8e 3e d0 22 a2 3e
       0.28484815 0.3368623 0.27896997 0.31667185
000020 5c ab 9b 3e 5c bb a4 3e 88 c1 b1 3e 55 4f 8e 3e
       0.30404174 0.32174194 0.34717965 0.277949
000030 c2 53 a9 3e 3f fc 80 3e 11 ba 92 3e 96 38 b6 3e
       0.33071715 0.25192448 0.28657582 0.35590047
000040 94 3a bb 3e fa 84 82 3e 0a 1b ae 3e 4c 0e 95 3e
       0.3656813 0.25492078 0.34005004 0.2911247
000050 d7 6e f6 bc 36 c8 9d 3e 10 3a 8c 3e b6 11 8b 3e
       -0.03008215 0.3081681 0.27388048 0.2716195
000060 98 c2 84 3e 92 ba 88 3e 79 e7 7e 3e 11 11 5c 3c
       0.25929713 0.26704842 0.24892987 0.013431803
000070 64 53 ad 3e 28 ef a9 3e 65 94 a7 3e fd a9 b1 3e
       0.33852684 0.33190274 0.32730404 0.34700003
000080 b5 8a 9a 3e 79 78 af 3e 6a 45 8d 3e 71 02 8f 3e
       0.3018395 0.342716 0.2759202 0.2793155
000090 3d 0c 80 3e fd 8f 83 3e 94 6b c9 3e 5e e2 a7 3e
       0.25009337 0.25695792 0.39339888 0.32789892
0000a0 f3 92 8b 3e 50 cf a2 3e 3f c6 ac 3c 78 a1 b1 3e
       0.2726055 0.31798792 0.021090625 0.34693503
0000b0 ca 85 9c 3e 9a 59 7f 3e 8b 17 ac 3e 8b 90 aa 3e
       0.30570823 0.24936524 0.33611712 0.33313403
0000c0 26 62 9c 3e b1 a8 93 3e 8b 93 98 3e f2 90 af 3e
       0.3054363 0.2883964 0.29800066 0.34290272
0000d0 e0 1a 92 3e 66 2d a4 3e a9 bd ac 3e 07 c3 ac 3e
       0.2853613 0.32065886 0.3373845 0.33742544
0000e0 0c 9e af 3e 40 7b a0 3e 8a 00 a9 3e f4 d9 89 3e
       0.34300268 0.31344032 0.33008224 0.26924098
0000f0 65 29 87 3e 93 1e b2 3e 98 65 c1 3e 32 b0 98 3e
       0.2639877 0.3478895 0.37772822 0.29821926
000100 76 49 b8 3e b5 50 aa 3e 2b 6f 9d 3e 60 7e 90 3e
       0.35993546 0.332647 0.30748877 0.28221416
000110 64 77 a5 3e 0d 67 89 3e 06 04 a6 3e 98 fe b7 3e
       0.3231765 0.26836434 0.32424945 0.35936427
000120 66 69 a4 3e f8 11 aa 3e 75 46 a1 3e 6b fd a6 3e
       0.32111663 0.33216834 0.31499067 0.32615218
000130 f0 37 96 3e 3a 22 b0 3e a8 45 a0 3e ff c1 c1 3d
       0.29339552 0.34401113 0.31303144 0.0946083
000140 41 48 93 3e 1f e4 b8 3e 27 44 de 3d b0 86 b0 3e
       0.28766063 0.36111543 0.10852843 0.34477758
000150 6e cf b4 3e ea d8 a6 3e 71 a4 88 3e 3d ff 98 3e
       0.35314506 0.32587367 0.2668796 0.2988223
000160 6e dc 9d 3e 78 bb ac 3e 1a 07 84 3e 87 89 88 3e
       0.30832237 0.33736777 0.25786668 0.26667425
000170 34 51 96 3e 34 1c b8 3e f6 14 92 3e 95 b3 9d 3e
       0.29358828 0.35959017 0.28531617 0.30801073
000180 d5 86 83 3e eb 2a ba 3e 6d e4 97 3e c0 2d 9e 3e
       0.25688806 0.3636087 0.29666463 0.3089428
000190 8c 0e a9 3e c6 27 7f 3e 0a a9 99 3e 8a 17 99 3e
       0.3301891 0.24917516 0.3001178 0.2990077
0001a0 0c 13 9b 3e b7 e4 b3 3e 55 c5 8c 3e 30 d8 bc 3e
       0.3028797 0.35135433 0.27494302 0.36883688
0001b0 3e a0 8c 3e 81 b4 86 3e 80 32 94 3e 34 1a 97 3e
       0.27466005 0.2630959 0.28944778 0.2951218
0001c0 cf 9a 9a 3e f5 6b a0 3e 08 36 8f 3e 7a 09 a1 3e
       0.30196235 0.31332365 0.2797091 0.31452543
0001d0 02 1c 8b 3e c3 1a 9f 3e b8 35 af 3e b4 dc 18 bc
       0.27169806 0.31075105 0.34220672 -0.0093299635
0001e0 5a 23 8f 3e ad ef af 3e 51 64 a6 3e 12 a5 b2 3e
       0.2795666 0.34362546 0.3249841 0.34891564
0001f0 ea e0 aa 3e a0 65 af 3e ea 28 96 3e 1a 37 ab 3e
       0.3337472 0.3425722 0.2932809 0.33440477
000200 66 80 b6 3e be 40 63 3e 67 cb b0 3e e9 38 9f 3e
       0.35644835 0.22192666 0.34530184 0.31098107
000210 c8 a7 97 3e 5e a2 9d 3e 17 5a b0 3e 37 da ac 3e
       0.29620194 0.3078794 0.34443733 0.33760235
000220 5b 42 93 3e 88 1e b3 3e 23 a4 c4 3e eb 41 8f 3e
       0.28761563 0.3498423 0.38406476 0.2797998
000230 bc b3 ce 3e 34 e7 86 3e ee 3a b0 3e be 1e ad 3e
       0.403715 0.2634827 0.3441996 0.33812517
000240 76 9b a7 3e 30 20 ba 3e 8e 0f 98 3e 2d 5f 8e 3e
       0.32735795 0.36352682 0.29699367 0.27806988
000250 80 b6 9d 3e b1 e7 9d 3e a1 b9 b3 3e 61 71 81 3e
       0.308033 0.3084083 0.3510256 0.25281814
000260 bc b5 88 3e 81 35 ee bc 10 83 84 3e f5 47 b1 3e
       0.26701152 -0.029078247 0.25881243 0.3462521
000270 32 42 b5 3e ec ca a1 3e 0e 60 7d 3e c1 c0 be 3e
       0.35402066 0.3160013 0.24743673 0.37256435
000280 39 21 b5 3e 93 b0 a6 3e 65 71 9b 3e 25 7e 9c 3e
       0.3537691 0.3255659 0.3035995 0.3056499
000290 f8 14 9d 3e 50 56 9a 3e d0 e2 9a 3e 8d b1 cb 3e
       0.3068006 0.30143976 0.3025117 0.39783898
0002a0 04 18 a4 3e 35 5b 96 3e b1 de a0 3e 9b b6 a2 3e
       0.32049572 0.2936646 0.314199 0.31779942
0002b0 c0 68 56 3e d4 48 93 3e b3 35 c7 3e 2d 4e 92 3e
       0.20938396 0.287665 0.38908157 0.28575268
0002c0 11 29 a8 3e 31 33 a3 3e ac f3 ab 3e d3 d3 97 3e
       0.3284383 0.31874993 0.33584344 0.29653797
0002d0 50 c9 a4 3e 52 63 a4 3e 39 d6 a1 3e f5 1e ae 3e
       0.3218484 0.32107025 0.3160875 0.34007993
0002e0 e9 ee 84 3e 89 cf 85 3e 1d 7d aa 3e ce 04 b3 3e
       0.25963524 0.261349 0.3329858 0.34964603
0002f0 f6 f7 92 3e 09 21 ae 3e f7 05 aa 3e ca fb a8 3e
       0.28704804 0.3400958 0.33207676 0.330046
000300 37 0e 92 3e 41 38 b1 3e dd 11 b2 3e 3c 4b 9a 3e
       0.2852647 0.3461323 0.34779254 0.30135524
000310 9f 89 a0 3e 2b df a2 3e 4b 2d ab 3e 60 01 a4 3e
       0.31354997 0.3181089 0.33432993 0.320323
000320 30 09 96 3e 92 d5 9c 3e d3 5e a9 3e 98 cf a7 3c
       0.29303885 0.3063169 0.33080158 0.02048473
000330 18 ab 9d 3e a9 39 a1 3e 58 96 b6 3e a7 7d a8 3e
       0.30794597 0.31489304 0.35661578 0.32908365
000340 04 1f 99 3e 67 19 ac 3e 3d e1 99 3e 4e 04 94 3e
       0.29906476 0.3361313 0.30054656 0.28909534
000350 e5 d1 7d 3e b8 3e ac 3e 3a b1 b6 3e 2a 20 9b 3e
       0.247871 0.336416 0.35682088 0.30297977
000360 28 a0 d7 bb f0 98 b5 3e c5 ef a5 3e ef 13 b0 3e
       -0.0065803714 0.35468245 0.32409492 0.34390208
000370 d4 bd 96 3e 61 d7 a9 3e af 48 9d 3e 81 ed 87 3e
       0.29441702 0.33172134 0.30719516 0.2654839
000380 50 37 b0 3e 89 e6 98 3e 2c 99 c5 bc 23 03 b7 3e
       0.344172 0.29863384 -0.02412089 0.3574458
000390 c8 14 98 3e 1b c7 a0 3e db e3 99 3e a5 78 9a 3e
       0.29703355 0.31401905 0.30056652 0.3017017
0003a0 3e 73 ad 3e 0a bf 9e 3e cb 1c 9e 3e 0f 90 a8 3e
       0.33876985 0.31005126 0.30881342 0.32922408
0003b0 e0 4b 9b 3e f6 8a 9d 3e a4 da a3 3e a6 37 98 3e
       0.30331326 0.3077008 0.32002747 0.29729956
0003c0 90 4b 9d 3e d6 36 93 3e 4b 5c ab 3e 1a 19 bc 3e
       0.30721712 0.28752774 0.3346885 0.367379
0003d0 e6 64 96 3e 07 15 c4 3e 5b b7 96 3e 7e d0 b5 3e
       0.29373854 0.38297293 0.29436764 0.3551063
0003e0 c5 68 a5 3e da fb 96 3e 3a 2c ae 3e 74 5b a7 3e
       0.32306495 0.29489022 0.34018117 0.3268696
0003f0 cb 57 8d 3e 0b 7f a4 3e 74 8c a0 3e 9a 6c a3 3e
       0.27606043 0.32128176 0.31357157 0.31918794

fc3.bias f4 [5]
000000 6b 13 9d 3e 24 65 a6 3e 47 d6 9a 3e 41 d4 8a 3e
       0.30678877 0.3249904 0.30241606 0.27115062
000010 96 5e ad 3e
       0.33861226
