model_weights/taxi_weights/model_taxi_MSE.pt (torch, 395022 bytes, 6 tensors)

fc1.weight f4 [300, 20]
-0.0095758755 -0.045849975 -0.07652142 -0.028065093 0.01973874 0.059979547 -0.1986522 0.11302451
-0.18631288 0.00030991883 -0.071932465 -0.24353854 -0.2086952 -0.007309449 0.17423707 0.16640896
0.068125606 0.17799748 0.07420883 -0.1363165 0.21079531 0.08168003 -0.036967013 0.09623572
-0.15900433 0.0012522319 -0.07777653 -0.007037036 -0.022859512 0.14536393 0.013651573 -0.24394257
-0.23407038 -0.23770961 -0.036383476 -0.19626918 -0.0433465 0.22938858 0.10816424 0.21169858
-0.0312813 -0.122640036 -0.059237182 0.03719692 -0.08421736 0.050880697 0.10762843 0.15982379
0.06329611 -0.006452104 -0.034369554 -0.16379829 0.20018455 0.15108915 0.102509834 -0.13375944
0.124963 -0.3263005 -0.07400323 0.2890386 -0.037982915 -0.08183596 -0.028291434 -0.017213756
-0.018841494 -0.19097224 -0.1683686 -0.28206357 -0.004699854 -0.07911115 0.10248363 -0.07398697
-0.22931841 -0.11405506 -0.14209376 0.07426759 -0.1188494 0.21565863 0.26769036 0.099483855
0.20117491 -0.020337217 0.010210501 -0.1485474 -0.13080698 -0.021642243 -0.22390053 0.09460918
-0.054096844 0.1009384 -0.26854858 -0.28323868 -0.11272406 -0.098689556 -0.043685 -0.0655789
0.17909768 -0.054925438 -0.087015495 0.33565664 0.17576475 0.14161545 0.103302345 0.011033739
0.18103018 -0.14692046 0.085349746 0.05357273 -0.021301808 0.25573766 0.0052227126 0.18826385
-0.012180719 0.23373556 0.23989704 0.0079511255 -0.110476546 0.14631754 -0.21962595 -0.19763191
-0.15096164 0.118005134 0.13921751 0.19527547 -0.12580381 -0.1905352 -0.08943572 0.21242589
0.007459394 0.10016471 -0.0064434893 0.011557216 0.06566721 0.091421336 -0.18263909 0.047135085
-0.18603289 -0.014704071 -0.115070425 0.24341308 -0.18185055 0.041796632 -0.17930664 -0.0065337853
-0.18305394 -0.06506229 0.14157192 0.111652784 -0.20375036 -0.116833396 0.18679073 -0.14827763
-0.06680645 -0.02073764 -0.15141538 -0.0058746114 -0.16638774 -0.15044601 0.15986386 -0.302816
0.123391904 0.11184499 0.22397776 0.029043611 -0.111566536 0.08797624 0.070800774 0.24430935
0.18766882 0.105243176 0.06193663 0.04596579 0.18331084 0.18390702 -0.11575057 0.12252739
-0.04723016 -0.24649616 -0.20325884 0.23883644 -0.1133502 0.19169936 -0.186205 0.12010042
-0.056504883 -0.20198254 -0.19023971 0.22823526 0.15926528 -0.02061041 0.042984717 -0.0065001203
0.24925008 -0.05156311 -0.108050376 -0.030253237 -0.19259842 -0.032018207 -0.154796 -0.06808966
0.14541942 0.020059127 0.05538231 -0.20159714 -0.025223386 0.08553506 -0.23757923 -0.119966134
-0.15172991 -0.019162692 0.17067477 -0.18697736 -0.1543666 -0.11337737 -0.18225372 0.043449316
0.08955117 -0.12055909 0.25790069 0.32043582 -0.01710778 -0.18889834 -0.036365837 -0.031540353
0.24985872 -0.08817316 0.105466075 -0.09533635 -0.17624648 -0.19127169 0.20449804 0.19302842
0.17380705 0.119453795 0.05989687 0.13564976 -0.051943153 0.08647383 -0.24289003 0.37103558
0.10740947 -0.0011375974 0.20618553 0.01077291 0.088777855 0.24797514 -0.0597034 0.07854412
-0.06429006 0.21902576 0.04445 0.030517194 -0.017412623 0.19491586 0.2529996 -0.09034909
00000000: 22e4 1cbc 2fcd 3bbd 43b7 9cbd c4e8 e5bc
00000010: 23b3 a13c 1dad 753d 7b6b 4bbe 6579 e73d
00000020: cec8 3ebe 9a7c a239 5451 93bd 2b62 79be
00000030: 32b4 55be 1a84 efbb 346b 323e 1c67 2a3e
00000040: 7085 8b3d f944 363e cdfa 973d 8d96 0bbe
00000050: bada 573e dc47 a73d b96a 17bd 3c17 c53d
00000060: 08d2 22be ee21 a43a 4d49 9fbd f096 e6bb
00000070: df43 bbbc 48da 143e d9aa 5f3c 15cc 79be
00000080: 25b0 6fbe 266a 73be d706 15bd cafa 48be
00000090: 198c 31bd d7e4 6a3e 3785 dd3d 83c7 583e
000000a0: d220 00bd b32a fbbd b0a2 72bd cc5b 183d
000000b0: 277a acbd 4768 503d 4b6c dc3d d9a8 233e
000000c0: 64a1 813d 2c6c d3bb 17c7 0cbd bdba 27be
000000d0: 2efd 4c3e 1db7 1a3e adf0 d13d 3cf8 08be
000000e0: 9aec ff3d dc10 a7be 018f 97bd defc 933e
000000f0: f993 1bbd 9d99 a7bd 70c3 e7bc dd03 8dbc
00000100: 7a59 9abc 3a8e 43be d168 2cbe a36a 90be
00000110: 3c01 9abb 0705 a2bd f0e2 d13d 7b86 97bd
00000120: 72d2 6abe b395 e9bd 0781 11be 9b19 983d
00000130: 5067 f3bd 9ed5 5c3e b60e 893e 31be cb3d
00000140: cc00 4e3e 3c9a a6bc f249 273c cf1c 18be
00000150: 44f2 05be 134b b1bc 2e46 65be 75c2 c13d
00000160: a794 5dbd cbb8 ce3d 337f 89be a904 91be
00000170: dfdb e6bd c01d cabd 0bef 32bd 3b4e 86bd
00000180: 6265 373e 7ff9 60bd 2e35 b2bd 30db ab3e
00000190: adfb 333e a403 113e 2e90 d33d dbc6 343c
000001a0: fa5f 393e 5172 16be d9cb ae3d 146f 5b3d
000001b0: 2181 aebc 0cf0 823e 4a23 ab3b 3dc8 403e
000001c0: a391 47bc 6058 6f3e 92a7 753e 7045 023c
000001d0: 8741 e2bd 44d4 153e a0e5 60be 0560 4abe
000001e0: b095 1abe adac f13d 098f 0e3e 4bf6 473e
000001f0: b7d2 00be a91b 43be 132a b7bd 2c86 593e
00000200: ef6d f43b 2823 cd3d e823 d3bb 7a5a 3d3c
00000210: 887c 863d 1c3b bb3d be05 3bbe b810 413d
00000220: 687f 3ebe 58e9 70bc 0baa ebbd 4741 793e
00000230: 0837 3abe f232 2b3d 299c 37be 5d19 d6bb
00000240: 7e72 3bbe 613f 85bd 3bf8 103e 37aa e43d
00000250: efa3 50be 5946 efbd 1246 3f3e 17d6 17be
00000260: d2d1 88bd fce1 a9bc a20c 1bbe d07f c0bb
00000270: 8c61 2abe 850e 1abe 5ab3 233e b30a 9bbe
00000280: e5b4 fc3d fc0e e53d 6d5a 653e deec ed3c
00000290: ff7c e4bd e32c b43d ffff 903d 3b2c 7a3e
000002a0: 412c 403e bc89 d73d 44b1 7d3d a046 3c3d
000002b0: d6b5 3b3e 1f52 3c3e a30e edbd a4ef fa3d
000002c0: 6a74 41bd 7d69 7cbe 1623 50be 8a91 743e
000002d0: 2624 e8bd d64c 443e 86ac 3ebe 36f7 f53d
000002e0: aa71 67bd 83d4 4ebe 33ce 42be 81b6 693e
000002f0: 7016 233e 2ad7 a8bc be10 303d f6fe d4bb
00000300: 6a3b 7f3e d733 53bd 8449 ddbd a3d5 f7bc
00000310: 8538 45be 8625 03bd d882 1ebe 9772 8bbd
00000320: d4e8 143e 0a53 a43c 90d8 623d 7b6f 4ebe
00000330: 46a1 cebc 012d af3d f847 73be ceb0 f5bd
00000340: 165f 1bbe 14fb 9cbc 5ec5 2e3e fe76 3fbe
00000350: 4712 1ebe 6532 e8bd b8a0 3abe e9f7 313d
00000360: 9b66 b73d afe7 f6bd 8f0b 843e 2a10 a43e
00000370: 9d25 8cbc 916e 41be 58f4 14bd 7530 01bd
00000380: f7da 7f3e 2194 b4bd 99fe d73d b43f c3bd
00000390: f579 34be badc 43be ef67 513e 3ea9 453e
000003a0: 7afa 313e 31a4 f43d 6c56 753d c5e7 0a3e
000003b0: 58c2 54bd 3119 b13d 2ab8 78be 60f8 bd3e
000003c0: 7ff9 db3d 6f1b 95ba 4d22 533e dc80 303c
000003d0: 2ad1 b53d 32ed 7d3e 8d8b 74bd bddb a03d
000003e0: 82aa 83bd 4a48 603e 3411 363d 32ff f93c
000003f0: eba4 8ebc 0698 473e 2a89 813e f208 b9bd

fc1.bias f4 [300]
-0.14359412 -0.04628651 -0.06480137 -0.09707679 -0.01947573 -0.07423367 0.11966818 -0.0059303953
0.048021898 0.16916455 -0.031129392 -0.06380092 0.045829102 -0.06348815 0.13180822 -0.009780909
0.00023695822 -0.025547812 -0.124716334 0.13891928 -0.08970007 0.058937944 0.19645607 0.029961346
0.112404004 -0.10656638 0.021025253 0.10701846 0.010333449 0.13333231 0.12152315 -0.21432903
-0.17441884 0.012910031 -0.14690073 -0.12908733 0.06542316 -0.04146794 0.045911837 -0.04122493
0.013183985 0.117317066 -0.076887995 -0.027698088 0.15927385 0.08070821 -0.11147614 -0.21392198
0.1179928 0.012122329 -0.17633778 0.111647144 -0.024698725 -0.043078594 0.054747995 0.19018725
0.0177105 -0.10431187 -0.16176692 -0.035433996 -0.20205094 -0.090029344 -0.22180447 -0.1689624
-0.17425801 -0.03727532 -0.060749404 -0.127194 0.059759036 -0.171958 0.21033473 0.07478536
-0.18375134 -0.18236433 -0.10295112 -0.18144403 -0.08178543 -0.055623267 -0.105624065 0.09153747
0.09766653 0.1267013 0.057401743 0.15234794 -0.046814166 0.120041385 0.0016649546 -0.1255931
0.030711286 0.15083888 0.0030039009 0.040972132 -0.08240051 -0.1574847 0.17453001 0.12971446
0.16995415 0.08628431 -0.20624977 -0.031983398 -0.011253989 0.064647526 0.07127536 -0.15094538
-0.21711808 -0.07321329 -0.19639143 -0.13832533 -0.19906497 -0.13483502 -0.13481526 -0.022910828
-0.01062285 0.10050274 0.17107603 -0.002008657 0.17950314 0.16333511 -0.18623513 0.030956328
0.13884965 -0.11912631 0.06878484 0.080875814 0.013251735 -0.17291635 0.056365322 -0.19596298
0.18672241 -0.11107839 -0.092363834 0.16791466 0.009177652 0.03174278 -0.21162613 0.1909805
0.12445687 0.06976593 0.08916284 0.06963764 0.17123166 -0.12728761 0.030929517 0.024839139
-0.010202316 -0.04595779 -0.15053384 -0.016236192 -0.13082382 -0.1461709 0.1449344 -0.08040637
0.0296894 0.001510144 0.042835258 -0.016314033 0.14877973 0.17194794 0.09071988 -0.20626277
-0.17045844 0.033990707 0.14967015 0.025541442 -0.06750949 0.11873572 0.09818536 -0.031883527
0.04592949 0.18595187 -0.029522993 0.11558483 -0.1315212 0.03580404 -0.06102783 0.03812616
0.13398358 0.1937293 -0.13300534 0.07186778 0.03377588 -0.062209886 -0.10415719 0.08470771
-0.07069977 -0.10290939 0.06861653 -0.084848545 -0.18621393 0.17925242 -0.1712421 -0.17406099
0.033329457 -0.10235623 -0.17162563 0.15490447 0.08468224 0.035135623 -0.0646602 -0.0792673
-0.11915587 -0.07225546 -0.13257252 -0.13056034 -0.13332212 0.18497492 -0.15276124 -0.009375283
0.1495453 -0.13049522 0.08306695 -0.103787325 0.09320295 -0.11765352 -0.16710286 0.039944947
-0.009436965 0.2137009 -0.21203253 0.011315437 -0.12175699 -0.20515157 0.050756514 0.09959181
0.063735284 -0.235838 -0.1543103 0.024893478 -0.21995784 -0.039673854 -0.2268688 -0.17370442
-0.00036126358 -0.10134522 -0.21691403 0.16623811 -0.18042669 0.14739949 -0.027995456 0.06434325
0.06954923 0.07492618 -0.09639156 0.15410104 0.01214613 -0.18471898 -0.06262604 -0.036442604
0.027705139 0.010969195 -0.13807511 -0.058810472 0.15539432 0.14940852 -0.04745117 0.006984992
00000000: 560a 13be ec96 3dbd 95b6 84bd 32d0 c6bd
00000010: 918b 9fbc d307 98bd 9714 f53d c353 c2bb
00000020: 9cb2 443d 7939 2d3e 1103 ffbc 0faa 82bd
00000030: 4cb7 3b3d 1306 82bd bcf8 063e 1b40 20bc
00000040: fd77 7839 a549 d1bc 476b ffbd db40 0e3e
00000050: acb4 b7bd ea68 713d c82b 493e 7f71 f53c
00000060: 1234 e63d 793f dabd 273d ac3c 7f2c db3d
00000070: a04d 293c 4488 083e 21e1 f83d 1279 5bbe
00000080: da9a 32be 9884 533c 256d 16be 782f 04be
00000090: 94fc 853d 49da 29bd 0d0e 3c3d 79db 28bd
000000a0: a401 583c ee43 f03d 7477 9dbd 1ae7 e2bc
000000b0: af18 233e 594a a53d 9a4d e4bd 5d0e 5bbe
000000c0: 36a6 f13d bc9c 463c e491 34be 42a7 e43d
000000d0: fb54 cabc 2e73 30bd 6f3f 603d 72c0 423e
000000e0: 9c15 913c 76a1 d5bd 3aa6 25be 3d23 11bd
000000f0: 71e6 4ebe 4e61 b8bd b620 63be 7b04 2dbe
00000100: b170 32be 02ae 18bd 5ed4 78bd 253f 02be
00000110: e4c5 743d c215 30be fd61 573e 1129 993d
00000120: 5029 3cbe b7bd 3abe 09d8 d2bd 77cc 39be
00000130: 1f7f a7bd 39d5 63bd 6e51 d8bd ff77 bb3d
00000140: 6405 c83d fcbd 013e 171e 6b3d 1901 1c3e
00000150: 36c0 3fbd 42d8 f53d 9b3a da3a 7a9b 00be
00000160: 3c96 fb3c 8275 1a3e 18dd 443b 65d2 273d
00000170: 99c1 a8bd ab43 21be ffb7 323e ded3 043e
00000180: 7608 2e3e d4b5 b03d 2433 53be 0601 03bd
00000190: a762 38bc ec65 843d d1f8 913d 6d91 1abe
000001a0: 3454 5ebe d9f0 95bd d61a 49be 28a5 0dbe
000001b0: b0d7 4bbe 3112 0abe 030d 0abe 7daf bbbc
000001c0: 760b 2ebc 61d4 cd3d 8e2e 2f3e aca3 03bb
000001d0: accf 373e 5241 273e 6cb4 3ebe 2098 fd3c
000001e0: 9a2e 0e3e 7ff8 f3bd 11df 8c3d 38a2 a53d
000001f0: ce1d 593c fc10 31be 53df 663d 85aa 48be
00000200: 2934 3f3e 117d e3bd 4029 bdbd d2f1 2b3e
00000210: dd5d 163c b804 023d 85b4 58be 6490 433e
00000220: 3ee3 fe3d 71e1 8e3d 029b b63d 2e9e 8e3d
00000230: 5a57 2f3e af57 02be e65f fd3c 737b cb3c
00000240: 9d27 27bc 3c3e 3cbd 8b25 1abe c301 85bc
00000250: aef6 05be d3ad 15be af69 143e 18ac a4bd
00000260: 2f37 f33c 06f0 c53a 0674 2f3d 02a5 85bc
00000270: b759 183e 1f13 303e 58cb b93d 8c36 53be
00000280: a88c 2ebe d739 0b3d 2243 193e 493c d13c
00000290: 6a42 8abd b72b f33d 6815 c93d 4d98 02bd
000002a0: 9020 3c3d 2b6a 3e3e 34da f1bc bdb7 ec3d
000002b0: 7ead 06be 42a7 123d 51f8 79bd 2d2a 1c3d
000002c0: fe32 093e f960 463e 8d32 08be 6a2f 933d
000002d0: 9458 0a3d cbcf 7ebd 5d50 d5bd 3c7b ad3d
000002e0: 0acb 90bd 29c2 d2bd d386 8c3d 13c5 adbd
000002f0: ddae 3ebe f28d 373e 175a 2fbe 0b3d 32be
00000300: 7884 083d 25a0 d1bd a1be 2fbe 479f 1e3e
00000310: e26d ad3d 5fea 0f3d 916c 84bd e556 a2bd
00000320: fe07 f4bd acfa 93bd 17c1 07be 9cb1 05be
00000330: 9885 08be 116a 3d3e 716d 1cbe c99a 19bc
00000340: 6722 193e 8aa0 05be 011f aa3d 738e d4bd
00000350: 30e1 be3d 54f4 f0bd 031d 2bbe 509d 233d
00000360: 809d 1abc 69d4 5a3e 0e1f 59be 6264 393c
00000370: bb5b f9bd 4113 52be 10e6 4f3d caf6 cb3d
00000380: a587 823d 847f 71be 8503 1ebe 68ed cb3c
00000390: a13c 61be 0d81 22bd 4b50 68be 92df 31be
000003a0: fa67 bdb9 158e cfbd b61e 5ebe 533a 2a3e
000003b0: c6c1 38be e4ef 163e ba56 e5bc 65c6 833d
000003c0: d46f 8e3d e672 993d f068 c5bd aacc 1d3e
000003d0: 9000 473c f926 3dbe 1542 80bd d744 15bd
000003e0: e3f5 e23c 23b8 333c 9063 0dbe 40e3 70bd
000003f0: b01f 1f3e 8cfe 183e 285c 42bd 5ce2 e43b

fc2.weight f4 [300, 300]
-0.027728388 -0.0886206 0.0035501376 0.024291407 -0.009295441 0.053939227 0.02779501 0.02755559
0.05156047 0.063218154 -0.05759367 -0.018243404 0.086321786 0.026049957 -0.025308583 -0.027620757
0.021489503 0.027317548 0.037793245 -0.018689899 -0.007990862 -0.037311304 0.04036116 0.021348655
-0.0037383738 0.025717447 0.073230736 -0.03787702 0.05449048 0.013236127 -0.037107125 0.015477783
0.077197805 -0.04687252 -0.045225326 -0.027363304 0.012325775 -0.020377547 -0.054745432 -0.042063963
0.0035083091 -0.009925115 -0.0023946816 -0.028035734 0.006994723 -0.049265098 0.009410862 0.045262728
-0.013113165 0.024092823 -0.0057381657 0.006877278 0.020282269 -0.04457587 0.017721696 0.0019557825
0.03549144 -0.0045206305 -0.07882762 0.05324529 0.06089623 -0.011775813 -0.002080376 0.040505845
-0.05417362 -0.026064046 0.02663114 0.020064086 0.0069332137 -0.038996134 0.029440321 -0.012420059
-0.055814713 0.021378927 0.025208859 -0.032013744 0.0671321 -0.019895136 0.01526792 0.031484768
0.030778248 0.007950024 0.031251032 0.016053129 -0.016504575 -0.049735818 0.008386397 0.031868692
-0.044055365 -0.0051941806 -0.043904018 0.010934671 0.012667269 0.037904166 -0.04703314 -0.052312206
-0.021240434 0.047788404 0.004871514 0.0052540367 -0.051282894 -0.05569802 -0.025741538 0.08684033
0.052109852 0.014992821 0.031779535 -0.07640756 -0.0473797 -0.07239512 0.047721215 -0.08374844
0.065541066 -0.081390835 0.022967895 -0.022976622 0.0019602515 0.075299084 0.039419875 0.0026814758
-0.0021042 0.06298353 0.023415383 -0.014521073 0.0045827786 0.032899953 -0.019753458 0.012102092
0.022086782 0.04313325 -0.05988363 -0.032630425 0.062821075 0.032573417 -0.072103694 -0.0364596
-0.009866097 0.01325356 -0.06685592 -0.030422103 0.022033235 0.016456977 0.07031769 -0.023997726
0.038654562 -0.04019185 -0.0151295215 -0.01800058 -0.072490245 -0.030836847 0.029546304 0.013125147
0.01505485 -0.020080213 0.050339628 -0.029534698 0.04455973 0.017753132 0.0149099715 0.047617182
-0.0012700054 -0.053579047 0.009291966 0.059337914 0.020459916 0.00927418 -0.036711983 -0.06156141
-0.046775393 -0.05661865 -0.07604752 0.010743114 -0.013526263 0.027720744 -0.026569527 0.017801993
0.062048633 -0.05393614 0.025375156 0.0042792433 -0.0012109225 -0.008743077 -0.05338171 0.00799337
-0.026334368 -0.012208461 0.012174535 -0.03523531 -0.061208297 0.020546526 0.02582687 -0.019473875
0.017439015 -0.03834942 0.044244003 0.017794052 -0.040872633 -0.019939438 -0.004281605 -0.07900609
-0.05561551 0.01378591 -0.09929917 -0.05046931 -0.07069603 0.077637166 -0.027863743 -0.025871165
0.043779623 0.035645362 -0.0531558 -0.021406794 0.051323716 0.015077112 0.032394346 -0.05508174
0.0019990166 -0.08436618 0.039362602 0.0057159606 0.035622757 -0.061968043 0.018730173 0.00058864517
-0.01631185 0.07168114 0.01572382 -0.032213803 0.05515275 -0.029138792 0.007517032 0.020525666
-0.015749095 0.089673005 0.007628254 -0.009247233 0.000576257 0.046540953 -0.03678213 -0.004089038
0.016199494 0.04747404 0.058627576 0.07607949 0.058933266 0.022582598 0.0578217 -0.0012897495
-0.055415913 0.029714221 -0.0011271493 -0.0062840367 -0.024078442 0.02630181 0.03979606 -0.014701395
00000000: a526 e3bc b87e b5bd 6da9 683b c6fe c63c
00000010: e84b 18bc 61ef 5c3d 5cb2 e33c 43bc e13c
00000020: 1231 533d 8578 813d 57e7 6bbd 3173 95bc
00000030: 7ac9 b03d b866 d53c f253 cfbc ed44 e2bc
00000040: c10a b03c 0dc9 df3c 17cd 1a3d 8f1b 99bc
00000050: 1bec 02bc bdd3 18bd be51 253d 60e3 ae3c
00000060: 81ff 74bb 65ad d23c fff9 953d ef24 1bbd
00000070: 6931 5f3d 57dc 583c a4fd 17bd 8796 7d3c
00000080: e219 9e3d 66fd 3fbd 313e 39bd 0229 e0bc
00000090: 0cf2 493c d0ee a6bc bf3c 60bd 434b 2cbd
000000a0: a9eb 653b f39c 22bc 17f0 1cbb 32ab e5bc
000000b0: fd33 e53b 33ca 49bd 0430 1a3c 6965 393d
000000c0: 9ad8 56bc 505e c53c 3907 bcbb ca5a e13b
000000d0: 0027 a63c 3095 36bd 172d 913c 962c 003b
000000e0: 795f 113d cc21 94bb 6070 a1bd bc17 5a3d
000000f0: 536e 793d 57ef 40bc eb56 08bb 75e9 253d
00000100: 28e5 5dbd 4484 d5bc 8c29 da3c 705d a43c
00000110: 0330 e33b 69ba 1fbd d42c f13c 817d 4bbc
00000120: f89d 64bd dc22 af3c cf82 ce3c d820 03bd
00000130: 8e7c 893d 20fb a2bc 4c26 7a3c 2cf6 003d
00000140: aa22 fc3c d140 023c 1501 003d da81 833c
00000150: 9a34 87bc c9b7 4bbd 1967 093c bf88 023d
00000160: 6673 34bd f233 aabb b3d4 33bd 5627 333c
00000170: 618a 4f3c 6641 1b3d d2a5 40bd 5345 56bd
00000180: 6b00 aebc c6bd 433d 39a1 9f3b 0e2a ac3b
00000190: 030e 52bd 9b23 64bd ebdf d2bc 58d9 b13d
000001a0: 2471 553d 73a4 753c 422b 023d 917b 9cbd
000001b0: 3711 42bd e543 94bd 5277 433d 4d84 abbd
000001c0: 653a 863d 3db0 a6bd 2b27 bc3c 7839 bcbc
000001d0: 9077 003b 6836 9a3d bc76 213d b3bb 2f3b
000001e0: 9ee6 09bb 82fd 803d 9ed1 bf3c cbe9 6dbc
000001f0: 222b 963b 1ac2 063d 01d2 a1bc da47 463c
00000200: 57ef b43c 7eac 303d 8a48 75bd 7ba7 05bd
00000210: 56a8 803d b46b 053d 1aab 93bd a956 15bd
00000220: 69a5 21bc 7625 593c c2eb 88bd c637 f9bc
00000230: 0b7f b43c c8d0 863c b902 903d e196 c4bc
00000240: 3f54 1e3d 36a0 24bd d0e1 77bc f475 93bc
00000250: c475 94bd 8e9d fcbc 170b f23c db0a 573c
00000260: 9ea8 763c 427f a4bc ed30 4e3d c0f2 f1bc
00000270: 4384 363d 046f 913c f448 743c 3c0a 433d
00000280: 4f76 a6ba b475 5bbd 553d 183c 500c 733d
00000290: 8e9b a73c bbf2 173c 4e5f 16bd d127 7cbd
000002a0: 8e97 3fbd f5e8 67bd cdbe 9bbd e303 303c
000002b0: 429d 5dbc 9d16 e33c 56a8 d9bc 7cd5 913c
000002c0: b526 7e3d 24ec 5cbd 8fdf cf3c e538 8c3b
000002d0: d1b7 9eba 1f3f 0fbc c8a6 5abd a0f6 023c
000002e0: 2cbb d7bc ff05 48bc b377 473c e752 10bd
000002f0: 8db5 7abd 3051 a83c df92 d33c ad87 9fbc
00000300: 44dc 8e3c 4814 1dbd 3339 353d d5c4 913c
00000310: 106a 27bd 0858 a3bc b54c 8cbb f2cd a1bd
00000320: 17cd 63bd 4cde 613c 5d5d cbbd e8b8 4ebd
00000330: 15c9 90bd 3c00 9f3d 8142 e4bc c4ef d3bc
00000340: 4352 333d df00 123d e5b9 59bd 4d5d afbc
00000350: d138 523d fe05 773c efaf 043d 649d 61bd
00000360: ef01 033b 2dc8 acbd ae3a 213d f44c bb3b
00000370: 2be9 113d 34d2 7dbd 0570 993c 4f4f 1a3a
00000380: 6ea0 85bc 90cd 923d 3ecf 803c 9ff2 03bd
00000390: dae7 613d 7ab4 eebc 6f51 f63b 7125 a83c
000003a0: 3f04 81bc 7ba6 b73d 6ff6 f93b b581 17bc
000003b0: f40f 173a baa1 3e3d dca8 16bd 56fd 85bb
000003c0: cdb4 843c 2474 423d 7823 703d 90cf 9b3d
000003d0: 0264 713d 24ff b83c 72d6 6c3d d00c a9ba
000003e0: ccfb 62bd 3d6b f33c dbbc 93ba 52ea cdbb
000003f0: 2740 c5bc e576 d73c 3201 233d 1fde 70bc

fc2.bias f4 [300]
-0.03869789 -0.032941706 -0.021134552 0.04497054 -0.016899357 -0.050200526 -0.029332094 0.048098586
0.0043466045 0.018626686 0.030393627 -0.056652952 -0.024239803 -0.014113004 -0.025019478 -0.020696288
0.0379333 -0.008658011 -0.00048487252 0.033809625 -0.025903622 -0.027622767 -0.006498337 -0.04265513
-0.01346673 -0.017103719 -0.010503744 0.015185329 0.042772908 -0.018716047 0.015038123 -0.0028512087
-0.02243943 -0.040150285 0.004394884 0.04461123 -0.053989932 -0.03502446 -0.021635111 -0.023195079
0.037633304 -0.05157766 -0.048930664 -0.014944202 0.032243803 -0.028606065 0.017792057 -0.0034453443
0.0009310257 0.026765186 -0.03231472 -0.044002973 -0.033921152 -0.049468 -0.051829018 0.0060960515
-0.0348261 -0.008000213 0.038175877 -0.022312026 -0.024839584 0.050984237 -0.0008164289 0.024339383
-0.036063462 -0.040299565 0.016484763 0.017734298 0.0034628564 0.019083578 -0.023314316 -0.0016610414
-0.024517678 0.02910077 0.03814745 0.033564765 -0.05773437 -0.01448077 0.0016353866 0.03448184
0.021852996 -0.04270209 0.03166539 -0.013171072 -0.013905886 -0.020228732 -0.05034303 0.010607931
0.05216401 -0.010127008 0.0434325 -0.010610518 0.051853318 0.0013106813 0.048966944 -0.056075353
0.02727574 0.012807551 0.023933403 -0.039874233 0.029304069 -0.008893494 -0.010339815 0.018425236
-0.024833465 -0.019405913 0.026207644 -0.026684854 -0.041989475 0.009845864 -0.05078558 0.005318706
-0.034136754 0.027962493 -0.020536885 0.001862227 0.016397795 0.04017293 -0.053403158 -0.057097595
-0.037519395 0.05144218 0.010525916 -0.025804188 0.040979613 0.0031409978 0.039351333 0.048868023
0.047361832 0.043988142 -0.034691628 0.03843478 0.042365286 -0.04903071 0.03712111 0.000116690666
0.032808844 -0.05714712 0.04847502 -0.03355328 0.04667498 0.054308157 -0.02357515 0.040599238
0.026561232 -0.02935409 0.015172265 -0.0035567905 -0.012603935 -0.005823504 -0.01744786 -0.03489476
-0.029285802 0.02484406 0.021798424 -0.048957013 -0.05134186 0.004264604 -0.016653845 0.03689741
-0.053086232 0.014668017 0.008115337 0.019989105 -0.010555866 -0.013972891 0.0026468798 -0.038769394
-0.0550212 -0.03188911 0.0036303068 0.042557422 -0.04214332 0.015560054 -0.020440971 0.012232487
0.038518317 0.034204327 -0.032279182 -0.058545306 0.019838205 0.04425372 0.046249926 -0.032676633
-0.042285573 -0.02506122 -0.009043746 -0.0012685288 0.009713804 -0.039535288 0.042201128 -0.014673707
-0.02770027 0.023406772 0.027657084 -0.025640987 0.054622702 -0.033896606 0.04401794 -0.052493434
0.010575221 0.048290797 0.0028915033 0.0020669706 0.04422563 -0.023055773 0.051674977 0.0022576398
0.028017458 0.0018119185 0.049968347 -0.023525588 -0.032351013 -0.050599128 0.029661544 -0.024432564
-0.045992136 -0.018352902 -0.05244769 0.032371916 0.04675232 0.013162109 -0.034456477 -0.018620757
-0.01808235 0.039966423 0.010676859 0.020818237 0.008424901 -0.024436299 0.049327724 -0.022322023
0.042766184 -0.00883687 -0.041271515 0.043778654 0.016671624 0.035068706 0.004483647 0.0151724005
0.047887634 -0.029020833 -0.0033906207 -0.058217186 -0.041977603 0.039104708 -0.03797043 0.026219934
-0.035019565 -0.05544613 -0.05390525 0.012397108 0.029824987 -0.053125676 0.018472478 -0.06460423
00000000: ae81 1ebd e2ed 06bd 5e22 adbc 0733 383d
00000010: 8570 8abc 119f 4dbd dc49 f0bc 0603 453d
00000020: f66d 8e3b fe96 983c 0efc f83c ed0c 68bd
00000030: 8d92 c6bc 3b3a 67bc a6f5 ccbc 438b a9bc
00000040: f35f 1b3d 55da 0dbc 7d36 feb9 f67b 0a3d
00000050: d533 d4bc 2449 e2bc 00f0 d4bb 25b7 2ebd
00000060: 8fa3 5cbc 191d 8cbc e517 2cbc e3cb 783c
00000070: a532 2f3d 6552 99bc 7662 763c 58db 3abb
00000080: e5d2 b7bc a074 24bd f602 903b 44ba 363d
00000090: 8c24 5dbd cf75 0fbd 1e3c b1bc 9b03 bebc
000000a0: 6125 1a3d 1943 53bd 856b 48bd 87d8 74bc
000000b0: 1412 043d 4457 eabc a6c0 913c 49cb 61bb
000000c0: 1410 743a aa42 db3c 715c 04bd 763c 34bd
000000d0: e8f0 0abd f59e 4abd aa4a 54bd 63c1 c73b
000000e0: d0a5 0ebd 5313 03bc 4f5e 1c3d b6c7 b6bc
000000f0: 627c cbbc d9d4 503d 9e05 56ba 6363 c73c
00000100: 48b7 13bd 2811 25bd 0e0b 873c 8547 913c
00000110: 17f1 623b 2a55 9c3c aafd bebc 4db7 d9ba
00000120: 4cd9 c8bc bd64 ee3c 8040 1c3d 357b 093d
00000130: e07a 6cbd c040 6dbc 785a d63a d43c 0d3d
00000140: 0e05 b33c 63e8 2ebd 91b3 013d 7bcb 57bc
00000150: 83d5 63bc bab6 a5bc 7e34 4ebd e3cc 2d3c
00000160: eea9 553d c0eb 25bc 47e6 313d bdd7 2dbc
00000170: 2564 543d 2bcb ab3a 9091 483d 45af 65bd
00000180: 5f71 df3c c3d6 513c fc0f c43c 2a53 23bd
00000190: 160f f03c 04b6 11bc 5468 29bc 85f0 963c
000001a0: 8d6f cbbc 26f9 9ebc 6ab1 d63c 329a dabc
000001b0: 28fd 2bbd 8c50 213c 8a04 50bd 8a48 ae3b
000001c0: fbd2 0bbd 9911 e53c f83c a8bc f815 f43a
000001d0: ab54 863c 5f8c 243d 45bd 5abd 2bdf 69bd
000001e0: f0ad 19bd 09b5 523d e474 2c3c 4e63 d3bc
000001f0: 3dda 273d 33d9 4d3b dd2e 213d d629 483d
00000200: 7bfe 413d e92c 343d cf18 0ebd ca6d 1d3d
00000210: 3987 2d3d 6dd4 48bd 4e0c 183d d3b7 f438
00000220: 9162 063d 1913 6abd be8d 463d 2a6f 09bd
00000230: 442e 3f3d 3b72 5e3d ac20 c1bc 634b 263d
00000240: f196 d93c fd77 f0bc 1795 783c 0b19 69bb
00000250: bc80 4ebc 18d3 bebb d1ee 8ebc cfed 0ebd
00000260: c7e8 efbc c585 cb3c 9c92 b23c 2687 48bd
00000270: d84b 52bd 17be 8b3b a56d 88bc bd21 173d
00000280: f370 59bd 1f52 703c 31f6 043c 31c0 a33c
00000290: 83f2 2cbc 8dee 64bc 4677 2d3b a8cc 1ebd
000002a0: e95d 61bd 289e 02bd 71ea 6d3b b150 2e3d
000002b0: 799e 2cbd 99ef 7e3c d373 a7bc c56a 483c
000002c0: 62c5 1d3d d619 0c3d 2d37 04bd 34cd 6fbd
000002d0: bb83 a23c 6443 353d 9070 3d3d efd7 05bd
000002e0: a333 2dbd 304d cdbc 382c 14bc c344 a6ba
000002f0: a626 1f3c c1ef 21bd 17db 2c3d fd69 70bc
00000300: adeb e2bc 8fbf bf3c 1c91 e23c 0c0d d2bc
00000310: 0ebc 5f3d 2bd7 0abd 284c 343d 5b03 57bd
00000320: b143 2d3c 92cc 453d 607f 3d3b 0376 073b
00000330: ef25 353d 76df bcbc 24a9 533d e9f4 133b
00000340: de84 e53c e57d ed3a 9cab 4c3d bcb8 c0bc
00000350: 7f82 04bd 0841 4fbd c4fc f23c cd26 c8bc
00000360: 4062 3cbd d358 96bc 64d3 56bd 6a98 043d
00000370: 5c7f 3f3d e3a5 573c 3c22 0dbd 8f8a 98bc
00000380: 7021 94bc d5b3 233d feed 2e3c 028b aa3c
00000390: 9908 0a3c a22e c8bc de0b 4a3d addc b6bc
000003a0: 982b 2f3d 85c8 10bc 520c 29bd 3f51 333d
000003b0: ee92 883c 34a4 0f3d 8feb 923b a995 783c
000003c0: d325 443d 19bd edbc 2d35 5ebb 2575 6ebd
000003d0: b5f0 2bbd 422c 203d e286 1bbd 30cb d63c
000003e0: ad70 0fbd 7b1b 63bd c0cb 5cbd 3d1d 4b3c
000003f0: 8853 f43c 4f9a 59bd 9853 973c 394f 84bd

fc3.weight f4 [5, 300]
-0.0531225 -0.029785236 -0.030908184 0.050134335 0.06053043 0.008287876 -0.029879164 -0.04071479
0.0273333 0.06659401 0.05236877 -0.008451744 -0.008909716 0.038614415 0.022176286 -0.025147375
0.0187923 -0.027677238 0.01964517 0.050403945 -0.06952192 0.06301261 0.0118127 -0.03680207
0.018083602 -0.07088811 0.028314518 -0.062922314 -0.022394544 0.043105092 0.04351536 0.048365686
-0.05209318 -0.029846502 -0.05341 0.050264083 0.04298896 0.012611325 0.0573393 -0.0065388996
-0.03686222 -0.03002505 0.017882224 0.07785782 -0.06992611 -0.028306909 0.026213987 0.054452304
-0.016631939 0.02467379 0.0062033604 0.016644377 -0.026952839 -0.04930658 0.022749616 0.0222236
-0.03690778 0.06581396 0.03217841 0.01896238 0.008101666 -0.0014079346 0.07107126 -0.026275922
-0.007841941 0.06658128 0.021631923 -0.0029752303 -0.031797867 -0.025298763 -0.011501675 0.063623905
-0.023778584 0.04101101 -0.059039604 0.015919136 0.042387765 0.06570288 -0.074041806 -0.014777177
0.043218847 -0.019622322 0.048581634 0.039999172 0.008432144 -0.018999334 0.015792647 -0.054871876
0.012285099 0.021862576 -0.029981712 -0.038951818 0.060677934 -0.031804465 0.040321205 -0.03545445
0.05938794 0.0031234229 0.017874938 -0.06083179 0.027789993 -0.07089188 -0.045802146 -0.06237034
0.060876083 -0.04714 0.03775379 -0.0067567243 -0.039864242 0.0654256 -0.022293389 0.042543568
0.025363304 0.008393256 0.0048919623 -0.046629686 0.014179506 0.06992713 -0.0462648 -0.015903601
-0.044803202 -0.020278893 0.035874654 -0.011751695 -0.070414305 -0.056631587 -0.05726849 -0.02824219
-0.049392883 -0.0117822 0.026351877 -0.049962237 0.057062812 0.017050575 -0.034570538 -0.052196708
0.06853173 -0.028508736 0.055092636 -0.054653224 -0.031989038 0.053976275 0.020701135 0.04054888
0.06318547 -0.01743179 -0.009039615 -0.035357453 0.060469184 -0.02168482 -0.014122944 -0.055185605
-0.0062803146 0.058659244 0.059617188 -0.035885505 -0.036286253 0.030770589 0.0025004058 -0.017897334
0.007191099 -0.005098751 0.07048835 0.01957429 -0.057524025 -0.051488906 0.033323348 -0.054353643
-0.020217028 0.050570667 0.06484192 0.08753698 0.02853461 0.058931112 -0.06672301 -0.053770006
-0.055110432 0.040444847 -0.035862185 -0.044294227 -0.0063425363 -0.026990063 -0.023041084 0.04092358
0.052542545 0.05039441 0.027047755 -0.029367788 -0.05657541 0.014627776 -0.011572409 0.064271964
0.04021685 -0.062522255 0.034064095 0.054616343 0.056326628 0.058073796 0.032268416 -0.04969983
0.049509417 0.044809777 -0.06518565 -0.06460087 -0.01486225 0.075898536 0.0483 -0.0038608317
0.014899836 0.038387526 -0.039537653 0.06548204 -0.032377984 -0.051194374 -0.046559203 0.04830433
0.013969862 -0.035265166 0.007536749 -0.057091154 0.029627923 -0.048746627 -0.0097400015 0.019872556
0.024498906 -0.044332217 -0.05938467 -0.021280311 -0.04626358 0.03316694 0.026547385 -0.055303745
-0.031129653 0.002271738 0.03917859 0.051037982 -0.04645816 -0.025087615 -0.04326936 -0.011352596
0.029147467 0.06500847 -0.050873872 -0.07119407 -0.04551424 0.009016092 -0.02656447 0.052493405
0.035129644 -0.0087761395 -0.03200979 0.040659487 0.031693235 0.06959752 0.04155552 -0.033367872
00000000: fb96 59bd 2b00 f4bc 2933 fdbc a959 4d3d
00000010: c2ee 773d dfc9 073c 26c5 f4bc 8dc4 26bd
00000020: 16ea df3c 7162 883d a380 563d 2f79 0abc
00000030: 0ffa 11bc 262a 1e3d 0bab b53c de01 cebc
00000040: 4ff2 993c 60bb e2bc e8ee a03c 5e74 4e3d
00000050: 8261 8ebd c10c 813d 0e8a 413c c4bd 16bd
00000060: 1024 943c c92d 91bd d9f3 e73c 6add 80bd
00000070: c374 b7bc f78e 303d 2a3d 323d 191b 463d
00000080: a95f 55bd a780 f4bc 72c4 5abd b6e1 4d3d
00000090: 3115 303d bb9f 4e3c 9ddc 6a3d 4444 d6bb
000000a0: d7fc 16bd 18f7 f5bc be7d 923c ec73 9f3d
000000b0: 6c35 8fbd e4e3 e7bc b7be d63c 6109 5f3d
000000c0: b43f 88bc b020 ca3c 8f45 cb3b ca59 883c
000000d0: 33cc dcbc b2f5 49bd 675d ba3c 440e b63c
000000e0: 9d2c 17bd 78c9 863d 82cd 033d fe56 9b3c
000000f0: dabc 043c 728a b8ba cf8d 913d 9a40 d7bc
00000100: 7c7b 00bc c45b 883d 6e35 b13c 15fc 42bb
00000110: 7b3e 02bd 5a3f cfbc 8571 3cbc 404d 823d
00000120: 4ecb c2bc 29fb 273d 83d3 71bd d968 823c
00000130: cb9e 2d3d 3b8f 863d 3ba3 97bd f91b 72bc
00000140: 3f06 313d febe a0bc 89fd 463d 2cd6 233d
00000150: fa26 0a3c 7ea4 9bbc 955f 813c 55c1 60bd
00000160: 7147 493c 2519 b33c 359c f5bc f18b 1fbd
00000170: 6d89 783d 6645 02bd d927 253d af38 11bd
00000180: c540 733d 57b2 4c3b 766e 923c c12a 79bd
00000190: d7a7 e33c c32f 91bd 089b 3bbd 0b78 7fbd
000001a0: 3359 793d df15 41bd b8a3 1a3d 8367 ddbb
000001b0: b048 23bd dbfd 853d a0a0 b6bc 2a42 2e3d
000001c0: b4c6 cf3c de83 093c c14c a03b c5fe 3ebd
000001d0: 2951 683c f535 8f3d 2980 3dbd 4548 82bc
000001e0: 9083 37bd ec1f a6bc 4df1 123d 2e8a 40bc
000001f0: 6035 90bd 86f6 67bd 5d92 6abd 2a5c e7bc
00000200: 3150 4abd 210a 41bc e4df d73c 34a5 4cbd
00000210: b2ba 693d a6ad 8b3c d699 0dbd 37cc 55bd
00000220: 5d5a 8c3d 278b e9bc d1a8 613d 0fdc 5fbd
00000230: f006 03bd 3a16 5d3d 6d95 a93c 9516 263d
00000240: 6267 813d 1dcd 8ebc e51a 14bc fad2 10bd
00000250: 89ae 773d 5da4 b1bc ec63 67bc 4d0a 62bd
00000260: 19cb cdbb ad44 703d 2731 743d aefc 12bd
00000270: e5a0 14bd 9a12 fc3c d9dd 233b 6e9d 92bc
00000280: 50a3 eb3b 6c13 a7bb 325c 903d 435a a03c
00000290: 509e 6bbd 08e6 52bd 107e 083d eda1 5ebd
000002a0: 2e9e a5bc 3023 4f3d d7cb 843d 9746 b33d
000002b0: 6ac1 e93c c061 713d 13a6 88bd f03d 5cbd
000002c0: 7abb 61bd 7fa9 253d 3ae4 12bd dd6d 35bd
000002d0: 0dd5 cfbb 441a ddbc a8c0 bcbc 7c9f 273d
000002e0: da36 573d 5e6a 4e3d 4193 dd3c b794 f0bc
000002f0: 9ebb 67bd 57a9 6f3c 349a 3dbc 05a1 833d
00000300: 6cba 243d ab0b 80bd cb86 0b3d 63b5 5f3d
00000310: c0b6 663d cade 6d3d e32b 043d 0d92 4bbd
00000320: 63ca 4a3d 758a 373d 0e80 85bd 764d 84bd
00000330: cb80 73bc b170 9b3d 39d6 453d 0206 7dbb
00000340: 711e 743c 3d3c 1d3d 3cf2 21bd 731b 863d
00000350: c79e 04bd 31b1 51bd ddb4 3ebd c3da 453d
00000360: d9e1 643c 3572 10bd d5f6 f63b 6ad8 69bd
00000370: 42b6 f23c 8baa 47bd 8794 1fbc c5cb a23c
00000380: eeb1 c83c b395 35bd 573d 73bd 0c54 aebc
00000390: e17e 3dbd 0fda 073d e779 d93c 2e86 62bd
000003a0: 9d03 ffbc 70e1 143b bb79 203d 340d 513d
000003b0: e94a 3ebd 8b84 cdbc 363b 31bd 3d00 3abc
000003c0: abc6 ee3c 2923 853d 1f61 50bd 32ce 91bd
000003d0: 246d 3abd 3bb8 133c bb9d d9bc 5303 573d
000003e0: 1ae4 0f3d ccc9 0fbc b31c 03bd 908a 263d
000003f0: c4d0 013d 2589 8e3d 1f36 2a3d c0ac 08bd

fc3.bias f4 [5]
0.022540735 0.032150213 0.029831693 0.033401232 -0.044166274
00000000: 59a7 b83c f1af 033d 9861 f43c bbcf 083d
00000010: b2e7 34bd
