model_weights/taxi_weights/model_taxi_SDTW_gamma_1.pt (torch, 395176 bytes, 6 tensors)

fc1.weight f4 [300, 20]
-0.14448999 0.12821734 -0.11538059 -0.0119917905 0.19768299 0.11144719 -0.058441292 -0.16989945
0.067859806 0.1820391 0.05987953 0.19974387 -0.110486105 0.019329945 -0.0008897598 0.04038841
0.10202973 -0.056532484 -0.19575882 -0.3249216 -0.068397276 0.040901344 -0.21528003 0.1414025
0.12339226 0.20322861 0.12052766 0.034653198 0.08628939 0.08466819 -0.07409042 -0.0025953113
0.15922599 6.980329e-05 0.02205942 -0.16094203 0.0044113235 0.32420537 0.14281587 -0.34597757
0.20034513 0.21166898 -0.18992262 -0.1415113 -0.19928026 -0.028753387 0.13944696 0.22004235
0.20838268 0.14672507 -0.048327193 -0.101166114 -0.22753756 -0.23463413 -0.20259497 0.04729774
0.15669745 0.11173792 0.14816748 0.013935045 -0.11504212 0.1768684 -0.16851674 -0.18612047
0.0023380928 0.22674966 0.09731213 0.24597496 -0.14942354 0.10841504 0.08082981 -0.020492867
-0.14497305 0.02524706 0.15840031 0.07712001 -0.20037195 0.042452708 -0.11990163 -0.23755424
0.075477876 -0.082683064 0.10874611 0.095452584 0.12255967 0.14219974 -0.1611221 0.05194693
0.27319166 -0.09570714 0.17384641 0.26535064 0.11838762 0.1971679 -0.09498577 0.03579138
-0.17178674 -0.15854643 -0.12051277 -0.3255448 0.12100487 -0.11284646 0.16624367 0.08942986
-0.16253456 -0.0909378 0.00973436 0.14073738 0.08882059 0.12235859 0.05277545 0.07565082
0.22970055 0.24822368 -0.10188542 -0.0778861 0.14379142 -0.13733882 -0.00714118 -0.31469557
0.0013884278 0.1380641 0.10905545 -0.19115962 -0.032941062 -0.021667367 0.24139333 -0.08960667
-0.10616275 0.26071647 -0.10011641 0.15809864 0.18651775 -0.0027702593 -0.07080812 -0.19097243
0.12540317 -0.25254086 -0.2674369 -0.20051037 0.16846819 -0.0032471204 0.060377676 0.07106012
0.092298426 0.15945657 0.14543688 0.07882819 0.09489503 0.040268533 -0.27642164 -0.028528644
-0.014489618 -0.088967405 0.19866088 -0.08451227 -0.035262126 0.119753376 0.17753264 0.15078107
0.1308933 0.15312313 -0.042546466 0.091274425 0.028845636 -0.018925099 0.07876284 -0.18268043
-0.15992059 0.10202515 0.09786471 0.17986198 0.16410096 0.2736347 0.011040207 -0.16960487
0.12802319 -0.2923928 0.10291928 -0.13376364 -0.032421302 -0.098842345 0.21623203 0.012226879
-0.10585838 -0.22074147 -0.21780847 0.19033994 0.18064414 0.122847125 0.07032935 -0.16805586
-0.11498936 -0.122101896 -0.11266929 0.106620744 -0.18658541 -0.30466965 0.035802793 0.13347542
-0.11091187 0.10149177 0.07397872 0.094566524 0.16497292 -0.06973717 -0.047009204 -0.15569344
-0.07402671 -0.055979062 0.13244066 -0.030288337 0.08231877 0.020890119 0.026697505 -0.04896742
-0.2189709 -5.7674926e-05 -0.09168471 -0.33328208 0.01614429 0.02818066 0.16249166 -0.1933418
-0.033500236 -0.18071507 0.02791964 0.040434323 -0.110936955 0.018656166 -0.15819417 -0.09498777
0.15506707 -0.024141345 0.17583063 -0.1713682 0.27368718 0.010097039 0.037656546 -0.25129768
0.14917532 -0.17904085 0.15503913 0.10021257 -0.008925808 0.040377174 -0.10794809 0.009671395
0.03694597 -0.175817 -0.28398964 0.094788335 0.00028894894 -0.23778929 -0.067341916 0.23040706
00000000: 2ff5 13be 684b 033e a94c ecbd 3779 44bc
00000010: 696d 4a3e 6d3e e43d 2360 6fbd 1ffa 2dbe
00000020: 15fa 8a3d 7568 3a3e 3d44 753d a889 4c3e
00000030: 8a46 e2bd d559 9e3c c53e 69ba 516e 253d
00000040: f7f4 d03d 9b8e 67bd 0075 48be 205c a6be
00000050: df13 8cbd 2b88 273d 5e72 5cbe d1cb 103e
00000060: 15b5 fc3d 291b 503e 35d7 f63d 83f0 0d3d
00000070: 7eb8 b03d 8466 ad3d b8bc 97bd 1916 2abb
00000080: 230c 233e 5b63 9238 f5b5 b43c fdcd 24be
00000090: dd8c 903b 3ffe a53e 533e 123e f923 b1be
000000a0: 4627 4d3e c1bf 583e 137b 42be 57e8 10be
000000b0: 2010 4cbe 398c ebbc 2fcb 0e3e c852 613e
000000c0: 4562 553e 193f 163e bcf2 45bd 2e30 cfbd
000000d0: 9bff 68be ee43 70be 0e75 4fbe 46bb 413d
000000e0: 4c75 203e dad6 e43d 37b9 173e d14f 643c
000000f0: 349b ebbd fd1c 353e a78f 2cbe 5d96 3ebe
00000100: b03a 193b 1031 683e 954b c73d dce0 7b3e
00000110: 7c02 19be b408 de3d 198a a53d a8e0 a7bc
00000120: d173 14be ecd2 ce3c b133 223e 19f1 9d3d
00000130: 4e2e 4dbe e4e2 2d3d fc8e f5bd 6b41 73be
00000140: 2594 9a3d bd55 a9bd 48b6 de3d a57c c33d
00000150: 9000 fb3d cf9c 113e 31fd 24be 4ec6 543d
00000160: c7df 8b3e 1b02 c4bd cb04 323e 0adc 873e
00000170: 3575 f23d 62e6 493e e687 c2bd fb99 123d
00000180: dde8 2fbe ff59 22be 66cf f6bd cfad a6be
00000190: 67d1 f73d 0b1c e7bd c83b 2a3e 0127 b73d
000001a0: 766f 26be 993d babd dd7c 1f3c 761d 103e
000001b0: 92e7 b53d 2497 fa3d 122b 583d d1ee 9a3d
000001c0: 9f36 6b3e 592e 7e3e 4ea9 d0bd bf82 9fbd
000001d0: 0f3e 133e 8ca2 0cbe 8f00 eabb c71f a1be
000001e0: e8fb b53a ad60 0d3e 7758 df3d 59bf 43be
000001f0: 35ed 06bd c37f b1bc d02f 773e b483 b7bd
00000200: db6b d9bd a17c 853e d509 cdbd 9ce4 213e
00000210: 82fe 3e3e 3d8d 35bb d903 91bd 478e 43be
00000220: b069 003e 094d 81be 7ded 88be 9752 4dbe
00000230: ed82 2c3e a4cd 54bb 954e 773d f887 913d
00000240: f506 bd3d 9548 233e 68ed 143e ad70 a13d
00000250: 5358 c23d 9ef0 243d 2387 8dbe e7b4 e9bc
00000260: dd65 6dbc 8b34 b6bd c26d 4b3e c514 adbd
00000270: 056f 10bd 4241 f53d 1ecb 353e 5a66 1a3e
00000280: e508 063e 4fcc 1c3e 3445 2ebd 16ee ba3d
00000290: af4d ec3c cf08 9bbc 694e a13d 9410 3bbe
000002a0: 39c2 23be 90f2 d03d 4b6d c83d bd2d 383e
000002b0: 150a 283e d919 8c3e fce1 343c e6ac 2dbe
000002c0: 8318 033e 82b4 95be 58c7 d23d 56f9 08be
000002d0: 33cc 04bd db6d cabd ee6b 5d3e 3f53 483c
000002e0: 47cc d8bd 0d0a 62be 2f09 5fbe 79e8 423e
000002f0: c7fa 383e 4697 fb3d d608 903d d616 2cbe
00000300: 8b7f ebbd 8f10 fabd 28bf e6bd fa5b da3d
00000310: 3f10 3fbe a9fd 9bbe f3a5 123d c8ad 083e
00000320: c325 e3bd ebda cf3d 2882 973d 18ac c13d
00000330: a9ee 283e 5dd2 8ebd b98c 40bd 1a6e 1fbe
00000340: 519b 97bd 4d4a 65bd 869e 073e 3f1f f8bc
00000350: be96 a83d c121 ab3c bab4 da3c 1092 48bd
00000360: e839 60be fbe7 71b8 31c5 bbbd f3a3 aabe
00000370: 0841 843c 21db e63c 3764 263e 65fb 45be
00000380: 8b37 09bd 5f0d 39be bbb7 e43c 769e 253d
00000390: ea32 e3bd d1d4 983c a7fd 21be f388 c2bd
000003a0: e7c9 1e3e 12c4 c5bc f20c 343e 257b 2fbe
000003b0: ba20 8c3e 0d6e 253c c03d 1a3d 17aa 80be
000003c0: 6ac1 183e 7c56 37be 94c2 1e3e 3f3c cd3d
000003d0: 8d3d 12bc 8962 253d e313 ddbd c574 1e3c
000003e0: a854 173d 5f09 34be 1767 91be 6320 c23d
000003f0: 127e 9739 097f 73be 8fea 89bd d4ef 6b3e

fc1.bias f4 [300]
-0.002472749 0.17947924 0.03587328 0.19173482 -0.009599734 0.1552092 -0.009471573 -0.07062467
0.08032363 -0.15700145 0.21640335 -0.055581313 -0.06680089 0.070999786 0.057320908 0.13675396
-0.09866455 -0.24165438 -0.15157878 -0.047064006 -0.17004107 0.008191047 0.13481696 -0.18660697
0.14930739 -0.19121003 0.09223621 -0.10315188 -0.110399246 0.16432627 0.028939655 -0.00670189
-0.11456573 -0.011831603 -0.15878405 -0.042412005 0.14091545 -0.051372834 0.19707246 -0.07201148
-0.18894361 0.101014316 -0.0924307 -0.049473602 0.10662756 -0.18152797 -0.17152534 -0.2182171
0.18731837 0.15796822 0.15874797 0.1441611 0.09416461 -0.029769832 0.1685494 -0.16724294
-0.16663542 -0.21906476 0.06814771 0.19440275 0.005548316 -0.18810122 0.10854996 -0.093442686
0.19323556 -0.15277807 0.11589449 -0.17323817 -0.030244987 -0.0044638133 0.086437054 -0.062401183
-0.21294238 -0.039872747 0.043258898 -0.13739589 -0.029209938 0.12997368 -0.035515893 0.19634168
0.1407829 -0.08625924 0.00037205205 0.12206294 0.09515235 0.00239287 0.1359871 0.108426794
-0.022057611 -0.19045866 -0.028865462 0.12906273 0.06335363 0.20314585 -0.038994327 -0.21194588
0.06007251 0.18212675 -0.09586189 -0.20739973 -0.23132154 0.0016138565 0.10344175 0.19738503
0.09510256 -0.101224534 -0.17813328 -0.0067973915 0.08524579 0.11410014 -0.044657048 -0.18929476
0.017583849 0.102066055 -0.14408727 0.065068014 -0.16736777 -0.08624567 -0.09799545 0.15822901
0.09758907 0.1099622 0.20640156 -0.15365511 -0.20793532 0.15611859 0.011714513 -0.14164324
-0.053185347 -0.17960213 0.019048797 0.047046155 0.17693351 0.20321754 0.0234425 -0.053244505
0.039156407 0.030614236 0.06841164 -0.0011716668 -0.23220119 0.1196674 -0.22438878 -0.074647434
-0.08140713 0.19225162 -0.083504505 -0.033197723 -0.105293185 -0.11665678 0.17418224 -0.077257276
-0.208012 0.11561843 -0.20481005 -0.16424851 0.034435138 -0.061128158 -0.22399403 -0.14886779
-0.12477523 -0.17743899 0.027256815 -0.08636113 0.09648361 0.075160846 -0.22141631 0.11160271
-0.10601914 -0.0037462537 0.14629266 -0.065836035 0.028646965 -0.14369601 -0.14918752 -0.11417102
0.037847865 0.009877338 0.086254545 -0.029026352 0.15687966 -0.09592177 -0.09778308 -0.18335144
0.16797425 -0.1352061 -0.16865698 -0.038359866 0.03691013 0.1205036 0.17112313 -0.1141903
0.026519155 -0.041075345 0.1306086 0.11522533 -0.20181775 -0.05406434 -0.17208906 0.09416582
0.047117695 0.14694908 -0.05012 0.17219955 -0.079813205 -0.062444143 -0.043400384 -0.19138172
0.096084744 -0.115489356 -0.11926617 0.16571425 -0.1701515 0.042929545 -0.13272803 0.17530495
0.09214482 0.0146664325 0.0018054256 0.13190061 0.07394378 0.18221998 0.017566703 -0.1781716
0.14194389 -0.22532013 0.17005107 -0.1117149 0.14833866 -0.076705836 -0.23006561 0.15410522
-0.20801663 -0.10196435 -0.069511324 -9.317694e-06 -0.05500546 -0.03667427 -0.17557989 0.062144317
-0.16119134 -0.101951934 0.025027331 -0.008277769 -0.20695308 -0.17490618 -0.1810366 0.08603306
0.1258727 0.16078079 0.032021683 0.090018034 -0.19616118 -0.058672115 0.1288899 -0.104025416
00000000: d80d 22bb 68c9 373e dcef 123d 2256 443e
00000010: 3448 1dbc 29ef 1e3e a82e 1bbc aba3 90bd
00000020: b780 a43d fdc4 20be d798 5d3e 3ba9 63bd
00000030: e8ce 88bd 5668 913d 54c9 6a3d 3b09 0c3e
00000040: a410 cabd 3f74 77be 7837 1bbe 30c6 40bd
00000050: 3f1f 2ebe be33 063c 750d 0a3e e615 3fbe
00000060: 09e4 183e 90cc 43be 57e6 bc3d 4b41 d3bd
00000070: 0019 e2bd 2545 283e db12 ed3c 879b dbbb
00000080: 70a1 eabd 57d9 41bc 4998 22be 36b8 2dbd
00000090: 244c 103e 526c 52bd 5dcd 493e c17a 93bd
000000a0: 6f7a 41be 98e0 ce3d 4f4c bdbd d5a4 4abd
000000b0: 8d5f da3d 78e2 39be 57a4 2fbe 4e74 5fbe
000000c0: 63d0 3f3e 6cc2 213e d48e 223e f89e 133e
000000d0: 60d9 c03d dddf f3bc 3798 2c3e bc41 2bbe
000000e0: 7aa2 2abe 8352 60be 0791 8b3d 8411 473e
000000f0: a6ce b53b 9b9d 40be 714f de3d e15e bfbd
00000100: 8bdf 453e db71 1cbe 175a ed3d 5965 31be
00000110: 56c4 f7bc 2e45 92bb e905 b13d 6298 7fbd
00000120: 910d 5abe 9b51 23bd 3e30 313d 82b1 0cbe
00000130: ae49 efbc d217 053e 1d79 11bd cb0d 493e
00000140: 6429 103e afa8 b0bd fb0f c339 22fc f93d
00000150: 3cdf c23d b2d1 1c3b 3440 0b3e de0e de3d
00000160: 2ab2 b4bc 9807 43be 4377 ecbc 0529 043e
00000170: 8cbf 813d 7705 503e 84b8 1fbd 5708 59be
00000180: 980e 763d 6f7f 3a3e 3d53 c4bd 9860 54be
00000190: 8edf 6cbe 0a88 d33a 45d9 d33d 4d1f 4a3e
000001a0: 22c5 c23d cf4e cfbd 9268 36be a7bc debb
000001b0: 5895 ae3d 56ad e93d 4fea 36bd 7cd6 41be
000001c0: 010c 903c 0208 d13d 9d8b 13be 6142 853d
000001d0: 7562 2bbe 92a1 b0bd d7b1 c8bd c906 223e
000001e0: c7dc c73d dd33 e13d ee5a 533e c457 1dbe
000001f0: ffec 54be 8ddd 1f3e 3bee 3f3c ed0a 11be
00000200: e1d8 59bd 9fe9 37be 390c 9c3c 78b3 403d
00000210: 0f2e 353e 4218 503e 7c0a c03c e916 5abd
00000220: 7862 203d b5ca fa3c 671b 8c3d 9d92 99ba
00000230: 26c6 6dbe 2f14 f53d 2cc6 65be c1e0 98bd
00000240: c8b8 a6bd 9cdd 443e 6904 abbd 56fa 07bd
00000250: f4a3 d7bd c0e9 eebd d45c 323e 1039 9ebd
00000260: 1901 55be 5bc9 ec3d bab9 51be c330 28be
00000270: dc0b 0d3d 8561 7abd b15e 65be cc70 18be
00000280: 288a ffbd 91b2 35be af49 df3c 1bde b0bd
00000290: 3399 c53d eeed 993d f5ba 62be f68f e43d
000002a0: 9020 d9bd b583 75bb becd 153e 0bd5 86bd
000002b0: 0aad ea3c 0c25 13be 9dc4 18be 7fd2 e9bd
000002c0: 5d06 1b3d 8fd4 213c 39a6 b03d acc8 edbc
000002d0: 10a5 203e a272 c4bd 7f42 c8bd 7bc0 3bbe
000002e0: 7101 2c3e 7873 0abe 6ab4 2cbe 3c1f 1dbd
000002f0: 142f 173d 97ca f63d e73a 2f3e 9bdc e9bd
00000300: b33e d93c 9f3e 28bd 43be 053e 42fb eb3d
00000310: 50a9 4ebe 9272 5dbd 1d38 30be 02da c03d
00000320: 7cfe 403d d279 163e a14a 4dbd 1455 303e
00000330: 1b75 a3bd 6ec5 7fbd 9ac4 31bd 92f9 43be
00000340: 14c8 c43d af85 ecbd d241 f4bd ffb0 293e
00000350: 323c 2ebe e4d6 2f3d dbe9 07be 2483 333e
00000360: 6cb6 bc3d 7a4b 703c 08a4 ec3a f410 073e
00000370: d66f 973d e097 3a3e 0ce8 8f3c 9e72 36be
00000380: bd59 113e 52ba 66be de21 2e3e c8ca e4bd
00000390: 17e6 173e f317 9dbd 5296 6bbe c2cd 1d3e
000003a0: 5002 55be afd2 d0bd f45b 8ebd 3153 1cb7
000003b0: 684d 61bd c237 16bd 37cb 33be 0a8b 7e3d
000003c0: 580f 25be 2dcc d0bd 1e06 cd3c 7b9f 07bc
000003d0: 82eb 53be 9b1a 33be a961 39be 1a32 b03d
000003e0: c6e4 003e b8a3 243e 2b29 033d 605b b83d
000003f0: 7ade 48be 2c52 70bd b7fb 033e 470b d5bd

fc2.weight f4 [300, 300]
0.06597144 0.06586182 -0.033645928 0.014688967 -0.005860833 0.008659121 0.031251036 -0.0094840545
0.02928632 0.014097605 0.080635846 0.02318158 -0.045536876 -0.049646173 0.035116635 0.038673736
-0.010064097 -0.07960978 0.01791299 -0.018447941 0.062369812 0.085648224 0.05859903 -0.01403014
0.039181013 -0.0050494466 -0.05379226 -0.06816707 0.014787879 -0.016223531 0.072519794 0.0032883612
0.025009548 -0.052664537 0.049613852 0.069789 0.043887734 0.027321108 0.049915638 0.014616908
0.04711676 -0.08177722 0.046567876 0.011715893 0.014042157 0.017249512 0.033439722 -0.010358568
0.05552446 -0.066621095 0.075489245 0.0216148 -0.009170128 0.014494164 -0.007060834 0.04079425
0.0921053 0.005115467 0.05640062 0.05273141 -0.012762115 -0.020398593 0.005175277 -0.07709313
-0.009585285 -0.020210221 -0.03778704 0.03241144 -0.016811615 -0.019290984 0.014007583 -0.027326824
0.018592983 0.009450842 -0.008822865 -0.029634265 0.048163943 -0.03394839 -0.00936156 0.021854157
-0.04093533 -0.0010823257 0.031726077 0.012373025 0.023409206 0.018192006 -4.6349146e-06 0.006197096
-0.0009950561 0.051891565 0.050087363 0.08599187 0.015688717 -0.0698986 -0.016480463 -0.045163866
-0.050888285 -0.033558194 0.031998336 -0.021538652 0.03537132 0.046411023 0.014947894 -0.048151284
-0.059446875 0.03328515 0.028568711 -0.02554621 0.017998073 -0.07042763 -0.035100948 -0.00256787
-0.01322414 0.027784813 -0.01789353 0.03503038 0.024330614 0.03168133 -0.015924588 0.01745403
-0.053527385 -0.011559162 -0.044208057 0.0346768 0.029091801 -0.03820005 -0.03958004 -0.012659981
-0.009963051 -0.023953881 -0.05235469 0.027880572 -0.060930353 -0.04861035 -0.029895945 -0.019644052
0.023028413 0.042453587 -0.005407453 -0.047985267 -0.017787848 0.016514262 -0.07796214 -0.060686365
-0.012497714 0.061975412 0.05053483 -0.038668133 0.02751224 0.01658764 -0.05071276 -0.0042058816
-0.03181326 0.044583563 -0.032462645 0.03927303 0.030218797 0.058111075 -0.036871802 -0.06854289
0.033346917 -0.0068863286 -0.0076065254 -0.01589375 -0.030943692 0.014370693 0.053807396 -0.018424455
-0.026054127 -0.052905224 -0.056834932 0.00820366 -0.0006734181 0.006283681 0.037862588 -0.055733852
0.022344762 -0.0112649575 0.061407078 0.0044038114 0.044241227 -0.056852076 -0.006733015 0.0027263223
0.046651136 -0.03826381 -0.034527343 0.030582175 0.021134079 -0.036603473 0.00048158874 -0.0028578932
0.00615781 -0.00534557 0.010205989 -0.006661926 0.04250978 0.021420201 -0.01994763 0.012268239
-0.030249676 0.05090157 0.053268958 0.027421093 0.04535625 -0.0006563532 0.002120366 0.013373577
-0.039913528 -0.044597514 -0.011499148 0.02992671 -0.060958102 -0.030054979 0.00065870764 0.012283596
0.06928053 -0.013225564 -0.022767017 -0.033609364 0.04225321 -0.025416588 0.015576018 -0.008313207
-0.037621565 -0.076434284 0.045036152 0.008508734 -0.042892527 -0.026844153 -0.037554484 0.031041648
-0.013755895 0.029575495 0.033540312 -0.05610035 -0.028049998 0.0063983477 0.0011820629 0.017474994
-0.0016954952 -0.053232897 0.0068490463 0.045690205 0.02732911 0.022787943 -0.009432259 -0.029392866
0.023032872 0.002989376 -0.07548687 -0.018932305 0.023331972 0.023296367 0.003620083 0.016115218
00000000: 091c 873d 90e2 863d 50d0 09bd fea9 703c
00000010: 3b0c c0bb fcde 0d3c 1601 003d 0263 1bbc
00000020: dde9 ef3c a4f9 663c 6824 a53d 4ce7 bd3c
00000030: e084 3abd c959 4bbd 76d6 0f3d 5a68 1e3d
00000040: e2e3 24bc 740a a3bd 43be 923c 2320 97bc
00000050: 7d77 7f3d 5668 af3d 8905 703d acde 65bc
00000060: 457c 203d d475 a5bb 4655 5cbd 2d9b 8bbd
00000070: dc48 723c 36e7 84bc 4285 943d 8c81 573b
00000080: d3e0 cc3c c5b6 57bd e537 4b3d 89ed 8e3d
00000090: a0c3 333d 84d0 df3c 5774 4c3d c17b 6f3c
000000a0: 81fd 403d d17a a7bd f5bd 3e3d 04f4 3f3c
000000b0: 1311 663c d94e 8d3c 17f8 083d fcb6 29bc
000000c0: 9e6d 633d a470 88bd 1b9a 9a3d 8511 b13c
000000d0: 4e3e 16bc ee78 6d3c 925e e7bb df17 273d
000000e0: b4a1 bc3d a69f a73b 5604 673d e4fc 573d
000000f0: 3118 51bc f31a a7bc 5f95 a93b 01e3 9dbd
00000100: 990b 1dbc e88f a5bc 95c6 1abd dcc1 043d
00000110: 83b8 89bc 2008 9ebc 1080 653c 81dc dfbc
00000120: 5050 983c b4d7 1a3c c78d 10bc 8fc3 f2bc
00000130: 8e47 453d 780d 0bbd 3b61 19bc 7d07 b33c
00000140: ceab 27bd d3dc 8dba 34f3 013d 3ab8 4a3c
00000150: aac4 bf3c 6707 953c 9d85 9bb6 0211 cb3b
00000160: 8b6c 82ba 408c 543d 6828 4d3d 811c b03d
00000170: a085 803c ff26 8fbd 0902 87bc bffd 38bd
00000180: 3c70 50bd 5174 09bd b010 033d d471 b0bc
00000190: 84e1 103d 7c19 3e3d 03e8 743c 483a 45bd
000001a0: 917e 73bd 0256 083d ee08 ea3c 4946 d1bc
000001b0: b270 933c 5c3c 90bd 03c6 0fbd b649 28bb
000001c0: 10aa 58bc fa9c e33c 7495 92bc 047c 0f3d
000001d0: ff50 c73c 48c4 013d 4874 82bc c1fb 8e3c
000001e0: 883f 5bbd a462 3dbc 8213 35bd 4309 0e3d
000001f0: ee51 ee3c a877 1cbd ae1e 22bd cf6b 4fbc
00000200: 113c 23bc ee3a c4bc df71 56bd cc65 e43c
00000210: 1b92 79bd a51b 47bd 57e8 f4bc 90ec a0bc
00000220: 15a6 bc3c d0e3 2d3d 0131 b1bb 338c 44bd
00000230: d2b7 91bc eb48 873c 9daa 9fbd 4492 78bd
00000240: 36c3 4cbc eed9 7d3d 9cfd 4e3d 7a62 1ebd
00000250: 5961 e13c cde2 873c 2fb8 4fbd 7ed1 89bb
00000260: 9f4e 02bd 419d 363d 8df7 04bd c2dc 203d
00000270: 698d f73c e105 6e3d e306 17bd 3760 8cbd
00000280: c796 083d b6a6 e1bb 2940 f9bb 9c33 82bc
00000290: a07d fdbc 0e73 6b3c 2565 5c3d e2ee 96bc
000002a0: 776f d5bc 26b3 58bd bfcb 68bd a568 063c
000002b0: 5388 30ba 56e7 cd3b cd15 1b3d 2e49 64bd
000002c0: 5d0c b73c a890 38bc fd85 7b3d d94d 903b
000002d0: 4a36 353d b9dd 68bd a0a0 dcbb 19ac 323b
000002e0: 4315 3f3d 83ba 1cbd 8b6c 0dbd 7887 fa3c
000002f0: 6021 ad3c 86ed 15bd bf7d fc39 7e4b 3bbb
00000300: 74c7 c93b e429 afbb 0537 273c 494c dabb
00000310: bc1e 2e3d 6b79 af3c 3669 a3bc b900 493c
00000320: 2bce f7bc 2a7e 503d 8d30 5a3d 33a2 e03c
00000330: 7ac7 393d 1e0f 2cba d7f5 0a3b d91c 5b3c
00000340: 5e7c 23bd e2ab 36bd ec66 3cbc dc28 f53c
00000350: 34af 79bd dc35 f6bc 1fad 2c3a 2341 493c
00000360: f3e2 8d3d 09b0 58bc e581 babc f9a9 09bd
00000370: b411 2d3d 7336 d0bc 8e32 7f3c 1e34 08bc
00000380: 1219 1abd 9489 9cbd d477 383d 3868 0b3c
00000390: 13b0 2fbd 45e8 dbbc bbd2 19bd 0e4b fe3c
000003a0: 6860 61bc 4f48 f23c 9161 093d 7bc9 65bd
000003b0: 1cc9 e5bc 3ba9 d13b 73ef 9a3a b827 8f3c
000003c0: 613b deba bd0a 5abd f76d e03b a725 3b3d
000003d0: 4ce1 df3c c8ad ba3c c389 1abc 4fc9 f0bc
000003e0: 6faf bc3c 68e9 433b dc98 9abd ec17 9bbc
000003f0: b122 bf3c 06d8 be3c ea3e 6d3b 1004 843c

fc2.bias f4 [300]
0.039629515 0.043557752 -0.053339157 -0.027472038 0.03836058 -0.007170042 -0.049101964 -0.048371874
-0.037384715 0.00368652 -0.04820914 -0.017584443 -0.039840706 -0.0042121974 0.060093686 0.04350467
-0.035718717 0.019388052 -0.0017092804 0.04251724 0.04586512 -0.055212546 -0.0068423515 -0.03737785
-0.01531628 -0.03598419 -0.03729508 0.04816199 -0.019521011 0.021127397 0.030524343 -0.047035582
0.050112177 -0.056223158 0.015554793 -0.021608818 -0.051940918 -0.0014790947 -0.032371007 0.012503357
0.008269995 -0.057555385 0.007877226 -0.017291242 -0.05827799 0.00053288613 0.049348246 -0.055493455
0.017748425 0.0333767 -0.05701213 -0.04337855 -0.020277217 0.053776912 -0.03179035 0.03269537
0.02434751 -0.013992753 -0.0011971625 0.02837613 -0.048201244 -0.037285138 0.027594762 0.013101512
-0.044740587 0.020002874 0.039960865 -0.054567505 0.004161853 0.056104854 0.0076632435 0.026713714
-0.014700209 0.0065613366 0.019164702 -0.020696279 -0.017933719 -0.016529627 -0.05524702 0.0051597347
-0.0077561513 0.000944746 -0.05644617 0.031085335 -0.029185059 0.006168684 0.0329304 0.021529373
0.032834176 -0.03958395 0.04192577 -0.048046358 -0.041756764 -0.001046175 -0.0131811 -0.056259852
-0.0037163137 -0.023408666 0.006974581 -0.02640584 0.015555255 -0.026660947 0.022005593 -0.049684767
-0.06203591 0.025409818 0.053210963 -0.04793601 -0.022340765 0.031841442 0.010405812 -0.05081629
-0.019592809 -0.005184907 -0.0065681273 0.041964024 0.031778045 0.049043175 -0.006755748 -0.005288071
0.035634205 -0.027842043 -0.039226767 -0.0557548 -0.06065843 -0.0019901716 0.0448195 0.0036763393
-0.037714474 0.0073676053 0.0038250543 -0.003936694 -0.016248707 0.0050396025 -0.0011548763 0.051700782
0.022636013 -0.053227365 0.033131488 -0.020506447 -0.013450414 -0.05476388 0.014127608 -0.022364572
-0.03731638 0.0014361086 -0.02598599 0.028041504 0.015124443 0.052413307 -0.054195296 -0.057357498
-0.011589497 0.04703253 0.037613988 -0.047561858 0.03628543 -0.013902306 -0.055601865 0.004074178
-0.024981197 -0.011069256 0.041860122 -0.010241801 0.051147807 0.015138592 0.04977834 -0.010073381
-0.010831119 0.00069303135 -0.039818626 -0.04451155 0.024552671 -0.05716082 0.0011485077 -0.015326153
-0.0013672475 -0.035124652 0.043377038 0.031876665 -0.029459544 0.018924495 -0.02246019 -0.00092119636
0.016261654 -0.015342546 -0.023085615 0.036864996 0.026486348 0.018988136 -0.055574518 -0.004914806
-0.015991122 -0.040708255 0.022803927 -0.016266877 -0.058161076 0.012518651 0.04407591 -0.017486654
-0.028241523 -0.030996453 0.03240554 -0.035896134 0.023763528 0.007814683 -0.039417956 -0.049248803
-0.0031342702 0.035793338 -0.0063967933 -0.04966856 -0.01755662 -0.038783822 0.009709568 0.053978477
-0.057172257 0.00677274 -0.036145043 0.013532756 -0.02233234 0.012638518 0.014911911 0.050330468
0.024043676 0.0057812845 -0.0059626186 0.013517634 -0.024169022 -0.04664366 0.05797532 0.006947004
0.026362462 -0.04288593 -0.011325041 0.04933006 0.009949164 -0.04171673 0.022334639 0.02083975
0.01683076 -0.022002362 0.0013432541 0.016123023 -0.029879738 -0.043515973 -0.049027212 0.029332004
-0.016224995 0.0032319021 0.011722283 0.029291427 -0.005351895 -0.021755112 0.011669693 -0.027906181
00000000: 8f52 223d 9d69 323d 297a 5abd 0a0d e1bc
00000010: fc1f 1d3d acf2 eabb 241f 49bd 9621 46bd
00000020: b720 19bd 8b99 713b f276 45bd 400d 90bc
00000030: 0230 23bd 7906 8abb cc24 763d f431 323d
00000040: ca4d 12bd b1d3 9e3c ef09 e0ba 8f26 2e3d
00000050: 10dd 3b3d 8d26 62bd ce35 e0bb 8419 19bd
00000060: 22f1 7abc 2864 13bd bac2 18bd 8245 453d
00000070: 87ea 9fbc 5d13 ad3c 300e fa3c 62a8 40bd
00000080: 6d42 4d3d 414a 66bd 88d9 7e3c fa04 b1bc
00000090: 00c0 54bd 2fde c1ba 7697 04bd e1da 4c3c
000000a0: e07e 073c 32bf 6bbd 7b0f 013c 5da6 8dbc
000000b0: e7b4 6ebd 62b1 0b3a 6321 4a3d 1b4d 63bd
000000c0: 2565 913c 02b6 083d 8d85 69bd b5ad 31bd
000000d0: 681c a6bc 2e45 5c3d 9936 02bd 95eb 053d
000000e0: 6e74 c73c dc41 65bc 1cea 9cba 0f75 e83c
000000f0: ab6e 45bd 4db8 18bd 690e e23c b9a7 563c
00000100: e841 37bd 11dd a33c 01ae 233d 2d82 5fbd
00000110: 2760 883b 34ce 653d f21b fb3b b8d6 da3c
00000120: 25d9 70bc 7b00 d73b 4bff 9c3c 3e8b a9bc
00000130: bce9 92bc 2469 87bc b34a 62bd fe12 a93b
00000140: 5027 febb d5a8 773a 1934 67bd aca6 fe3c
00000150: 8115 efbc ac22 ca3b 07e2 063d 5e5e b03c
00000160: 217d 063d c822 22bd 5bba 2b3d 42cc 44bd
00000170: 2409 2bbd cf1f 89ba 8af5 57bc bb70 66bd
00000180: 668d 73bb 88c3 bfbc 078b e43b 0f51 d8bc
00000190: 78db 7e3c 0f68 dabc 1345 b43c 4182 4bbd
000001a0: 5e19 7ebd 4028 d03c bdf3 593d 8d58 44bd
000001b0: fb03 b7bc 2c6c 023d 247d 2a3c be24 50bd
000001c0: 1981 a0bc 27e6 a9bb 7239 d7bb 78e2 2b3d
000001d0: b229 023d 7fe1 483d 525f ddbb 8e47 adbb
000001e0: 2cf5 113d ff14 e4bc 3fac 20bd 255f 64bd
000001f0: f974 78bd 8a6d 02bb a794 373d bdee 703b
00000200: 7e7a 1abd f46b f13b c3ad 7a3b 62ff 80bb
00000210: 021c 85bc 4023 a53b 385f 97ba 33c4 533d
00000220: 296f b93c f004 5abd e2b4 073d 23fd a7bc
00000230: 205f 5cbc 1750 60bd 7c77 673c e835 b7bc
00000240: 0fd9 18bd cf3b bc3a 92e0 d4bc 4cb7 e53c
00000250: 83cc 773c 56af 563d e3fb 5dbd b2ef 6abd
00000260: e0e1 3dbc 2fa5 403d 2011 1a3d 39d0 42bd
00000270: 08a0 143d 7fc6 63bc c8be 63bd af80 853b
00000280: 5ea5 ccbc d35b 35bc 8575 2b3d 3acd 27bc
00000290: 5d80 513d db07 783c 5fe4 4b3d d20a 25bc
000002a0: 0175 31bc 8cac 353a db18 23bd be51 36bd
000002b0: af22 c93c 7721 6abd 8689 963a 8b1a 7bbc
000002c0: 3735 b3ba dede 0fbd 1fac 313d 1b91 023d
000002d0: 2455 f1bc 8b07 9b3c 6ffe b7bc 717c 71ba
000002e0: 2937 853c 4d5f 7bbc 0b1e bdbc c0ff 163d
000002f0: e6f9 d83c 028d 9b3c 1ba2 63bd 620c a1bb
00000300: d0ff 82bc b3bd 26bd 4dcf ba3c 1d42 85bc
00000310: 4f3a 6ebd 071b 4d3c f188 343d 2c40 8fbc
00000320: c45a e7bc 46ec fdbc acbb 043d d307 13bd
00000330: bbab c23c 2809 003c b974 21bd 1db9 49bd
00000340: 5468 4dbb 099c 123d 319c d1bb 4371 4bbd
00000350: e7d2 8fbc c9db 1ebd e114 1f3c 8918 5d3d
00000360: 752d 6abd dced dd3b d30c 14bd 7eb8 5d3c
00000370: 50f2 b6bc c911 4f3c 1751 743c 5227 4e3d
00000380: 3ef7 c43c ee70 bd3b 1262 c3bb 1179 5d3c
00000390: 1dfe c5bc 6c0d 3fbd 8777 6d3d b1a3 e33b
000003a0: 17f6 d73c 28a9 2fbd aa8c 39bc 510e 4a3d
000003b0: d201 233c 29df 2abd 22f7 b63c 20b8 aa3c
000003c0: a9e0 893c 4c3e b4bc 2110 b03a 6e14 843c
000003d0: 5ac6 f4bc ce3d 32bd c2d0 48bd ac49 f03c
000003e0: 48ea 84bc 52ce 533b d20e 403c 93f4 ef3c
000003f0: f35e afbb c737 b2bc 3d32 3f3c 819b e4bc

fc3.weight f4 [5, 300]
-0.041335292 -0.03990943 -0.049505785 -0.021907033 0.03212073 -0.040373493 0.07110895 -0.0151605075
0.049671613 0.007751181 0.042978544 -0.020687051 -0.064498544 0.011177878 -0.055427067 -0.059101276
0.042427953 -0.009828617 -0.030953148 0.014985979 0.023622908 -0.009584939 -0.032340266 -0.0013688253
-0.0010185307 -0.045970574 0.043943293 0.065365575 0.015037026 0.034758735 -0.047416765 -0.018788965
0.06655726 -0.005990775 0.058405966 0.056555938 -0.026410433 -0.0017655632 0.027517745 0.01242352
0.03119522 -0.011166127 0.007120756 -0.05084903 0.056876022 -0.020277016 -0.009012895 -0.01774413
0.03781346 0.050718635 -0.028832164 0.004836083 -0.034785382 0.04866568 0.06957967 -0.06282139
0.049566388 0.06902091 -0.014000055 0.04056038 -0.006664832 0.018552491 -0.039823677 0.028515162
0.07326558 0.054733157 0.06277023 -0.032141108 0.05077165 0.028575897 0.06612502 0.0123809185
-0.05559976 0.047821224 0.042965204 0.07401729 0.054737028 0.031192148 -0.057180405 0.025353316
0.05106096 0.061669644 -0.043317042 -0.024228415 0.02191847 -0.038687646 0.041843288 -0.055368226
0.032944288 0.050211366 0.06354562 -0.02608824 -0.01743725 0.037912764 -0.057136722 0.0316511
-0.053867944 0.06755818 -0.043650832 -0.035059877 0.021635653 0.054539032 0.058666404 0.06275062
0.062379662 -0.015207533 0.056446206 -0.05418855 0.004356928 0.059224527 -0.040571082 0.051940348
-0.048590634 0.06215628 0.062487666 -0.020481717 -0.056042142 -0.013337956 -0.020480836 -0.056112353
-0.026153114 0.039322875 -0.027319405 0.034757283 0.026923418 -0.05759524 0.05395321 0.026622165
0.056509532 0.05540449 -0.05627371 0.04812349 0.0465159 0.04649675 0.026435133 -0.012593226
-0.033750575 -0.04302933 0.06410935 -0.044198155 -0.04580425 -0.043212026 0.050683282 0.04098469
-0.045326337 -0.035004575 -0.0006478336 0.051068824 -0.036038194 -0.021844063 -0.044776756 -0.013052269
-0.024010569 0.06005998 -0.028612994 0.029943518 -0.02673942 0.016808486 -0.033409435 0.038817625
0.039659824 0.05350166 0.019010581 0.02404216 0.06533469 -0.016682887 0.0047331504 -0.01840324
-0.065270826 -0.045840584 0.071454816 -0.000889064 0.06004407 -0.024852514 -0.0026917125 0.01194688
-0.04486732 -0.04208372 0.006389139 -0.037978422 0.057295978 -0.06544802 0.038820397 0.035746746
-0.06906636 0.057845414 -0.020816185 0.015788738 0.063199505 -0.051753286 -0.011134957 0.05384117
0.057916373 -0.017617596 -0.05248626 -0.021485377 0.050532527 -0.018792916 -0.02518946 0.048210327
0.06750309 0.0251452 -0.06817869 -0.062226433 0.042434517 0.030605542 -0.039506346 -0.031145427
-0.024333183 0.0056178034 -0.030385815 0.00602037 0.029361581 0.026631098 -0.034033336 0.03525438
0.0046164733 -0.050425496 -0.052808058 0.029802622 0.037956357 -0.015563528 -0.03820372 0.010870315
0.056432743 0.048576444 0.032797627 0.021838974 -0.047853753 0.0092641255 -0.061468646 -0.036655758
0.02574592 0.033588987 -0.050818667 0.05608348 -0.060937703 0.015054078 0.013300122 -0.061631117
-0.004336316 0.041636355 -0.031567197 -0.020661809 0.050160725 0.05557137 0.051896315 -0.0410877
0.0039569433 -0.045098837 0.058051277 -0.049140118 -0.0404801 -0.0152754225 0.041000582 0.037623264
00000000: 324f 29bd 1278 23bd 94c6 4abd 6176 b3bc
00000010: 0791 033d ad5e 25bd 92a1 913d c763 78bc
00000020: 7674 4b3d 9efd fd3b 450a 303d e477 a9bc
00000030: d017 84bd 6b23 373c 7e07 63bd 2e14 72bd
00000040: efc8 2d3d 3508 21bc 7591 fdbc c087 753c
00000050: d484 c13c 260a 1dbc 3a77 04bd 286a b3ba
00000060: 3880 85ba a44b 3cbd e2fd 333d 63de 853d
00000070: dc5d 763c 2d5f 0e3d 1538 42bd 51eb 99bc
00000080: 2c4f 883d 434e c4bb 183b 6f3d 33a7 673d
00000090: b15a d8bc 786a e7ba e56c e13c 058c 4b3c
000000a0: 1e8d ff3c 22f2 36bc 3b55 e93b 1347 50bd
000000b0: d5f6 683d fc1b a6bc d2aa 13bc 235c 91bc
000000c0: 49e2 1a3d 58be 4f3d 6e31 ecbc 0178 9e3b
000000d0: 1e7b 0ebd aa55 473d c97f 8e3d 80a8 80bd
000000e0: 2006 4b3d d65a 8d3d 7d60 65bc a422 263d
000000f0: aa64 dabb 65fb 973c 271e 23bd a198 e93c
00000100: 440c 963d e02f 603d ae8d 803d 65a6 03bd
00000110: eff5 4f3d 0018 ea3c 8e6c 873d 56d9 4a3c
00000120: 93bc 63bd 30e0 433d 48fc 2f3d 6096 973d
00000130: ef33 603d ad86 ff3c 0036 6abd c2b1 cf3c
00000140: 4c25 513d 4f99 7c3d 366d 31bd ab7a c6bc
00000150: 5d8e b33c f076 1ebd de63 2b3d cbc9 62bd
00000160: 97f0 063d 6faa 4d3d 3524 823d 01b7 d5bc
00000170: 90d8 8ebc 6a4a 1b3d 3208 6abd 95a4 013d
00000180: a2a4 5cbd f15b 8a3d 37cb 32bd f29a 0fbd
00000190: 413d b13c 5264 5f3d 2f4c 703d 6683 803d
000001a0: d181 7f3d 0429 79bc 2334 673d d0f4 5dbd
000001b0: 90c4 8e3b 6b95 723d dd2d 26bd 67bf 543d
000001c0: f906 47bd 9597 7e3d 11f3 7f3d 46c9 a7bc
000001d0: 728c 65bd 7187 5abc 6dc7 a7bc 11d6 65bd
000001e0: 0e3f d6bc 0611 213d f2cc dfbc a75d 0e3d
000001f0: 808e dc3c fde8 6bbd 0bfe 5c3d ba16 da3c
00000200: 8a76 673d d2ef 623d 437f 66bd 231d 453d
00000210: 7587 3e3d 6073 3e3d 7e8e d83c d153 4ebc
00000220: 0b3e 0abd 863f 30bd c34b 833d 2009 35bd
00000230: 3d9d 3bbd 18ff 30bd 4699 4f3d 90df 273d
00000240: 1ca8 39bd f560 0fbd 61d3 29ba 8b2d 513d
00000250: c99c 13bd 52f2 b2bc d567 37bd 2fd9 55bc
00000260: d0b1 c4bc 7401 763d cc65 eabc 1c4c f53c
00000270: a10c dbbc f3b1 893c 55d8 08bd 3bff 1e3d
00000280: 5772 223d 8e24 5b3d 14bc 9b3c 10f4 c43c
00000290: 32ce 853d 8daa 88bc 8b18 9b3b 64c2 96bc
000002a0: b6ac 85bd 56c3 3bbd e756 923d 1310 69ba
000002b0: c5f0 753d 8097 cbbc 7167 30bb d9bc 433c
000002c0: ccc6 37bd fb5f 2cbd fc5b d13b 438f 1bbd
000002d0: 30af 6a3d 9d09 86bd 2302 1f3d 2e6b 123d
000002e0: aa72 8dbd 50ef 6c3d b486 aabc 6257 813c
000002f0: be6e 813d 41fb 53bd 656f 36bc 8f88 5c3d
00000300: b839 6d3d c752 90bc d5fb 56bd 1a02 b0bc
00000310: 32fb 4e3d 9af3 99bc 205a cebc 3178 453d
00000320: 0f3f 8a3d 4efd cd3c 45a1 8bbd 25e1 7ebd
00000330: d1cf 2d3d 79b8 fa3c 68d1 21bd b224 ffbc
00000340: 6256 c7bc 8d15 b83b aceb f8bc 8646 c53b
00000350: b387 f03c 7629 da3c 8a66 0bbd e666 103d
00000360: c945 973b f78a 4ebd 434d 58bd a124 f43c
00000370: 2078 1b3d 2bfe 7ebc 817b 1cbd 6819 323c
00000380: 0526 673d 18f8 463d ce56 063d a6e7 b23c
00000390: 4c02 44bd 8fc8 173c 8cc6 7bbd 5924 16bd
000003a0: 1ce9 d23c 9b94 093d 3c27 50bd cbb7 653d
000003b0: d099 79bd 61a5 763c c1e8 593c e970 7cbd
000003c0: a817 8ebb e28a 2a3d 9b4c 01bd f442 a9bc
000003d0: 5575 4d3d ce9e 633d 3b91 543d 934b 28bd
000003e0: 3fa9 813b 8fb9 38bd 2dc7 6d3d 2647 49bd
000003f0: 76ce 25bd c445 7abc 3af0 273d da1a 1a3d

fc3.bias f4 [5]
-0.044297107 0.015324318 0.02859776 0.02270756 0.052933387
00000000: e270 35bd d912 7b3c d945 ea3c 3405 ba3c
00000010: aed0 583d
