model_weights/taxi_weights/model_taxi_MSE.pt (torch, 394958 bytes, 6 tensors)

fc1.weight f4 [300, 20]
0	0x3e049c5e	0.12950274
1	0x3b7fb391	0.0039016942
2	0x3e5307a9	0.20608391
3	0x3e6d5bca	0.23179546
4	0x3e3f5455	0.18684514
5	0xbd43feb6	-0.047850333
6	0xbcd309cd	-0.02576151
7	0xbd786531	-0.06064338
8	0xbe462efd	-0.19353862
9	0x3dcffa29	0.10155136
10	0xbd898fb0	-0.06716859
11	0xbd5064bb	-0.050877314
12	0xbd80dba4	-0.06291893
13	0x3c9d4c8e	0.019201543
14	0x3d62c195	0.055360395
15	0xbe0fadb8	-0.14031112
16	0xbe1ec216	-0.15503725
17	0xbe803105	-0.250374
18	0x3db00b10	0.0859586
19	0x3c52508f	0.0128365895
20	0xbe7c39ab	-0.24631374
21	0x3cf61a1b	0.030041745
22	0xbdc7bd47	-0.09752899
23	0xbdf70f56	-0.12063472
24	0x3dc98bc1	0.09841109
25	0x3e3d45bf	0.18483637
26	0xbdaa6ebd	-0.08321903
27	0x3d996f0b	0.07491883
28	0xbceb0e4b	-0.028693339
29	0xbe1b6cc9	-0.15178217
30	0xbd660344	-0.056155458
31	0x3de2a03f	0.11065721
32	0xbcd2670f	-0.025683908
33	0x3dd92610	0.10602963
34	0xbe1700e0	-0.14746428
35	0xbe0f54bd	-0.13997169
36	0xbd8b42a8	-0.06799823
37	0xbe4b9cb6	-0.19883999
38	0xbe6226ad	-0.22085066
39	0xbe855540	-0.26041603
40	0xbdd5c692	-0.10438265
41	0xbe5f6073	-0.21814136
42	0xbe85d7b4	-0.2614113
43	0xbe2f6e69	-0.17131962
44	0x3d7ddded	0.061979223
45	0x3dde8566	0.108652875
46	0xbd54e9ac	-0.05198066
47	0xbd35fc5d	-0.044430126
48	0xbe61a37f	-0.22035025
49	0xbdab144f	-0.08353483
50	0xbc6a964e	-0.014318062
51	0x3d8da6be	0.06916569
52	0x3e2ca997	0.16861568
53	0x3b04cd96	0.002026414
54	0xbd951bb2	-0.07280673
55	0x3d15a429	0.03653351
56	0xbdfc8fb2	-0.12332095
57	0x3c0e9953	0.0087035475
58	0xbd17a048	-0.03701809
59	0x3ed05508	0.40689874
60	0x3e9ac1be	0.3022594
61	0x3d9777be	0.07395886
62	0x3e3e7bea	0.18601957
63	0xbdd102c5	-0.10205606
64	0x3db5b9c1	0.0887332
65	0x3e3593e8	0.17732203
66	0xbe633f29	-0.22192062
67	0xbdfc9a61	-0.12334133
68	0x3d13930f	0.036028918
69	0xbe10059c	-0.1406464
70	0x3e307226	0.17231044
71	0xbc46f864	-0.012144182
72	0xbc9cf6c3	-0.019160634
73	0x3d443715	0.047904093
74	0xbc0ca921	-0.008585245
75	0xbe4c9ce9	-0.19981731
76	0xbe77c37b	-0.24195664
77	0xbe45be64	-0.1931091
78	0x3e3f9f02	0.18713
79	0x3b4a91ff	0.0030909774
80	0x3e5294a8	0.2056452
81	0x3c8f02a4	0.017457314
82	0x3e74066a	0.23830572
83	0xbd474b03	-0.04865552
84	0x3e8f4c78	0.2798803
85	0x3db6e0cf	0.089295976
86	0x3e787808	0.24264538
87	0x3e377a58	0.17917764
88	0x3dfad59f	0.12247776
89	0x3d49e716	0.049292646
90	0xbd1a9dcc	-0.037748143
91	0x3e1f40df	0.1555209
92	0x3d84937c	0.06473443
93	0x3c07f881	0.008298994
94	0xbe08e59f	-0.13368843
95	0xbe63ed4b	-0.22258489
96	0xbd9f8166	-0.07788353
97	0xbeaa3223	-0.33241376
98	0xbe7a53e5	-0.24446066
99	0xbd829abe	-0.06377171
100	0xbcbdb66a	-0.02315827
101	0x3e643c76	0.22288689
102	0xbe462d95	-0.19353326
103	0x3e0e114c	0.13873786
104	0xbe364df1	-0.1780317
105	0x3e1a3895	0.15060647
106	0xbdfd0b3b	-0.12355658
107	0xbd82445a	-0.06360693
108	0xbe2d61ca	-0.16931835
109	0x3e46dd42	0.1942034
110	0xbe0cfa5a	-0.13767377
111	0xbe00a151	-0.12561537
112	0xbd78c293	-0.060732435
113	0x3e2b5853	0.16732912
114	0x3df93182	0.12167646
115	0xbe4a707c	-0.19769472
116	0x3df25d4c	0.11834201
117	0xbbc0c652	-0.0058830166
118	0x3e0b2102	0.1358681
119	0x3ebac57c	0.36478794
120	0xbe18788f	-0.1488974
121	0x3daf5963	0.08561971
122	0x3d9f9559	0.07792158
123	0x3d1eccb9	0.038769457
124	0xbdb84ff3	-0.08999624
125	0x3d35a085	0.044342536
126	0x3d4422c3	0.047884714
127	0x3e01f43b	0.12690823
128	0xbdf5e1f0	-0.12005985
129	0x3e2f7fb8	0.17138565
130	0x3c833bdc	0.016019754
131	0xbccbe989	-0.024891632
132	0x3db0fae7	0.08641606
133	0xbd1e355b	-0.038625102
134	0xbe2e7035	-0.17034991
135	0xbcebde7a	-0.028792609
136	0xbce9511d	-0.02848106
137	0x3e3287ba	0.17434588
138	0x3e637251	0.22211577
139	0x3ea10310	0.3144765
140	0xbe9df909	-0.3085406
141	0xbe878d90	-0.2647519
142	0x3e171174	0.14752752
143	0xbe22518a	-0.15851417
144	0x3d98ef58	0.07467526
145	0x3c826f7f	0.015922306
146	0xbd9ab99d	-0.07554934
147	0x3e49214e	0.19641611
148	0xbda6f373	-0.08151903
149	0x3d36f8f2	0.044671007
150	0xbda10db0	-0.07863939
151	0xbd0db3d5	-0.03459533
152	0x3cc3ce43	0.023902064
153	0x3e1884c8	0.14894402
154	0x3d9eb91f	0.07750153
155	0x3e076c55	0.13224919
156	0x3e071621	0.13192035
157	0x3cf1edf8	0.029532418
158	0x3e05361d	0.13008924
159	0xbdb18875	-0.08668605
160	0x3e0fd0f1	0.14044549
161	0xbe411573	-0.18855838
162	0x3c98d88a	0.018657941
163	0xbd9a4c23	-0.07534053
164	0xbe3a3f43	-0.18188195
165	0xbd00fe2e	-0.031492405
166	0xbe61f460	-0.22065878
167	0xbe714481	-0.23561288
168	0xbca592f4	-0.020211674
169	0xbdea5431	-0.114418395
170	0xbd7d519f	-0.061845418
171	0xbd535062	-0.05159033
172	0x3cf252bd	0.029580468
173	0x3d1e7c2b	0.038692635
174	0x3e04169d	0.12899251
175	0x3e6065b3	0.21913795
176	0x3e6fec95	0.23430093
177	0x3e0a255a	0.13490811
178	0x3e955bb3	0.29171523
179	0x3ed461fd	0.4148101
180	0x3e928ed1	0.28624585
181	0x3e881c40	0.26584053
182	0x3d269d62	0.040677436
183	0xbdd17951	-0.102282174
184	0x3da3b22d	0.07992969
185	0x3e3903ce	0.18067858
186	0xbe3e250d	-0.18568821
187	0xbe394078	-0.18090999
188	0xbdd15ce2	-0.10222794
189	0x3da44b7a	0.080222085
190	0xbd697d43	-0.057004225
191	0x3e190fad	0.14947386
192	0x3e6498cf	0.22323917
193	0x3d75a1b1	0.059968654
194	0xbe091747	-0.13387786
195	0xbe56c8af	-0.20974992
196	0xbcf29908	-0.029613987
197	0x3e1c288d	0.15249844
198	0xbdbf762a	-0.0934871
199	0x3eb3c069	0.35107735
200	0xbd9ee703	-0.07758906
201	0xbb90da72	-0.004420572
202	0x3dbf50a4	0.09341553
203	0x3ba884de	0.005142792
204	0x3bde73c3	0.006788702
205	0xbdb98061	-0.090576895
206	0xbb09d259	-0.0021029918
207	0xbda21f75	-0.07916156
208	0x3e48a2be	0.19593331
209	0xbe0e53cc	-0.13899153
210	0xbe1d2936	-0.15347752
211	0x3e52aa43	0.20572762
212	0xbd5bc088	-0.05365041
213	0xbe28dd9f	-0.16490792
214	0x3e4dbf6e	0.20092556
215	0x3abd0798	0.0014421819
216	0xbd7c858e	-0.061650805
217	0x3e67098d	0.22562237
218	0x3e95ef1c	0.29283988
219	0x3e686c41	0.22697546
220	0xbe31f6e6	-0.1737934
221	0xbdddbc63	-0.108269475
222	0xbe082eaa	-0.13299051
223	0xbe42d1ee	-0.19025394
224	0xbe3a6e3d	-0.18206115
225	0xbe3a4300	-0.18189621
226	0x3e236721	0.1595731
227	0x3e24efcc	0.161071
228	0x3db0e507	0.086374335
229	0xbdbe5283	-0.092930816
230	0x3e0d6bf8	0.13810718
231	0x3e2750c7	0.16339408
232	0x3e6e7d3c	0.2328996
233	0x3db3c66b	0.087780796
234	0x3e7a2982	0.24429896
235	0x3e9de540	0.30838966
236	0x3e1cf1af	0.1532657
237	0xbdd1cc86	-0.10244088
238	0xbe07270c	-0.13198489
239	0x3d70f24b	0.05882482
240	0xbd1c3bc9	-0.038142953
241	0xbea49d69	-0.32151344
242	0xbe9eca93	-0.31013927
243	0xbe4849a3	-0.1955934
244	0xbe2c412a	-0.16821733
245	0xbda26092	-0.079285756
246	0x3e0aef16	0.13567767
247	0xbe2447bd	-0.16042991
248	0xbd6b08ea	-0.057381548
249	0xbc2572f2	-0.010098206
250	0xbe666b58	-0.22501886
251	0xbc852dd0	-0.016257197
252	0x3e150105	0.1455117
253	0x3d5e36e4	0.054251567
254	0xbdc635c0	-0.09678221
255	0xbe095bb6	-0.13413891

fc1.bias f4 [300]
0	0xbcb84ad6	-0.022496622
1	0xbe19142d	-0.14949103
2	0xbe75e946	-0.24014768
3	0x3da8fc77	0.08251279
4	0x3e8d30c2	0.27576262
5	0xbb87169d	-0.0041225688
6	0x3e377b89	0.17918219
7	0x3e32a564	0.17445904
8	0xbe5f381f	-0.21798752
9	0xbd6d5805	-0.05794527
10	0xbe36ac07	-0.1783906
11	0xbe73afdb	-0.23797552
12	0x3e401c81	0.18760873
13	0x3e67d42d	0.22639532
14	0xbe8f778e	-0.280209
15	0x3e8940ae	0.2680716
16	0x3e0ed0bc	0.13946813
17	0x3e572a6c	0.21012276
18	0x3d60a003	0.0548401
19	0x3dc84273	0.09778299
20	0x3c5b6d83	0.013392809
21	0x3c3b5576	0.01143395
22	0x3b2df5b1	0.0026544149
23	0xbe4c80ec	-0.19971055
24	0xbc6dcdc2	-0.0145143885
25	0xbd9a20ba	-0.07525773
26	0xbca7e74b	-0.020496031
27	0x3e07f1c4	0.1327582
28	0xbd042c3c	-0.032268748
29	0x3e0fdaf0	0.14048362
30	0x3de1adda	0.11019488
31	0x3e2fff3e	0.17187211
32	0x3e60fffc	0.2197265
33	0xbd7e148d	-0.062031318
34	0xbdfdf115	-0.123994984
35	0xbe5b680b	-0.21426408
36	0xbe8da3d7	-0.27664062
37	0x3d22c2d4	0.039736584
38	0x3c1c4bca	0.009539554
39	0xbc8a71ba	-0.016899932
40	0xbd40bb38	-0.047053546
41	0x3dcc5a11	0.09978116
42	0xbdd28f77	-0.1028127
43	0xbd855f25	-0.06512288
44	0x3e3c0b0d	0.1836359
45	0xbe5dfb1d	-0.21677823
46	0xbe5369a9	-0.20645775
47	0xbe014e32	-0.12627485
48	0x3df7584a	0.12077387
49	0x3e3788f8	0.17923343
50	0x3e44c88e	0.1921713
51	0xbe7cdd4d	-0.24693795
52	0xbd6cd4b6	-0.057820044
53	0x3ce06582	0.027392153
54	0xbe1fdc4c	-0.1561138
55	0x3afe4b35	0.0019401076
56	0xbe0102ee	-0.12598774
57	0xbdb86041	-0.09002734
58	0xbe66a030	-0.22522044
59	0x3dba00b4	0.09082165
60	0xbdc98458	-0.09839696
61	0xbe200996	-0.15628657
62	0xbe35b754	-0.17745715
63	0x3e089217	0.13336979
64	0x3d192ec8	0.03739813
65	0xbe5f1d77	-0.21788584
66	0xbdf2902b	-0.11843904
67	0x3c4a053e	0.012330351
68	0x3e4640b7	0.19360624
69	0xbe3b246a	-0.1827561
70	0xbdce78bb	-0.10081621
71	0xbcdb7cce	-0.02679291
72	0xbd82c160	-0.063845396
73	0xbd85b6b2	-0.06528987
74	0xbe6254d3	-0.2210267
75	0x3e396442	0.18104652
76	0x3c3e3fef	0.011611923
77	0x3de24c44	0.11049703
78	0x3e1306df	0.1435809
79	0x3d9f658e	0.07783042
80	0x3da5546a	0.08072741
81	0xbe703e60	-0.23461294
82	0x3e2fb68a	0.17159477
83	0xbcb3126b	-0.021859368
84	0x3d9c0f2b	0.076200806
85	0x3e0a61b0	0.13513827
86	0xbe7169bd	-0.23575492
87	0xbe2f790c	-0.1713602
88	0xbd042d13	-0.03226955
89	0xbe41c166	-0.18921432
90	0xbe9f21af	-0.31080386
91	0xbd842c39	-0.06453747
92	0xbe181212	-0.14850643
93	0xbca92e80	-0.020652056
94	0xbd8c8c70	-0.06862724
95	0x3e2a9d73	0.16661625
96	0x3e2effec	0.17089814
97	0x3e2a8030	0.16650462
98	0xbe4a69ea	-0.19766966
99	0xbdc9b480	-0.09848881
100	0x3dfd8f18	0.123808086
101	0x3d4eacb0	0.050457656
102	0xbddbc909	-0.10731704
103	0xbe581f39	-0.2110566
104	0x3d41f164	0.04734935
105	0xbe3f7823	-0.18698172
106	0x3dd6f133	0.10495224
107	0x3d873553	0.06601968
108	0x3cd54646	0.026034486
109	0xbda178ae	-0.07884346
110	0xbe006b8f	-0.1254103
111	0xbe2676da	-0.16256276
112	0xbead8d60	-0.33896923
113	0x3d426307	0.04745772
114	0xbc4f2091	-0.012642042
115	0xbca84930	-0.020542711
116	0x3b936f6c	0.0044993665
117	0xbdaedab3	-0.08537807
118	0xbe288f52	-0.16460922
119	0x3e47d11b	0.19513361
120	0xbe2d9818	-0.1695255
121	0x3dc67adc	0.09691402
122	0x3e98efaf	0.29870364
123	0x3e4f162d	0.20223303
124	0x3dbd1de0	0.09234214
125	0x3dbdb6ca	0.0926338
126	0xbe2b9c04	-0.16758734
127	0x3e2a6996	0.1664184
128	0x3d629179	0.055314515
129	0x3da7df31	0.08196867
130	0xbd891403	-0.0669327
131	0xbd829892	-0.06376757
132	0x3db15ce2	0.08660294
133	0xbd84eb92	-0.06490244
134	0x3d6d44a2	0.05792678
135	0xbdafec4b	-0.08589991
136	0xbe4336c1	-0.19063856
137	0x3e247c03	0.16062932
138	0xbaeff586	-0.0018307425
139	0x3e397440	0.18110752
140	0xbe2c131a	-0.16804162
141	0x3e0f4f02	0.13994983
142	0xbe8f2043	-0.279543
143	0xbe4592e3	-0.19294314
144	0x3d3c573f	0.04598164
145	0x3e259cde	0.16173121
146	0x3e4d905b	0.20074598
147	0x3d523f1e	0.051329724
148	0xbc2421b0	-0.010017797
149	0x3bbb21cb	0.0057108155
150	0x3db6446c	0.08899769
151	0x3d7613d7	0.060077514
152	0x3e417b26	0.18894634
153	0x3dad048f	0.08448135
154	0xbe157795	-0.14596398
155	0x3daba1e4	0.083804876
156	0xbdff7ef1	-0.12475384
157	0x3d87d80b	0.06633004
158	0xbdb384f6	-0.08765595
159	0x3e2be74b	0.1678745
160	0x3de04698	0.10950965
161	0x3b591429	0.0033123589
162	0xbd8e1ee7	-0.06939488
163	0xbddade16	-0.10686891
164	0xbe709588	-0.23494542
165	0xbdbbeeda	-0.09176417
166	0x3e32ebb1	0.17472722
167	0xbe20f315	-0.15717728
168	0xbd47a931	-0.048745338
169	0x3d0c9035	0.034317214
170	0xbdf9ad03	-0.121912025
171	0x3d089856	0.033348404
172	0xbe3f707a	-0.1869525
173	0x3d8e21f5	0.069400705
174	0xbe812f75	-0.2523152
175	0x3e141842	0.14462379
176	0xbe224342	-0.1584597
177	0xbe4c731f	-0.1996579
178	0xbcf708e7	-0.030155612
179	0x3ddd4973	0.10805025
180	0xbe44e28d	-0.19227047
181	0x3ce1b0c7	0.027550114
182	0x3e183244	0.14862925
183	0xbdd8f13d	-0.105928876
184	0x3e5f6fac	0.21819943
185	0x3c57ad45	0.013163869
186	0xbdea093c	-0.114275426
187	0x3d946dae	0.07247482
188	0x3df8c414	0.12146774
189	0xbd0cbdd5	-0.034360725
190	0xbe59bb60	-0.21262884
191	0xbdf5b503	-0.11997416
192	0xbe59598b	-0.21225564
193	0xbdda885b	-0.10670539
194	0xbd9e5a0e	-0.0773202
195	0xbd669709	-0.056296382
196	0xbc94d821	-0.018169465
197	0x3e27168a	0.16317192
198	0xbc5efdcc	-0.013610315
199	0x3d43f8a2	0.047844537
200	0x3e3a8521	0.18214847
201	0x3e226651	0.15859343
202	0x3d3ef500	0.04662037
203	0xbe6fd5b3	-0.23421364
204	0xbddcebe1	-0.10787178
205	0xbdb0ab36	-0.08626406
206	0xbe3bb4c8	-0.18330681
207	0x3d83d2a5	0.06436662
208	0x3e10db0a	0.14146057
209	0x3d472833	0.04862232
210	0xbe543e9a	-0.20727006
211	0x3d4b4e77	0.049635377
212	0x3df7fc2a	0.12108643
213	0x3d5af08e	0.053452067
214	0xbe5be510	-0.21474099
215	0x3de6aeae	0.11263786
216	0xbe5b3e0c	-0.21410388
217	0xbe00e5f2	-0.12587717
218	0xbdba365a	-0.09092398
219	0x3df6ef67	0.12057381
220	0xbe558111	-0.20850016
221	0xbe50d0f6	-0.20392212
222	0xbe5b970b	-0.21444337
223	0xbe30e0b4	-0.17273217
224	0x3debe96b	0.1151913
225	0x3ddcc47b	0.10779663
226	0xbe3d03f1	-0.18458535
227	0x3d48252a	0.048863567
228	0xbdb0fcb0	-0.08641946
229	0xbe38871f	-0.18020295
230	0x3e7218c8	0.23642266
231	0x3e2bb152	0.16766861
232	0x3d8c687b	0.068558656
233	0x3e1d17c7	0.15341102
234	0xbd859875	-0.065232195
235	0xbe6c44df	-0.23073147
236	0x3dfb582c	0.12272677
237	0xbe451010	-0.19244409
238	0x3d9e0f27	0.07717734
239	0x3e6b2f81	0.2296734
240	0x3e41999e	0.18906257
241	0xbdbf0d6b	-0.09328731
242	0x3e184964	0.14871746
243	0x3dd9a80e	0.10627757
244	0xbdf38f9a	-0.11892624
245	0xbe172d5c	-0.14763397
246	0xbe3b5975	-0.18295844
247	0x3e5eb9d9	0.21750583
248	0x3e2d71b0	0.169379
249	0x3df228e0	0.118242025
250	0x3de85736	0.11344759
251	0xbdfd28fa	-0.12361331
252	0x3df205b3	0.11817493
253	0xbc9ba42d	-0.018999184
254	0x3d506fe8	0.050887972
255	0xbe1b172a	-0.15145555

fc2.weight f4 [300, 300]
0	0x3d848ae6	0.06471805
1	0xbda1c7c6	-0.07899432
2	0xbc6b707f	-0.014370083
3	0x3d0a0ff8	0.033706635
4	0x3ca95b2f	0.020673363
5	0x3d350644	0.04419543
6	0x3d750da0	0.059827447
7	0xbb4abc9f	-0.003093518
8	0x3d181217	0.037126627
9	0x3d6d223f	0.057893988
10	0x3b5e0b5c	0.0033881282
11	0xbd808cae	-0.062768325
12	0xbd6f80bc	-0.05847238
13	0x3bfc68d1	0.007702925
14	0xbc856ae1	-0.016286315
15	0xbd036f80	-0.032088757
16	0xbc27e722	-0.010247977
17	0xbd310214	-0.043214872
18	0x3dc31da2	0.095271364
19	0x3c0a609c	0.008445885
20	0xbb8091da	-0.003923637
21	0xbd4814e3	-0.048848044
22	0xbd4dfd36	-0.05029031
23	0x3d0cccbe	0.034374945
24	0xbdbee9bd	-0.09321926
25	0xbd817071	-0.063202746
26	0x3b72b857	0.0037036145
27	0x3da48e80	0.08034992
28	0x3c2152c7	0.009846396
29	0xbc5341dc	-0.01289412
30	0x3d9b061f	0.07569527
31	0xbd5032b4	-0.050829604
32	0xbb47e507	-0.0030501501
33	0x3d6c3145	0.057664175
34	0xbd054ae8	-0.03254214
35	0xbcaa2c67	-0.020773126
36	0x3d66c857	0.056343403
37	0x3d63569d	0.055502523
38	0x3d9182e7	0.07105046
39	0x3bcf0f9c	0.0063189995
40	0xbd060ca4	-0.0327269
41	0x3dc539e8	0.09630185
42	0xbd033ff2	-0.032043405
43	0x3cc7b15b	0.024376562
44	0xbd488557	-0.048955288
45	0xbd8db8a6	-0.069199845
46	0x3d29af6c	0.04142706
47	0x3cc750c8	0.024330512
48	0xbd34509e	-0.044022195
49	0x3be0abfd	0.00685644
50	0xbd1719f4	-0.036889985
51	0xbc950c51	-0.01819435
52	0x3cc4baed	0.024014914
53	0x3d6c6261	0.05771101
54	0x3d8730d9	0.06601114
55	0x3cc81f81	0.024429085
56	0x3d92f78b	0.07176121
57	0x3d7a0268	0.06103745
58	0xbd25fc4e	-0.04052382
59	0x3d86c9ab	0.06581434
60	0x3db845dd	0.089977
61	0xbca7f813	-0.020504033
62	0xbd19c3fd	-0.037540425
63	0xbc3607dc	-0.011110272
64	0xbd6df605	-0.05809595
65	0x3d53a69d	0.051672567
66	0xbcd50be4	-0.026006646
67	0x3ccc612c	0.024948679
68	0x3d3bbbc0	0.04583335
69	0x3d8db7f9	0.069198556
70	0x3c998eb7	0.01874481
71	0x3b012f3c	0.0019711992
72	0xbd36a356	-0.044589363
73	0x3b60d9cf	0.0034309512
74	0xbce06689	-0.027392643
75	0xbc978693	-0.018496787
76	0x3d72c2ca	0.059267797
77	0xbb87c8ed	-0.0041438253
78	0xbd8cf16c	-0.06881985
79	0x3d71071b	0.058844667
80	0x3d8cf7b0	0.0688318
81	0xbcc5beed	-0.024138892
82	0x3c630dcb	0.013858269
83	0x3d8c96e6	0.06864719
84	0x3d84ae13	0.064785145
85	0xbc8b10e6	-0.016975831
86	0x3c3609c9	0.011110731
87	0x3c9d0214	0.01916603
88	0x3d740eeb	0.05958454
89	0xbd2e9a5e	-0.042627685
90	0x3df5a65d	0.11994622
91	0xbd70819a	-0.058717348
92	0x3d1282da	0.03576932
93	0xbdba0420	-0.09082818
94	0xbc17df61	-0.009269566
95	0x3c5b8df3	0.013400543
96	0xbd13c845	-0.036079664
97	0x3ceb0391	0.028688224
98	0x3cecee6c	0.028922282
99	0x3d99c9a2	0.075091615
100	0xbb2e61cb	-0.0026608582
101	0x3d56dfd9	0.05245957
102	0x3d87d54b	0.06632479
103	0x3d9b5334	0.07584229
104	0x3cd28825	0.025699684
105	0xbd4cac25	-0.049968857
106	0x3d12b6e5	0.035818953
107	0xbd50fe66	-0.051023863
108	0xbcd6a8ed	-0.026203597
109	0x3db3f2fb	0.08786579
110	0x3d2a7177	0.041612115
111	0x3a998144	0.0011711498
112	0xbcf3a20d	-0.029740358
113	0x3c70617a	0.014671678
114	0xbc433367	-0.011914111
115	0xbc6bb993	-0.014387506
116	0xbb6b3d8f	-0.0035894846
117	0xbd238300	-0.039919853
118	0x3cb5a031	0.022171112
119	0xbd01e17e	-0.031709187
120	0x3d11260d	0.03543668
121	0xbd45ab69	-0.048259173
122	0xba18f5bc	-0.0005834957
123	0x3d8df9d4	0.069324166
124	0xbc6125cf	-0.013741924
125	0x3be2837b	0.0069126463
126	0xbdae671a	-0.08515759
127	0x3d816b6c	0.06319317
128	0xbca67998	-0.020321652
129	0xbd535b55	-0.051600773
130	0x3d9aa725	0.075514115
131	0xbdaa4a53	-0.083149575
132	0xbca2d957	-0.019879026
133	0xbbfa16b8	-0.007632103
134	0xba8b19fe	-0.0010612605
135	0x3cd285d7	0.025698585
136	0x3b05ab8d	0.0020396442
137	0x3cada30c	0.02119591
138	0xbbfa87e3	-0.0076455935
139	0x3c34f1d8	0.011043988
140	0xbc679b36	-0.014136126
141	0xbd639429	-0.05556122
142	0x3c496899	0.012293004
143	0xbcb09f25	-0.021560261
144	0x3d788b23	0.060679566
145	0x3d1a230e	0.037631087
146	0x3c87a16b	0.016556462
147	0xbd030d2d	-0.031994987
148	0x3d91fd3d	0.071283795
149	0xbd888410	-0.06665814
150	0x3d33d36d	0.043902803
151	0xbcbc4c61	-0.022985639
152	0xbd5c6fdc	-0.053817615
153	0xbcb1825a	-0.021668602
154	0x3d6d2845	0.057899732
155	0x3dae30ef	0.08505427
156	0x3d0a7714	0.033804968
157	0x3cf42e5b	0.02980726
158	0x3d060b31	0.032725517
159	0xbc5b0009	-0.013366708
160	0x3ceafd68	0.028685287
161	0xbda08750	-0.07838309
162	0xbc819c0e	-0.015821483
163	0xbd7e5852	-0.062095948
164	0xbd043b0e	-0.03228288
165	0x3d1e88b0	0.038704574
166	0xbc065e2b	-0.008201162
167	0x3cc9f6ea	0.02465387
168	0xbd5cecf3	-0.05393691
169	0x3d8648e2	0.0655687
170	0x3d08bc91	0.033382956
171	0xbd2ff82f	-0.042961296
172	0x3c936420	0.01799208
173	0x3c7253af	0.01479046
174	0x3c8f8b10	0.017522365
175	0xbcbe8769	-0.023257928
176	0x3ced9393	0.029001033
177	0x3d630374	0.055423215
178	0xbba3475a	-0.004982871
179	0xbd9a028d	-0.07520018
180	0x3d642171	0.055695955
181	0xbc59ab5c	-0.013285484
182	0xbcb50cb3	-0.022100782
183	0xbd5a350c	-0.053273246
184	0xbd612ed3	-0.054976296
185	0xbd9cdca9	-0.07659275
186	0x3cb00135	0.02148495
187	0xbd24d47d	-0.040241707
188	0x3d524551	0.051335637
189	0xbc5a89e1	-0.013338537
190	0x3b66b734	0.0035204412
191	0xbcea3196	-0.028588098
192	0x3c61e60e	0.0137877595
193	0x3dbe2f26	0.092863366
194	0x3dabe545	0.08393339
195	0x3dd09c74	0.10186091
196	0x3c2f492c	0.010698598
197	0xbd697ab7	-0.057001796
198	0xbd5c8bc9	-0.053844247
199	0xbd103c90	-0.035214007
200	0x3d0820f0	0.033234537
201	0xbda8d07a	-0.08242889
202	0xbdad496e	-0.08461271
203	0xbd4d41c2	-0.05011154
204	0x3c5cdf75	0.013481011
205	0x3ca1d5fa	0.019755352
206	0xbca395ef	-0.019968955
207	0xbd16e9d7	-0.0368441
208	0xbce8438f	-0.028352527
209	0x3d6b7ecc	0.05749397
210	0xbd6845b8	-0.056707114
211	0xbd93ddc4	-0.07220033
212	0xbac4e676	-0.0015022296
213	0x3da49331	0.08035887
214	0x3d12745e	0.035755508
215	0xbcd9b20d	-0.026574159
216	0x3d557270	0.05211109
217	0xbc121bc3	-0.008917752
218	0xbd42b9c6	-0.04754045
219	0x3d5bb7b6	0.053641997
220	0xbccb68da	-0.02483027
221	0xbc89fbeb	-0.016843757
222	0x3bc6b0b7	0.0060635465
223	0xbc5bcd98	-0.013415717
224	0x3d1e983e	0.03871941
225	0x3d6762a6	0.056490563
226	0x3be60097	0.0070191133
227	0x3d2bfb65	0.041987795
228	0x3d22d88e	0.039757304
229	0x3d0bd3ce	0.03413754
230	0xbd5f3856	-0.054497086
231	0x3d88766f	0.066632144
232	0x3d43d01e	0.047805898
233	0xbd512b8d	-0.051066924
234	0xbcc782a6	-0.02435429
235	0xbddb62c0	-0.107121944
236	0x3b93bba1	0.004508451
237	0xbd523fa0	-0.05133021
238	0x3d84769b	0.06467935
239	0x3d421969	0.047387514
240	0x3d9eafe5	0.07748393
241	0x3be9034f	0.00711099
242	0x3c6e6d97	0.014552495
243	0xbd110f52	-0.035415
244	0x3d547dd6	0.05187782
245	0x3d9c1946	0.07622008
246	0xbb2ef779	-0.0026697798
247	0xbd18e816	-0.03733071
248	0x3d9a8a47	0.075459056
249	0x3c432b9f	0.011912256
250	0xbd636cc3	-0.055523645
251	0x3c981e27	0.018569065
252	0x3d5c4e95	0.05378588
253	0xbc350fbb	-0.011051114
254	0x3c3abb7f	0.011397242
255	0x3d8942f2	0.06702222

fc2.bias f4 [300]
0	0x3d152135	0.03640862
1	0xbd5b1ddf	-0.053495284
2	0x3b450a3e	0.003006592
3	0x3d66a7ae	0.056312256
4	0x3cd8bda8	0.026457623
5	0x3ce9094e	0.02844682
6	0xbceb92b8	-0.028756484
7	0x3d6816fd	0.05666255
8	0x3d4b9930	0.049706638
9	0x3caaa994	0.020832814
10	0x3d1d35a6	0.03838124
11	0x3ce536b9	0.027980195
12	0xbce165a8	-0.027514294
13	0x3d2f334d	0.042773534
14	0xbd8693e7	-0.06571179
15	0x3b319d8b	0.002710196
16	0xbb022c8f	-0.0019862985
17	0xbd62e6f7	-0.055396046
18	0x3cae2524	0.021257944
19	0x3cb665e2	0.022265378
20	0x3c9f50a4	0.019447632
21	0x3d3a92d3	0.04555018
22	0xbc59af8d	-0.0132864835
23	0x3d3bb6e3	0.04582871
24	0x3c7f31bc	0.015575822
25	0x3c4aa322	0.012367995
26	0x3caff293	0.021477973
27	0xbd09a86d	-0.03360789
28	0x3d2fba89	0.042902503
29	0xbce69f8d	-0.028152252
30	0x3c18e897	0.0093327975
31	0xbce755ae	-0.028239097
32	0xbd8815cd	-0.06644783
33	0xbd8421b5	-0.064517416
34	0x3cf9224c	0.030411862
35	0x3d2ee676	0.042700253
36	0xbc50da1a	-0.012747312
37	0x3ce89ffb	0.028396597
38	0x3d502238	0.050813884
39	0xbc9e254b	-0.019304892
40	0xbd1624c8	-0.03665617
41	0xbd2a6f8c	-0.041610286
42	0x3c7721cb	0.01508374
43	0xbbd8b47b	-0.006613312
44	0xbd425598	-0.04744491
45	0xbd32c640	-0.043646097
46	0xbc695000	-0.014240265
47	0x3d1c95b0	0.03822869
48	0xbd4936f3	-0.04912467
49	0x3c88b878	0.016689524
50	0x3b0c63d6	0.0021421812
51	0x3cd02d75	0.0254123
52	0x3c549c32	0.012976693
53	0xbc2d784f	-0.010587766
54	0xbd862b00	-0.0655117
55	0xbcbd7195	-0.02312545
56	0xbca48640	-0.020083547
57	0xbcb5c98d	-0.022190833
58	0xbce30084	-0.027710207
59	0x3d018b94	0.031627253
60	0x3d0a75ae	0.033803634
61	0xbcc885fc	-0.024477951
62	0x3c6c8269	0.014435389
63	0xbd6f5a41	-0.058435682
64	0x3d093ea4	0.033507004
65	0x3c646ed2	0.013942437
66	0x3be951c5	0.0071203434
67	0x3cd7148e	0.026254918
68	0x3caba272	0.020951483
69	0x3d07236d	0.03299277
70	0xbc25ea12	-0.0101266075
71	0xbd344e3d	-0.044019926
72	0xbcf66ba0	-0.030080616
73	0xbd2f32b8	-0.04277298
74	0xbc957023	-0.018241948
75	0xbc0654f8	-0.008198969
76	0x3d467a9d	0.048456777
77	0x3d323ffc	0.04351805
78	0xbcb54f4e	-0.022132542
79	0xbb005288	-0.0019580442
80	0x3d649007	0.055801418
81	0xbd340516	-0.043950163
82	0x3d0ae7d0	0.03391248
83	0x3d613e41	0.05499101
84	0x3cb88519	0.022524403
85	0x3c069dc3	0.008216324
86	0xbd63015b	-0.055421215
87	0x3d0ada89	0.033899818
88	0x3d158d8f	0.036511954
89	0xbc862e60	-0.016379535
90	0x3d3cf81d	0.046135057
91	0xbd091485	-0.033466835
92	0x3d25cc5b	0.04047809
93	0xbd6a227c	-0.057161793
94	0xbd08de54	-0.033415154
95	0xbc142e45	-0.009044235
96	0x3c87da53	0.016583597
97	0xbd60f994	-0.054925516
98	0xbd662bf3	-0.056194257
99	0x3a596ba2	0.00082939316
100	0x3cacd607	0.02109815
101	0xbc212bb3	-0.009837079
102	0x3b9c6bb3	0.004773581
103	0xbba887d6	-0.005143146
104	0x3be6d4d2	0.007044413
105	0x3d146e09	0.03623775
106	0x3cd5d275	0.02610133
107	0x3d788673	0.060675096
108	0xbcca6e30	-0.024710745
109	0xbd4a50ee	-0.049393587
110	0x3bcd38c4	0.0062628705
111	0x3d1e73b6	0.03868457
112	0x3d106cc4	0.035259977
113	0x3bf3dbdb	0.0074419803
114	0xbc524bfa	-0.012835497
115	0xbd42341a	-0.04741297
116	0xbd47da61	-0.048792247
117	0xbcbcd053	-0.023048555
118	0xba947abb	-0.001132808
119	0x3b9e0a31	0.0048229923
120	0xbcdb4bc9	-0.026769536
121	0xbc971691	-0.018443378
122	0xbc899a52	-0.016797218
123	0xbc5ed563	-0.01360068
124	0x3d6e4ae4	0.05817689
125	0xbd1ad34e	-0.037799172
126	0xbb0b9a81	-0.0021301808
127	0x3cd091b6	0.025460105
128	0x3cb7b076	0.02242301
129	0xbd206cee	-0.039166383
130	0xbc9a5788	-0.018840566
131	0x3cd724e2	0.026262704
132	0x3c5652b1	0.013081239
133	0x3d1177f4	0.035514787
134	0xbd127d73	-0.03576417
135	0x3c66ab4a	0.014078924
136	0x3d32c4bc	0.04364465
137	0xbcf22869	-0.029560285
138	0x3c197a92	0.009367602
139	0x3d0138f8	0.03154847
140	0x3d09d545	0.033650655
141	0xbc818b12	-0.015813384
142	0xbcabc2f8	-0.020966992
143	0xbb817e7e	-0.0039518466
144	0xbd6db647	-0.05803516
145	0x3c0a74ce	0.0084507
146	0x3c6c5e77	0.014426819
147	0xbd3820eb	-0.044953268
148	0x3d62c31e	0.05536186
149	0xbd363a38	-0.044489115
150	0xbca6f2c2	-0.020379428
151	0x3d3aee3c	0.045637354
152	0x3d6f142a	0.05836884
153	0x3d2ac81f	0.041694757
154	0xbcdd43ce	-0.02700987
155	0x3d06a56a	0.032872595
156	0xbd68622b	-0.056734245
157	0xbd0ce823	-0.03440107
158	0xbd15990c	-0.03652291
159	0x3cdf522a	0.027260859
160	0x3a0a0140	0.00052644685
161	0xbc2454a3	-0.010029945
162	0x3d0f6c9f	0.0350157
163	0x3b1a0170	0.0023499392
164	0xbd1f9106	-0.038956665
165	0xbce7388f	-0.028225211
166	0x3d49b1d9	0.049241874
167	0xbc3f505d	-0.011676875
168	0x3b01a2c5	0.0019780856
169	0x3d43b7db	0.04778276
170	0x3d26564d	0.040609647
171	0xbd6705e6	-0.05640211
172	0x3c7b55ac	0.01534025
173	0x3c023a16	0.007948419
174	0x3d65e37d	0.056125153
175	0xbd0f02bc	-0.034914717
176	0xbd15407b	-0.036438446
177	0xbd4f4d03	-0.050610553
178	0x3d5a97f1	0.05336756
179	0xbc1ce651	-0.009576396
180	0xbbe69458	-0.007036727
181	0x3ce37f7a	0.027770746
182	0xbc6dceec	-0.014514666
183	0x3cbd4c88	0.023107782
184	0xbc68ebd4	-0.014216382
185	0xbd25043e	-0.04028725
186	0xbd092d2b	-0.03349034
187	0x3d0b6c71	0.034038965
188	0xbc46d362	-0.0121353585
189	0xbcdb6855	-0.026783148
190	0x3b87ecfe	0.0041481247
191	0x3cd645a4	0.026156254
192	0xbc015f5c	-0.007896271
193	0x3d3372eb	0.043810766
194	0x3935825f	0.00017310072
195	0xbd0ab629	-0.033865128
196	0xbd27c08f	-0.040955123
197	0xba7cac47	-0.00096387084
198	0x3b41f24a	0.0029593878
199	0xbcd19e1b	-0.025588086
200	0xbc70b817	-0.014692328
201	0x3cb4be6a	0.022063453
202	0x3d367ffe	0.044555657
203	0xbcac5cf4	-0.021040417
204	0xbd1a2a2e	-0.037637882
205	0xbc03a754	-0.0080355
206	0xbc10c80e	-0.008836759
207	0xbc16b48e	-0.009198321
208	0x3d64cc99	0.055859182
209	0x3c1854da	0.009297574
210	0xbb4cce13	-0.003125076
211	0x3c35e0a7	0.011100925
212	0xbd1856f7	-0.03719231
213	0xbd38aaa9	-0.04508463
214	0x3c6db2d3	0.014507967
215	0x3cf983f0	0.03045842
216	0x3d386d18	0.045025915
217	0xbc8f9bd8	-0.017530367
218	0x3d35a1ad	0.04434364
219	0x3bdf921b	0.006822837
220	0x3d4b4614	0.04962738
221	0x3d492ed4	0.049116924
222	0xbce1b90e	-0.027554061
223	0x3d32fa66	0.04369583
224	0xbd43df79	-0.047820542
225	0xbd19d11a	-0.03755293
226	0x3c948da9	0.018133955
227	0x38595a18	5.1820738e-05
228	0xbc4a2453	-0.012337762
229	0xbc0beca9	-0.008540311
230	0xbb34a505	-0.002756418
231	0xbb9e4fb8	-0.0048312806
232	0x3d362026	0.044464253
233	0x3ce08a8a	0.02740981
234	0x3c51f904	0.012815718
235	0xbc5d0cb2	-0.013491796
236	0xbc57455d	-0.013139096
237	0xbca665d7	-0.020312233
238	0xbd5a5089	-0.05329946
239	0x3d3f1ef5	0.046660382
240	0xbd12feaa	-0.035887398
241	0x3d474864	0.04865302
242	0x3c09a9f3	0.008402335
243	0x3af84e43	0.0018944222
244	0x3c7c9e3f	0.015418588
245	0xbd659d21	-0.056058053
246	0x3c99577c	0.018718474
247	0xbd4e11d2	-0.050309964
248	0x3d0fd0a7	0.035111096
249	0x3c82ac94	0.015951432
250	0xbd1d5489	-0.038410697
251	0x3c1f3046	0.009716099
252	0xbcc29912	-0.02375463
253	0xbd59e982	-0.053201206
254	0x3c856b9d	0.016286666
255	0x3cd52bf3	0.026021933

fc3.weight f4 [5, 300]
0	0x3d4e362e	0.05034464
1	0xbc5aaaab	-0.0133463545
2	0xbd874430	-0.066048026
3	0xbd372c47	-0.04471996
4	0xbcd0a1aa	-0.025467712
5	0xbd8eb1c8	-0.06967503
6	0x3ba41420	0.005007282
7	0xbbb465ad	-0.0055052848
8	0xbd50f193	-0.051011633
9	0x3d3e4a67	0.046457674
10	0x3cb0012b	0.021484932
11	0xbd226128	-0.039643437
12	0x3ca19d19	0.01972823
13	0x3d0be6b3	0.03415556
14	0x3d925314	0.07144752
15	0xbd8add31	-0.0678047
16	0xbd54729a	-0.051867105
17	0xbc8e2f98	-0.017356679
18	0x3c38bb8c	0.011275183
19	0xbd0dd5e3	-0.034627806
20	0x3d722546	0.059117578
21	0xbd7b22f6	-0.06131264
22	0xbd7e2828	-0.062050015
23	0x3d843e1d	0.0645716
24	0xbd1a2d2e	-0.037640743
25	0x3c5d38b1	0.013502286
26	0x3c3745c2	0.011186065
27	0x3d83d701	0.06437493
28	0xbd480779	-0.04883525
29	0x3d5c7266	0.053820036
30	0x3d112fe5	0.035446066
31	0x3d1ac47a	0.03778503
32	0xbc19a12a	-0.009376803
33	0x3a1e998c	0.0006050102
34	0x3b9b61c8	0.004741881
35	0xbd4104b4	-0.047123626
36	0xbba3d36b	-0.004999568
37	0x3d251c0a	0.040309943
38	0x3ca9f674	0.0207474
39	0x3cfa3c4d	0.030546332
40	0xbc9d4608	-0.019198433
41	0xba437551	-0.0007456141
42	0xbd34e6ca	-0.04416541
43	0x3d8ee8da	0.06978007
44	0x3d22a4ee	0.03970807
45	0xbc87247b	-0.016496887
46	0xbd92e7e6	-0.07173137
47	0xbcf8e5fb	-0.0303831
48	0x3cf9f06e	0.030510154
49	0x3d13a5a9	0.036046658
50	0x3d29c848	0.04145077
51	0xbd42dc10	-0.04757315
52	0xbc673645	-0.01411206
53	0x3d4f75dc	0.05064951
54	0x3cf9e447	0.030504359
55	0xbbd33e16	-0.00644661
56	0xbc825752	-0.015910778
57	0xbc53d13a	-0.0129283015
58	0x3c240a16	0.01001217
59	0xbcfe9abc	-0.031079642
60	0x3d6dc841	0.058052305
61	0x3db230de	0.08700727
62	0xbc417f33	-0.011810112
63	0xbd031d8d	-0.032010604
64	0xbbfb0ca6	-0.00766142
65	0x3ce09d8b	0.027418872
66	0x3d559cf8	0.05215165
67	0x3d87a521	0.06623293
68	0xbd758207	-0.059938457
69	0x3d8bb006	0.06820683
70	0x3d2859a9	0.04110113
71	0xbd7a9d90	-0.06118542
72	0xbd957c33	-0.0729908
73	0x3c3eda73	0.011648762
74	0x3d0100fe	0.031495087
75	0xbc5cf99b	-0.013487245
76	0xbd70f249	-0.05882481
77	0x3d1c6a60	0.038187385
78	0xbd8fa7af	-0.07014405
79	0x3d09b9b2	0.03362436
80	0xbd617811	-0.055046145
81	0x3ce01b9d	0.027356917
82	0x3da622da	0.08112116
83	0xbb9b2878	-0.004735049
84	0xbcce5cb7	-0.025190694
85	0xbd78deb8	-0.060759276
86	0xbbf39c0a	-0.007434373
87	0xbd2ceb08	-0.04221633
88	0x3d790173	0.060792398
89	0x3c1a8947	0.0094321435
90	0x3cefc27b	0.02926754
91	0xbd28828d	-0.041140128
92	0xbc01e200	-0.007927418
93	0x3d7f05b9	0.062261317
94	0x3da7671b	0.08173963
95	0x3d15c115	0.03656109
96	0x3c53a444	0.012917582
97	0xbb89ea59	-0.0042088446
98	0xbd48d2c9	-0.049029145
99	0x3c50dee2	0.012748452
100	0x3da03ebe	0.07824467
101	0x3711a1d0	8.680348e-06
102	0xbd824c1d	-0.06362174
103	0xbbeb31fb	-0.007177589
104	0x3b9e688c	0.0048342403
105	0x3ccf0ddf	0.025275169
106	0xbb90d239	-0.0044195917
107	0x3b8cfede	0.0043028435
108	0xbd40960a	-0.04701809
109	0xbd53db70	-0.051722944
110	0xbd8bdfc9	-0.06829793
111	0x3cb149c1	0.021641614
112	0x3cbc3d78	0.02297853
113	0x3d978bea	0.07399733
114	0xbd4a0849	-0.049324308
115	0x3d0f26cf	0.03494912
116	0xbab9e13f	-0.0014181508
117	0x3d3329b9	0.04374096
118	0xbd49428a	-0.049135722
119	0x3d06554c	0.03279619
120	0x3ce560ee	0.028000321
121	0x3d9ebd70	0.07750976
122	0xbd6ca41f	-0.057773706
123	0xbd647099	-0.055771444
124	0x3da50ee0	0.08059478
125	0x3c0c399e	0.008558659
126	0x3cf78580	0.030215025
127	0x3d507bca	0.050899304
128	0x3d3a960f	0.045553263
129	0x3d5d5810	0.05403906
130	0x3c36c939	0.011156374
131	0xbd1d9b4e	-0.03847819
132	0x3d87f198	0.06637877
133	0xbcb96ac2	-0.022633914
134	0x3c3aa9a4	0.011392985
135	0xbd8d81d5	-0.06909529
136	0xbd28736f	-0.04112571
137	0x3cbdbf3d	0.023162479
138	0xbced6a85	-0.028981457
139	0x3d399ddb	0.04531656
140	0xbd908de6	-0.07058315
141	0x3cb1ffcc	0.021728419
142	0xbcbeba19	-0.023282098
143	0x3d662021	0.056182984
144	0x3d3a85c3	0.04553772
145	0xbcb04129	-0.021515446
146	0x3d54c8d2	0.05194933
147	0x3c9dc344	0.019258149
148	0xbc85e52b	-0.016344627
149	0x3cb18f57	0.021674795
150	0x3d695cc3	0.05697323
151	0x3ca3de98	0.020003602
152	0x3cad2aa0	0.02113849
153	0x3d9b7198	0.07590026
154	0x3c5896eb	0.013219575
155	0x3d2676a5	0.040640492
156	0xbc2da67c	-0.010598775
157	0x3ca071b7	0.019585473
158	0x3d8415fa	0.06449504
159	0xbd8a3820	-0.06748986
160	0xbd169ad5	-0.036768753
161	0xbccbe082	-0.024887327
162	0xbd1236d6	-0.035696827
163	0x3d79e77f	0.061011788
164	0x3c9cff11	0.019164594
165	0xbd8f9f17	-0.07012766
166	0xbd8c45ff	-0.06849288
167	0x3d2d5911	0.04232127
168	0xbd5a6d8f	-0.05332714
169	0xbce64383	-0.028108364
170	0xbd7ce868	-0.061745077
171	0x3d1b2bd2	0.037883587
172	0xbce0f93d	-0.027462596
173	0xbd44a890	-0.048012316
174	0xbabba057	-0.0014314753
175	0xbc61bd5f	-0.01377806
176	0x3d6b43ea	0.057437815
177	0x3c27306c	0.010204416
178	0x3d44488e	0.047920756
179	0xbd2b7611	-0.041860644
180	0x3c5a5c69	0.013327696
181	0xbd21bd02	-0.039486893
182	0x3d9686e5	0.07349948
183	0x3d670176	0.056397878
184	0xbd12d778	-0.03585002
185	0x3d9077db	0.070541106
186	0xbcff91ba	-0.031197418
187	0xbd14a44d	-0.036289502
188	0x3a9cd95d	0.0011966635
189	0xbd1b4b59	-0.037913654
190	0x3b7a77e7	0.003821844
191	0x3d0004fa	0.031254746
192	0xbd457491	-0.04820687
193	0xbcddbd19	-0.027067708
194	0x3c53b2ff	0.012921094
195	0xbb5e4885	-0.0033917737
196	0xbd995e41	-0.07488681
197	0xbc654f7e	-0.013996003
198	0x3d1e3b3b	0.038630705
199	0xbd63ca54	-0.055612877
200	0xbd5ccf53	-0.053908657
201	0xbd4b07b9	-0.04956791
202	0x3c5d8ab8	0.013521843
203	0x3cfd126f	0.030892579
204	0xbc1830f3	-0.009289014
205	0x3c714eba	0.0147282425
206	0x3cd3f9cc	0.025875948
207	0xbd33ed0b	-0.043927234
208	0xbd97c7bd	-0.07411144
209	0x3d32ca4e	0.043649964
210	0xbd9bd50b	-0.07608994
211	0xbd02b32f	-0.031909164
212	0x3d8d8baa	0.069114044
213	0xbd8fb4a8	-0.07016879
214	0xbd80ae5b	-0.06283256
215	0x3cede2ac	0.02903875
216	0xbd9eee15	-0.07760254
217	0xbbe9cb7f	-0.0071348543
218	0x3d5f56d2	0.054526158
219	0xba771353	-0.0009425182
220	0xbd7ef70f	-0.062247332
221	0x3c3af469	0.011410811
222	0x3c2bc390	0.010483637
223	0xbd1b039a	-0.03784523
224	0xbc1bda83	-0.0095125465
225	0xbceb0da0	-0.02869302
226	0xbd28a099	-0.041168783
227	0xbd8742c1	-0.06604529
228	0xbd833fa1	-0.064086206
229	0xbb95bd66	-0.004569697
230	0x3c1dcf87	0.009631998
231	0xbbb5b956	-0.0055457754
232	0xbd058558	-0.03259787
233	0x3d729fa4	0.059234276
234	0xbd23d5d3	-0.03999884
235	0xbd1142ab	-0.03546397
236	0xbd8cce6f	-0.068753116
237	0x3c67580a	0.014120111
238	0xbd07fec9	-0.033201966
239	0xbd387302	-0.045031555
240	0x3cc12e5e	0.02358168
241	0xbc01c62a	-0.007920781
242	0xbd64b380	-0.055835247
243	0xbd36e097	-0.04464778
244	0x3d7e3afa	0.062067963
245	0x3d67cdc8	0.056592733
246	0x3d2d75a0	0.042348504
247	0xbd3ff379	-0.046863053
248	0xbd6c935c	-0.05775772
249	0x3bbc82a6	0.005752879
250	0x3d60f773	0.054923486
251	0xbc1bc935	-0.009508421
252	0xbd29ff6c	-0.041503355
253	0x3cab7c82	0.020933393
254	0xbd809888	-0.06279093
255	0x3d0beb53	0.03415997

fc3.bias f4 [5]
0	0x3d167f22	0.036742337
1	0xbd1f3a02	-0.03887368
2	0x3cfb0add	0.030644828
3	0xbad7ea3e	-0.0016473008
4	0x3d27bb21	0.040949944
