model_weights/taxi_weights/model_taxi_MSE.pt (torch, 395022 bytes, 6 tensors)

fc1.weight f4 [300, 20]
000000 e3 58 8f 3e 3a 0a 8a 3e e2 c1 87 3e 36 2e b8 bc
       0.27997503 0.26960927 0.26515108 -0.022482973
000010 ec 33 17 3d 0a cf 05 3e 55 8b 20 3e 23 db 08 be
       0.03691475 0.1306726 0.15678151 -0.13364844
000020 fd 4a 48 3e 90 ce e8 3d dd b4 5f be d3 f4 37 3c
       0.19559856 0.11367524 -0.21846338 0.011227804
000030 df 12 0c 3d c0 0e 67 be af 1c 1c 3e 6a 25 3c be
       0.034197684 -0.2256422 0.15245317 -0.18373647
000040 45 9d 45 bd cf 8c 6a bd d1 5f 8e 3d e0 b3 6b 3e
       -0.048245687 -0.05726319 0.06951869 0.23017836
000050 35 63 e4 bb 6b 4b 73 be c4 10 0a be de 3e aa b9
       -0.006969834 -0.23759238 -0.13482958 -0.00032471766
000060 67 98 1b 3e cc cb b2 bd 67 7f 4f 3e 6d 9e 2f 3d
       0.15194856 -0.087302774 0.20263444 0.042875696
000070 a2 13 4c 3e 62 0a ba bd 8d 63 30 be 3f 65 cb bc
       0.19929364 -0.090840116 -0.17225476 -0.024828551
000080 c1 67 5d bd 31 46 35 3e 40 7e 94 bb d7 5e 03 3e
       -0.054054026 0.17702557 -0.0045316517 0.12829147
000090 8f e2 0b be 73 42 7a be 59 bd 41 be 63 62 c3 be
       -0.13660644 -0.24439411 -0.18919887 -0.38161
0000a0 44 b1 93 3e b7 6f 56 3e 4a 70 13 3e 2e 98 72 3e
       0.2884618 0.20941053 0.14398304 0.23690864
0000b0 a2 97 6c 3e b8 e7 ed 3d b3 63 63 be e7 5c 80 3d
       0.23104718 0.116164625 -0.22206001 0.0626772
0000c0 3f f6 62 3b 07 84 ee 3d f7 47 ff 3c d6 17 b6 bd
       0.0034631637 0.11646276 0.031162245 -0.08891265
0000d0 38 cd 1d be 77 68 5f be a1 80 24 3e 41 c4 9f be
       -0.15410316 -0.21817194 0.16064693 -0.31204417
0000e0 34 3b b5 be 85 04 b6 be 4f 2b 89 bd c3 8f 7d 3d
       -0.3539673 -0.35550323 -0.066977136 0.06190468
0000f0 11 b7 23 3e 5c cd 21 be d5 43 35 3d 87 52 8f 3e
       0.15987803 -0.15800995 0.044254143 0.2799265
000100 37 32 40 3e 9f 59 3d 3e 0d 50 73 3e b8 f2 3b 3e
       0.18769155 0.18491219 0.23761006 0.18354309
000110 29 77 b4 3d 8f a2 60 3d a2 7c 81 bc 0e 3d 51 3e
       0.088117905 0.054842528 -0.0158065 0.20433447
000120 e8 c8 98 3d 73 d9 e8 3d 2b f7 4c be 2f be 45 be
       0.07460195 0.113696 -0.20016162 -0.1931083
000130 0a c2 84 be c1 78 b5 3d 6f 28 30 bd 4d c4 48 be
       -0.2592929 0.088609226 -0.04300731 -0.19606133
000140 75 d6 b6 bd 59 61 63 bd 13 a4 41 be af f1 3c be
       -0.08927623 -0.05551276 -0.18910246 -0.1845157
000150 ff 46 cf bd d2 34 0a 3d ef d4 36 3e 0f 2f 33 bd
       -0.10120963 0.03374178 0.17854665 -0.04374605
000160 51 00 01 be 78 c6 6d be a7 4b 3e 3e c9 74 a5 bd
       -0.12597777 -0.23220241 0.18583547 -0.080789156
000170 01 d3 34 3e 2d 54 47 bd 8e 0e b5 3d b6 10 1b bd
       0.17658617 -0.04866426 0.08840667 -0.037857734
000180 13 19 b1 bd 77 00 10 be 70 db f7 bd 42 16 86 3d
       -0.08647361 -0.14062677 -0.12102401 0.06547214
000190 c1 0c 5b 3e d0 e8 49 3e ce fc 2a 3e ae 87 b1 3c
       0.21391584 0.19717717 0.16698 0.021671142
0001a0 ea c7 9e 3a 81 2b 7d be 09 44 17 3e 1b be 26 bd
       0.0012114022 -0.24723627 0.14772047 -0.040708642
0001b0 84 8a d4 bd f2 99 57 3e 32 fc 64 be d6 90 88 3d
       -0.10377982 0.21054819 -0.2236183 0.0666825
0001c0 60 54 5f be 72 b7 a4 3d 34 d8 96 bc db 2c 9e bd
       -0.2180953 0.08042802 -0.01841364 -0.07723399
0001d0 ee 64 95 be ef 19 73 be 1b 30 a6 bd 2c ad b5 3d
       -0.29178566 -0.23740362 -0.08114644 0.088709205
0001e0 80 e2 3f be 83 3b 65 be 15 89 0d 3e 46 1b 01 be
       -0.18738747 -0.22385983 0.13821824 -0.1260806
0001f0 a1 f0 55 be b1 0a 33 3d 13 7f 5d 3d bc 3f e5 3d
       -0.20892574 0.043711368 0.054076266 0.11193797
000200 da 93 67 3c 05 6d f0 3a 41 7b 72 bc 21 b5 60 bd
       0.014134372 0.0018343037 -0.014799894 -0.054860238
000210 5a 32 de bd 86 5e 27 3d 20 ea 3e bd b0 da 89 3e
       -0.108494475 0.04086163 -0.046609998 0.26924658
000220 7b 04 99 3e c2 89 4a 3e 4c 0f 0b be 1f c9 7f be
       0.2988623 0.19779113 -0.13580054 -0.24979065
000230 d9 42 ce 3d f9 75 14 3e 62 8f 14 3e 89 71 f6 3d
       0.10071344 0.14498128 0.14507821 0.12033374
000240 0a 7e 48 3a d7 6f bf bc c6 50 21 be 23 3c c2 bd
       0.0007648176 -0.02336876 -0.15753469 -0.094841264
000250 05 f8 2d 3e 59 b2 4d 3d 24 f4 75 3d a2 de 23 be
       0.16989143 0.050218914 0.060047284 -0.16002896
000260 97 59 4b 3e d2 1a 96 3d fe 68 3c be f6 0e 00 3e
       0.19858395 0.07329334 -0.18399426 0.12505707
000270 7f 09 75 bc b7 c7 4d be 2f 4c d9 bd 14 5c a8 3e
       -0.014955877 -0.20095716 -0.10610234 0.3288275
000280 bf 81 2a 3e 67 a4 39 3e 4e 06 fd 3d 33 8e 9d bd
       0.16651057 0.18129121 0.12354718 -0.07693138
000290 c2 97 71 3d 52 b5 25 be d2 f8 de bd d8 09 1d be
       0.05898262 -0.1618245 -0.108873025 -0.15335786
0002a0 31 d4 f2 3c 60 47 88 3e ff e2 cf bd f7 eb 01 be
       0.029642196 0.26616955 -0.10150718 -0.1268767
0002b0 ba b1 29 bd 8d c1 23 be 53 43 0e be d6 5e 2a 3e
       -0.04142926 -0.15991803 -0.1389287 0.1663774
0002c0 6a e4 6c bd a5 a0 47 3e fb d8 1b 3d d0 23 56 3e
       -0.05783502 0.19494875 0.038048726 0.20912099
0002d0 23 a5 9b be b7 47 24 be 4e 69 ec bd 63 be 85 3e
       -0.30399427 -0.16042982 -0.11543523 0.26121816
0002e0 7a fb 85 3e 0b 5c 8d 3e e4 16 51 3e 35 27 0e 3e
       0.26168424 0.27609286 0.20418888 0.13882144
0002f0 f3 ca 22 3e 7b 44 0d 3d c4 0d 33 3d 3f a1 85 3b
       0.15897731 0.034489136 0.0437143 0.00407806
000300 83 65 48 be 3d dd 24 be 73 60 e1 bd 05 a5 7a be
       -0.19569974 -0.1610002 -0.11004724 -0.24477012
000310 c7 1b 06 be 77 cf 0a be 89 e7 07 bd b7 4e 6a be
       -0.13096534 -0.13555704 -0.033179794 -0.2288159
000320 d5 25 0a 3e e4 cb ec bc 6e 89 35 3e d9 86 28 3d
       0.13490994 -0.028905816 0.17728207 0.041144226
000330 61 3a 37 be f3 ba 41 3c a2 68 23 3e 2c d3 d2 bd
       -0.17893364 0.011824357 0.15957883 -0.10294184
000340 4c 28 9a 3d da e0 15 be fc f4 e5 bd bd f6 3e bd
       0.07527217 -0.14636555 -0.11228368 -0.046622027
000350 8b b4 4b 3e 80 f1 4e be 06 5e 65 3c 36 29 29 be
       0.1989309 -0.20209312 0.013999468 -0.16519627
000360 cb eb fe 3d 61 b5 88 3d cd e3 85 3e 4d f3 0f bb
       0.12447318 0.0667522 0.2615036 -0.0021965087
000370 cb bf 7e 3e 65 b4 68 3e d7 d2 ba b8 3f 67 34 3a
       0.2487785 0.22725065 -8.908443e-05 0.000688184
000380 0f 70 2f 3e 9b f1 68 be e4 dd 16 3e f6 b9 84 3d
       0.1713259 -0.22748415 0.14733082 0.06480782
000390 95 76 2d bd e4 e1 05 be e3 c9 47 bd 8c b7 47 3e
       -0.042349417 -0.13074452 -0.04877652 0.19503611
0003a0 47 82 c3 3d 69 72 10 be 38 d0 6d bc c6 88 e5 3d
       0.09546333 -0.14106144 -0.014514975 0.11207728
0003b0 3c 3c 17 be 8b 6c 64 3d 74 4b b1 3d 11 e2 b8 3e
       -0.14769071 0.055767577 0.0865697 0.36109975
0003c0 4e 2e 18 3e d5 23 7c 3e 49 35 17 3e 3e eb 24 be
       0.14861414 0.24623044 0.1476642 -0.16105363
0003d0 c7 a4 fe bd 51 91 44 bd 53 d3 45 3e ff 5e 83 bd
       -0.124337725 -0.047990147 0.19318895 -0.064146034
0003e0 9b 10 21 3e 3a 9e 6c bd b2 d6 53 bd d3 47 e4 3d
       0.1572899 -0.057768084 -0.05171842 0.11146512
0003f0 f5 ce f8 bd 59 04 05 be 16 a4 f6 3d 7b 32 2d 3e
       -0.12148849 -0.1298994 0.12043016 0.16913788

fc1.bias f4 [300]
000000 f1 7a 9c 3d a2 0e fc 3d 53 f6 83 3d c2 fa 6b 3e
       0.07640637 0.123074785 0.06443467 0.23044875
000010 d3 db 64 be 1f e6 36 3e 5c 0f 27 3e 95 85 04 3e
       -0.22349481 0.17861222 0.16314453 0.12941583
000020 ee 97 23 be d3 72 97 3e 83 68 3b 3e 6a 14 69 bc
       -0.15975925 0.2957979 0.18301587 -0.0142260585
000030 4f 5a 9c bd ba f8 85 3d 42 fd 0d 3e ec 3e a5 3d
       -0.076344125 0.065415815 0.13866141 0.08068642
000040 17 86 80 bc ec 45 ae 3d d0 e9 bc bd cb 7e eb 3c
       -0.015688939 0.0850943 -0.09224284 0.028746983
000050 35 70 4a 3e c9 8e 30 be 44 1d 8a be 48 69 58 bd
       0.19769366 -0.17241968 -0.26975453 -0.05283478
000060 be 0d cb bd 3f 3f a8 ba 01 42 82 be 8c 0a 8b 3d
       -0.099147305 -0.0012836232 -0.25440982 0.06789121
000070 83 04 e2 3d 96 2e 2e bd 14 7a 50 be 72 44 5e be
       0.11036017 -0.042524897 -0.20359069 -0.21705797
000080 04 fd 1d 3d 5f 56 e9 3d f0 5c 24 3d 1a 36 86 bd
       0.038571373 0.11393427 0.040127695 -0.06553288
000090 58 0e 5d 3e 79 8c 4c 3c ce 87 fa 3d 73 61 7c 3d
       0.21587503 0.012484663 0.12232934 0.061616372
0000a0 62 e4 14 be e5 d8 3c 3e 1e f1 51 3d 91 1c 12 3e
       -0.14540246 0.18442114 0.051255338 0.1426871
0000b0 98 00 e6 3c d4 64 4c 3d d5 3f ae 3d a6 c9 38 be
       0.028076455 0.049900845 0.08508269 -0.18045673
0000c0 af 01 29 3e e7 91 3a be 42 a8 a6 bd 5e a3 52 3d
       0.16504548 -0.1821972 -0.081375614 0.05142533
0000d0 97 2c 2b 3e 8e 63 38 bb cf 77 e7 3d 37 49 aa 3d
       0.16716228 -0.002813551 0.113021486 0.08314746
0000e0 60 e2 93 be 60 4c b2 3d 42 86 22 3e b0 b4 81 3d
       -0.28883648 0.087059736 0.15871528 0.063332915
0000f0 5a 18 56 be 5b 06 e1 bc ce dc d3 3d 09 66 d3 3d
       -0.20907727 -0.02746885 0.103448495 0.10322196
000100 a0 23 8b 3d 73 35 15 be a7 58 05 3e c9 e9 28 bd
       0.06793904 -0.1457117 0.130221 -0.04123858
000110 78 d9 e7 bc 97 21 0a 3c 5d 6c 3a 3e b3 f0 21 be
       -0.02830194 0.00843086 0.182054 -0.15814476
000120 da 27 a5 bd 7f 42 65 bd 18 7f 88 3c 0e 67 a4 bd
       -0.08064242 -0.05597162 0.016662166 -0.080274686
000130 55 7f 24 3e 61 1e 37 3e 5f 00 49 3e 7e d0 ef bb
       0.16064198 0.17882682 0.19629048 -0.0073185554
000140 86 8e 77 3e 93 4b 54 3e 5a 83 13 3e e2 d1 67 be
       0.24175462 0.20731954 0.14405575 -0.22638658
000150 3c a9 fc bb 41 31 9f 3d e5 97 a1 bd c4 31 ab 3c
       -0.007710604 0.07773066 -0.078903 0.020897754
000160 30 09 02 3e 8a ba 20 be 13 df d8 ba 75 91 00 bd
       0.12698817 -0.15696159 -0.0016545973 -0.03138872
000170 2d 32 16 3e 74 b6 59 3b 36 38 f5 3d 0a cc dd bc
       0.14667578 0.0033220323 0.11973612 -0.027074832
000180 58 96 bd 3d ba 74 3d 3e 5b 20 a9 3d 82 54 07 3d
       0.092571914 0.18501559 0.082581244 0.033039577
000190 bc 28 64 3e ec cf f9 bd 93 79 e8 3d 13 a7 d7 3c
       0.22281164 -0.12197861 0.113513134 0.026324784
0001a0 20 ac 40 bb f6 23 50 3e 2a c7 52 3e 3c dc 2b be
       -0.002939947 0.20326218 0.20583788 -0.16783231
0001b0 cc 85 0a 3d ad 4a 51 be 76 44 bd 3d 07 22 a6 bd
       0.033819005 -0.20438643 0.092415735 -0.08111959
0001c0 d3 3d cc bc 26 42 57 3e c3 f4 aa bb 15 21 b1 bd
       -0.024931824 0.21021327 -0.005217166 -0.08648888
0001d0 8f c1 37 3e e3 d7 27 3e 02 89 d9 3d 26 89 a5 3d
       0.1794493 0.16390948 0.10621835 0.080827996
0001e0 e1 45 08 bc 65 5e ae 3d a6 53 50 bd 16 3c 6b 3e
       -0.008317442 0.08514098 -0.050861023 0.2297214
0001f0 b5 84 c7 bd 01 78 91 3d 28 42 2f bd 78 b9 10 3e
       -0.09742109 0.07102967 -0.0427877 0.1413325
000200 69 90 55 3e 90 7d 1e 3d ad cd b1 3d 75 d5 49 be
       0.2085587 0.038693964 0.08681808 -0.19710334
000210 95 ab 39 be 60 7d 06 3e 20 7a be 3c 95 93 88 be
       -0.1813186 0.13133764 0.023251593 -0.26675096
000220 f2 37 c7 3d c3 6b 45 3e ce 0a 49 bd b4 02 c8 3d
       0.097274676 0.19279389 -0.04908257 0.097661406
000230 39 ad c3 bd 2a 26 15 3e d0 d0 c2 bb 01 e6 67 bd
       -0.09554524 0.1456534 -0.0059453025 -0.056615833
000240 f2 6d 09 3e a2 24 e6 3d 80 56 cc 3c fa 0e 9c bd
       0.13420847 0.11237456 0.02494359 -0.07620044
000250 0e 67 8b 3e 5b cf 33 3d b4 c4 a3 bd 45 11 38 3e
       0.27227062 0.04389892 -0.079965025 0.17975338
000260 27 0c 21 3e 7e ff 0e 3e 30 be a6 bd 7a 69 a7 3d
       0.15727292 0.1396465 -0.08141744 0.08174415
000270 30 77 a9 3d c3 95 ff bd 42 15 be bd cc 6b 7e 3e
       0.08274686 -0.12479737 -0.09281398 0.24845809
000280 ed 3c 72 be de 0e 39 3b 03 46 83 3d d5 5d 70 bd
       -0.23656054 0.0028237621 0.06409838 -0.058683235
000290 8f 53 6a 3d 08 6e 59 3c a2 a2 50 3d ae 85 3c bd
       0.057208594 0.013270862 0.05093635 -0.046025924
0002a0 93 cd 50 be 57 4b 08 3d 75 2e 15 be a4 d8 9f 3e
       -0.2039092 0.033274975 -0.14568503 0.3121997
0002b0 1a d5 2d be 9d 14 fa bd f8 e1 72 be cd f6 14 3d
       -0.16975823 -0.12210963 -0.23719013 0.03636818
0002c0 88 27 59 3c b4 80 07 be 5d 8f 1a 3e fd 49 88 3c
       0.013254054 -0.1323269 0.15093751 0.016636843
0002d0 6b 3a 4c be 3e ab 50 be 0a b8 19 be 19 d6 35 be
       -0.1994416 -0.20377824 -0.15011612 -0.17757453
0002e0 b3 c8 1d be 9f 32 43 be 59 f8 0a be 63 9d b3 3c
       -0.15408592 -0.19062279 -0.135713 0.021925634
0002f0 95 c6 09 be ca 81 33 3d a1 9d 9d bd 87 26 82 bd
       -0.1345466 0.04382495 -0.07696081 -0.06355005
000300 90 f0 13 be 80 09 61 bd 8a e1 1e 3e 56 80 bc bd
       -0.14447236 -0.0549407 0.15515724 -0.09204166
000310 eb 5f c8 3c b8 01 b1 3d 4a 02 46 3d 62 08 7b 3e
       0.0244598 0.08642906 0.048342027 0.24514917
000320 c7 e2 08 3e b5 49 59 be 47 8f 15 3d b2 0a 20 bc
       0.13367759 -0.21219523 0.036513593 -0.009768175
000330 c3 6e b6 3d 55 99 ce 3d 20 8f 88 3e f9 44 2a be
       0.08907845 0.100878395 0.26671696 -0.16627873
000340 21 cf db bd db 49 f2 3d ed e1 89 3d 84 91 39 3e
       -0.10732866 0.11830493 0.06732545 0.18121916
000350 32 e7 00 be ae c3 e5 bd 6c 70 88 be 20 6d 3e be
       -0.12588194 -0.112189636 -0.2664827 -0.18596315
000360 95 c4 9e bb ba 50 3a bc 0a 72 46 be 21 fb 4e be
       -0.0048452117 -0.011371786 -0.1937944 -0.20212986
000370 03 44 1a be 54 22 6f bd cd 45 a0 3d d9 7f 16 3e
       -0.15065007 -0.058382347 0.078258134 0.14697208
000380 02 ed 08 3e 15 64 6a bd 62 2f fa bd 35 f9 df 3d
       0.13371661 -0.057224352 -0.12216069 0.10936204
000390 ca bf 7a bc 2d 9b 4d 3e f3 48 91 bd 61 58 e0 3d
       -0.015304515 0.20078726 -0.07093992 0.10954357
0003a0 57 1a 06 3e 91 e7 5f be a4 46 94 3d b0 1a 10 be
       0.13095985 -0.2186568 0.07240036 -0.1407268
0003b0 e2 77 7a bd 8c 99 23 3e 39 2e 74 be f1 a5 da bd
       -0.061149485 0.15976542 -0.23845758 -0.10676182
0003c0 b7 13 1a 3e 0b 45 57 bc 23 eb 0d be fa d5 48 be
       0.15046583 -0.01313902 -0.13859229 -0.19612876
0003d0 83 10 9c bd 2a 0e a7 3d 77 94 37 be 67 ae 18 bb
       -0.07620337 0.081569985 -0.17927729 -0.0023297311
0003e0 26 1c b0 bd fb f9 2f be 08 de f6 3d 31 91 5f be
       -0.08599119 -0.17185204 0.12054068 -0.2183273
0003f0 c5 71 64 3d 5f fc 38 3e 4a ee 38 be 86 02 89 3d
       0.05577256 0.18065022 -0.1805965 0.066899344

fc2.weight f4 [300, 300]
000000 90 6c 2b 3c 7c 49 bf bd 06 38 c2 3c d6 1d 0f bd
       0.010462895 -0.09340188 0.023708355 -0.034940563
000010 8a 40 43 bd 8f f9 2b bb 86 40 98 bc 1e 33 91 3d
       -0.04766897 -0.0026241278 -0.018585455 0.07089828
000020 e2 20 02 3d 79 0a 5b bd 02 a8 14 3d 60 cc ba 3d
       0.03176964 -0.053476784 0.036293037 0.09121013
000030 aa b3 8e bc c6 73 69 3c b3 3c 00 bd 4e fd 7a bd
       -0.017419655 0.014248794 -0.031307887 -0.061276726
000040 cb 0c 59 3b 76 d7 33 3b 9a 02 8c 3d 4d 7a 2f bd
       0.0033119197 0.0027441657 0.06836434 -0.042841244
000050 88 f0 3c 3c 9e 11 16 3d b5 ec 26 bd e7 03 bf 3c
       0.0115319565 0.036637895 -0.040753085 0.02331729
000060 43 3a b5 bc 8a a3 bb 3c 64 6e cd 3c f5 91 f3 bb
       -0.022122508 0.02290513 0.025077052 -0.007433171
000070 97 2b 30 bd 7c 50 d2 bc 6a 6c 80 bc 34 ed 0f 3d
       -0.04301032 -0.025673144 -0.015676696 0.035138324
000080 46 f5 27 3d b6 5d 86 bd 88 f2 cc bc bb ee ae 3c
       0.041005395 -0.06560843 -0.025017992 0.02135407
000090 b5 86 74 bd 3c f1 8d 3a 8a c0 6b 3d 70 1d a1 3d
       -0.05969878 0.001082934 0.057556666 0.07866943
0000a0 a3 80 f4 3c 2a 55 80 bd 72 9d dd bc cd 7d 16 bc
       0.029846495 -0.06266244 -0.027052615 -0.009185267
0000b0 9b 10 3f bc b0 7f 20 bd 88 f0 79 bc 04 ce 81 bc
       -0.011661674 -0.039184272 -0.015255101 -0.015845306
0000c0 ff bf 1a bd 93 81 17 bc 79 4e 8b 3c 67 81 9d bd
       -0.037780758 -0.0092472015 0.017005192 -0.07690697
0000d0 fc 7d dd 3c 0e 40 be 3c c0 b7 18 3c ab 2b 70 bd
       0.027037613 0.023223903 0.009321153 -0.058635395
0000e0 99 ca e5 3d e1 bc 97 bd a9 e7 03 bc 98 5c 6a 3d
       0.11220283 -0.07409073 -0.008050838 0.05721721
0000f0 75 30 85 bd 34 21 6e 3d 0a 29 b0 bd 09 ed 34 bd
       -0.06503383 0.058137134 -0.086015776 -0.044171367
000100 71 7d 27 3d 94 c4 ab bc fd 32 36 3d b4 b2 8a bd
       0.040891115 -0.02096776 0.04448222 -0.06772366
000110 20 df 6b bc c0 3b c1 3b 84 7e 8c bd d1 6b 7d 3d
       -0.014396459 0.0058970153 -0.068600684 0.0618704
000120 b0 b8 8e bb f6 25 65 bd 4e a5 6c 3b 8c de 35 3d
       -0.0043555126 -0.055944405 0.0036109271 0.04440169
000130 76 87 22 bd 85 9c 58 3d e5 0f 36 bd 8d bc 3c bd
       -0.039679967 0.052883644 -0.044448752 -0.046078254
000140 72 6c e1 bc 40 26 e5 bb dc 26 ba bc a0 1e 11 3d
       -0.027517531 -0.006993085 -0.022723608 0.035429597
000150 35 4a 25 bd a3 03 0a 3c f6 14 82 3c 11 34 6c 3d
       -0.040353972 0.008423719 0.015879136 0.057666842
000160 16 c5 fc 3c 9e 22 24 3d da 01 17 bd 18 38 7c 3d
       0.030855697 0.040072076 -0.036867 0.061576933
000170 73 34 53 bd 12 8e f7 3b 4c c6 e5 3b 28 3f 8e bd
       -0.05156369 0.007554778 0.007012164 -0.0694564
000180 be c9 d2 3c 48 08 93 bb 92 c2 52 bd 66 04 1e 3d
       0.025730964 -0.004487071 -0.051455088 0.038578413
000190 c9 28 10 3b 3c fc a2 3b 6f ef 52 bd 81 27 29 bd
       0.0021996966 0.0049739163 -0.051497873 -0.04129744
0001a0 76 11 3c bd 7b a1 15 3d 98 e3 ce 3b 9a db 86 3c
       -0.04591509 0.036530953 0.0063137524 0.016462136
0001b0 15 47 42 3b 4b 34 57 bd 1b 7d 96 bc 06 3b f5 bc
       0.002964442 -0.052540105 -0.018370202 -0.029935371
0001c0 43 0e 74 bd 53 7e 79 bd e5 ad 25 3d c9 35 45 3d
       -0.059583914 -0.060911488 0.040449042 0.048146997
0001d0 a2 81 4b bc 07 75 95 bd ee e7 46 3c 4b ab 0e 3b
       -0.012421044 -0.07297712 0.012140257 0.002176958
0001e0 09 cf 42 bc 18 a9 a4 3b 21 05 1c 3d cb 75 77 3c
       -0.011890181 0.0050250404 0.03809083 0.015103768
0001f0 dc d2 83 3b 6f 7a 10 bd e6 32 0f 3d c8 a4 8c bd
       0.004022939 -0.03527301 0.03496065 -0.06867367
000200 e7 52 09 3d d0 ff 57 3c 12 ce a3 3c 79 5e 70 3d
       0.033526327 0.013183549 0.019995723 0.058683846
000210 00 ec 3d 3b c7 0b 22 bb 65 50 9d bc 15 32 5a bd
       0.0028979778 -0.0024726258 -0.019203374 -0.05327042
000220 45 e4 a2 bc a4 9c 71 bd 6e 9f b6 3c d4 48 98 3d
       -0.019884238 -0.058987275 0.022292819 0.07435766
000230 8e d0 0e bd 4c 16 e0 bb f2 28 ab bc b7 90 61 bc
       -0.034866862 -0.0068385955 -0.020893548 -0.013767413
000240 89 d7 2b 3b 2a 5f 65 bc 70 c7 99 b8 96 6a fc bb
       0.0026220998 -0.01399974 -7.332757e-05 -0.0077031357
000250 21 a8 5d bd 9e b1 22 bc b2 cb 09 bd aa f9 cd 3c
       -0.05411542 -0.009930043 -0.033641525 0.025143463
000260 26 4d 0b 3d c4 73 92 3d 46 be 70 3b f0 3b 53 3b
       0.03400912 0.07150987 0.0036734506 0.003223177
000270 5c d4 7d bd 89 3e 60 bd bf 07 b3 3b 3e a5 92 3c
       -0.0619701 -0.05474714 0.00546357 0.01790106
000280 a7 18 30 bd 5e c7 14 3d 7b de c1 bc 95 9f 39 bc
       -0.04299226 0.036322944 -0.023665657 -0.011329551
000290 fd 27 a6 bc d5 5b 14 bd 1c 92 8e bd f7 aa cc bb
       -0.02028274 -0.03622039 -0.06961462 -0.0062459665
0002a0 9d e6 1a bd 0b 01 2f ba 8a 37 02 bd ce 46 6a bd
       -0.037817586 -0.00066758756 -0.031791247 -0.05719643
0002b0 89 98 6f bd c2 a9 bb bd 55 5d d0 bc bb 4c 90 3d
       -0.05849508 -0.09163238 -0.02543513 0.07045885
0002c0 85 96 d4 3c d3 1b 1f bc 5c 68 a2 bd fd 4b ad 3d
       0.02595068 -0.009711224 -0.07930061 0.08461759
0002d0 80 d3 a7 bc c5 1b c6 3a d7 79 78 3c 09 d0 94 bd
       -0.020486593 0.0015114477 0.015165768 -0.07266242
0002e0 2f 50 df 3c 37 a3 52 3d 3e 5c 46 3d 7c d1 49 bb
       0.027259914 0.051425185 0.048427813 -0.0030795028
0002f0 1c 0b 9d 3c 29 7c f5 3c bb 61 20 3d 9e df 54 3d
       0.019170336 0.02996643 0.039155703 0.05197107
000300 e4 71 4d 3d 1c 98 6f bc 34 00 f6 3c c6 21 76 3d
       0.050157443 -0.014623668 0.030029394 0.060090803
000310 58 1a 92 3d cd d7 38 bd 7f 9c 85 bb 40 2c 49 bd
       0.07133931 -0.04512768 -0.0040774937 -0.049114466
000320 54 49 e6 bc f6 74 5a bc fb 37 85 3d f3 64 1b bc
       -0.028111137 -0.01333355 0.06504818 -0.009484517
000330 f0 5c c6 b9 93 80 a0 bc e2 e7 5f 3d 96 88 df 39
       -0.00037834747 -0.019592559 0.0546645 0.0004263564
000340 1a 27 15 bd 72 97 01 3d b7 70 6d 3d 93 c0 5e 3d
       -0.036414243 0.03163857 0.05796882 0.05438287
000350 62 c6 e4 bc 3e cb d7 3c 82 de 7e 3d a7 d4 25 bd
       -0.027926628 0.02634203 0.06222392 -0.040486004
000360 d0 fe 53 3d 80 da b0 3c 62 55 0f bd 56 90 a4 3b
       0.05175668 0.021588564 -0.034993537 0.005022089
000370 7c 67 90 bd 03 7b 89 3c fe 36 27 bd 07 af 5f 3c
       -0.07050988 0.01678229 -0.04082393 0.01365257
000380 90 b7 ee bb d1 79 7e bb 30 94 63 bc ec ad e6 bc
       -0.007285066 -0.0038829932 -0.013890311 -0.028159104
000390 22 d5 11 3c ee 24 d1 bb 9e ca 2e bc f4 2c 50 bd
       0.0089009125 -0.006382576 -0.010668425 -0.05082412
0003a0 09 a3 e2 3b 07 7e 83 3c 4d fd 4d 3c 76 d3 3a bd
       0.006916408 0.016051305 0.012572599 -0.04561182
0003b0 30 1a 4a bc fc 21 8e 3c a5 7e 60 3c 6a 5e 9c 3c
       -0.012335345 0.01735019 0.013702069 0.019087989
0003c0 44 3e 97 3c 3f 09 99 3c 66 4f 56 bd df f0 bc 3c
       0.018462308 0.018681167 -0.052321814 0.023064075
0003d0 12 c6 3a 3d 1f 5a 00 bd 58 61 96 bd b4 ba 2e 3d
       0.04559905 -0.031335946 -0.073427856 0.042658523
0003e0 bc c1 33 3c 2d 1f 0b 3d 26 7e 3c b9 8c c9 65 bd
       0.010971483 0.03396528 -0.00017976071 -0.056100413
0003f0 9a 61 f8 bc b6 63 76 3c 15 35 90 bd ff 68 ec 3c
       -0.030319978 0.015038421 -0.070413746 0.02885866

fc2.bias f4 [300]
000000 12 db 6f bd e9 86 db 3b 25 b2 af bb c0 15 b8 3c
       -0.05855853 0.006699432 -0.0053618127 0.022471309
000010 34 83 8a 3c af ef 7a 3d 49 92 55 3d 6c 59 42 3d
       0.016908266 0.061263736 0.05214146 0.04744856
000020 7d 79 5f bd 72 c3 38 3c b5 a1 ee 3c 51 aa fb bc
       -0.05455922 0.011277067 0.029129842 -0.030720862
000030 62 37 e6 3c 8e 99 81 3b 6e 0b c0 3c a5 3a 24 bd
       0.02810258 0.0039550727 0.02344295 -0.04009499
000040 e9 66 f0 3a fe 9f 09 bd 0d 5d 34 3d 8d 2e 5a 3d
       0.0018341216 -0.033599846 0.044034053 0.05326705
000050 5a ee 09 3d 02 44 0e bb de 65 38 bd fd a6 6d 3b
       0.033674575 -0.0021708016 -0.045019023 0.0036262863
000060 68 2f 4c 3b 29 db 0d bd e5 49 60 bd 61 9e 96 3c
       0.0031156186 -0.034632836 -0.05475797 0.018386068
000070 b2 01 38 3d b2 ea 74 3c cf e9 29 bd f9 f8 d3 bc
       0.04492349 0.014948534 -0.041482743 -0.025875555
000080 0b 9d ee bc 2a 7b 43 bd 95 d0 73 bb 40 0d 5c bd
       -0.029127618 -0.04772488 -0.0037203182 -0.053723574
000090 91 7d 16 3d 4c c1 c5 3b f2 d8 23 bd 77 e9 e0 bc
       0.036740843 0.0060350057 -0.040001817 -0.027455075
0000a0 dc 9b 77 bc 09 97 cc 3b b4 5f d3 3c a4 44 1f bd
       -0.015112843 0.0062435907 0.02580247 -0.03888382
0000b0 91 63 34 bc 44 18 94 b9 a5 30 35 bd 45 3c 15 bd
       -0.011010067 -0.0002824684 -0.044235844 -0.03643443
0000c0 a9 c6 bd 3c 9a f9 48 3d 3a 20 54 3c ec 91 be 3c
       0.023166018 0.049066164 0.012947137 0.02326294
0000d0 38 5b ea bb 9f 74 8c 3c 26 f4 69 bd 66 72 d4 3b
       -0.0071519874 0.017145453 -0.057117604 0.006483364
0000e0 96 d6 94 bc ae 04 01 3d 80 43 7e bc ee 2a 7a bc
       -0.018168729 0.031498604 -0.015519023 -0.015269024
0000f0 5e f0 3d bd bb 5a 82 bc 38 95 5b 3c 74 d6 47 bd
       -0.04637181 -0.015912404 0.013402276 -0.048788503
000100 1d d1 5f bc 80 da 41 bc 11 4c 5f bd 57 72 bf 3c
       -0.013660696 -0.01183188 -0.054515902 0.023369951
000110 94 38 94 bb ac fd 19 3b 1b 75 3c 3c 65 2c fa 3b
       -0.004523346 0.0023497147 0.0115025295 0.007634687
000120 c5 4d 2d 3d a5 35 b0 bc 75 2d 76 3b 91 82 06 bd
       0.042310495 -0.021509955 0.0037563716 -0.03283936
000130 b7 b4 5d 3d 80 45 a4 bb a1 27 e2 bc 42 dd 44 bd
       0.05412742 -0.005013168 -0.027606787 -0.04806257
000140 83 4b 7a bd 70 cd 86 bc e5 82 9c 3c 26 cc 4e 3d
       -0.06110717 -0.016455382 0.019105384 0.05048766
000150 e8 38 60 3b 72 e6 4e bd b4 b1 fd 3c e1 5a b8 3c
       0.0034213606 -0.05051274 0.030968525 0.022504272
000160 3f f4 8c 3c 00 38 0c 3d ca 7b 43 bc 49 6c 05 bd
       0.01720631 0.034233093 -0.011931369 -0.032573972
000170 cf c7 59 3c a0 ec 5f 3d 5f f1 07 bd cf 65 09 bd
       0.013292267 0.054669023 -0.033189174 -0.033544358
000180 f9 ca 64 bd 72 fe b0 3c 3a 1d 9e bc a8 3c 40 3c
       -0.055857632 0.021605704 -0.019301046 0.011733212
000190 26 76 88 3c 96 af 91 3c 7e ad c4 3b 61 90 cf 3c
       0.0166579 0.017783921 0.006002127 0.0253374
0001a0 7e 4e ff 3c 63 63 99 bc b4 0d f0 3c 2a 8e 0a 3c
       0.031165358 -0.01872415 0.02930341 0.008456746
0001b0 44 c1 65 bc 8f 02 55 bc 52 ad 6e 3c d9 75 2d bd
       -0.014023129 -0.013001098 0.01456769 -0.042348716
0001c0 92 b4 1a 3d a1 4f 0b bd 4d 5e fc 3c 48 52 f9 bb
       0.03776986 -0.034011487 0.030806685 -0.0076086856
0001d0 ff 62 11 3d 37 71 2d bd 07 56 15 bd d4 17 6e 3d
       0.0354948 -0.0423443 -0.036458995 0.058128193
0001e0 61 6c 10 bd 13 ce 5a bd 04 71 fb 3c 00 b8 d0 bc
       -0.03525961 -0.053419184 0.030693538 -0.025478363
0001f0 9f e6 95 3c e6 3d f1 bc 08 67 2f bd 25 9e 55 bb
       0.018298445 -0.02944846 -0.042822868 -0.0032595482
000200 0d c7 42 bd 56 8c 37 bb 2c 7d 16 3c 9d f2 15 3d
       -0.04755311 -0.002800723 0.009185117 0.036608327
000210 c3 67 e1 bc f6 5b 9b bc f1 fb 6e bd 81 e2 02 3d
       -0.027515298 -0.018964749 -0.05834574 0.031954292
000220 3c 9a f6 3b 88 ed 90 bc 06 16 55 3c 45 5e 18 bc
       0.0075257104 -0.017691389 0.013005739 -0.009299819
000230 4c 25 1c bd 60 92 81 bc 4e e3 b9 3b 61 27 59 bc
       -0.038121507 -0.015816867 0.005672849 -0.013254018
000240 3d 00 a8 bc e1 d0 19 bd fd bc 2f bd c9 57 50 3d
       -0.020507926 -0.037552718 -0.042904843 0.05086497
000250 87 d3 f1 bc 6e fb ee 39 de de 1f bd 98 44 bf bc
       -0.02951981 0.00045582227 -0.039030902 -0.023348138
000260 68 86 82 3c 7e 1f f6 3c 7c 1a 00 bd bb 0f fc bb
       0.01593323 0.030044314 -0.031275257 -0.007692305
000270 2e a7 33 3d cc 4b 19 3d a6 e0 48 3b bb 47 d0 bc
       0.043860607 0.0374258 0.003065148 -0.025424829
000280 1f ed 4d bd f8 7b 81 bc e8 fc cb 3c c8 1f 67 3d
       -0.050274964 -0.015806183 0.024900869 0.056426793
000290 c3 1e 09 3d ae d8 10 bd 09 d9 5c bd 28 42 22 3d
       0.033476602 -0.03536289 -0.05391792 0.039613873
0002a0 27 1a 3e 3b c1 b7 4f bc d8 2d dc bb 8a bd df 3c
       0.0029007287 -0.012678088 -0.006719332 0.027312059
0002b0 c7 d8 47 bb a4 84 d5 3b 18 f4 c0 3c e1 e0 cf 3c
       -0.00304942 0.006516056 0.023553893 0.025375785
0002c0 cc 67 66 3d a1 e0 62 3d 40 36 fc 3c ae e7 4c 3d
       0.056251332 0.055390004 0.030787587 0.050025634
0002d0 a3 80 0e bc ca 1a 0d bd a6 42 19 bc 9b 1e 5c bd
       -0.008697662 -0.034449376 -0.009354269 -0.053740125
0002e0 e5 71 10 bd 37 c7 f4 3c 25 94 3f bd 86 d3 ec bc
       -0.03526487 0.02988015 -0.04677214 -0.028909456
0002f0 3a 05 10 3d cb 81 63 3c cf a3 13 3d 29 09 51 bb
       0.035161234 0.0138859255 0.036044892 -0.003189633
000300 b7 cd 62 3d 54 7a 24 3d 79 79 32 3d 2c 1a ea bb
       0.055371966 0.040155724 0.043572877 -0.007144233
000310 e2 55 4b 3d 1d 2d 02 3d bb e0 37 3d 5f 21 f2 bc
       0.04964245 0.031781305 0.044892054 -0.029556928
000320 4c 15 44 3d e8 9a 76 bd 68 f1 6f 3a 21 ba 25 3d
       0.047871873 -0.060206324 0.0009153099 0.04046071
000330 88 5c cd 3c 7d 57 c2 3c 90 03 4e 3d 67 28 22 3c
       0.025068536 0.023723358 0.050296366 0.009897328
000340 de 0d 1e bc ae 52 1f 3b 69 4a 45 3b 08 37 17 bd
       -0.009646861 0.0024310756 0.0030104166 -0.036917716
000350 fc f7 d4 bc af 92 9c bc 54 40 7f 3c c3 36 08 bd
       -0.025997154 -0.019112913 0.015579302 -0.03325535
000360 7a 0d 9f 3c 37 05 0e 3d 4c 25 81 3d 48 79 fe ba
       0.019415606 0.034672942 0.06305942 -0.0019414807
000370 55 ad 5a bd b4 d3 36 3d 8e c4 4a bc 7f 9e ac bc
       -0.05338796 0.04463549 -0.012375964 -0.02107167
000380 7d b2 58 b9 3d 83 49 3b ff 91 43 bc 82 7f f4 3c
       -0.00020665857 0.003074839 -0.011936664 0.029845957
000390 e4 98 53 bd ad 72 77 3c 59 af d2 bb d5 b7 3b 3d
       -0.05165948 0.015103024 -0.0064295945 0.045829613
0003a0 62 6b 84 bc 52 ce bc bc db 62 63 3d 17 9d 2e bc
       -0.016164485 -0.0230476 0.055514198 -0.01065757
0003b0 56 0e b3 bc 27 07 07 bd 84 9b 2d 3d 1b 51 1b bd
       -0.021857422 -0.032965805 0.04238464 -0.037919145
0003c0 be 1c e8 bb f2 ae 09 bd 8e 84 d5 3b 18 3b 34 3d
       -0.0070835045 -0.033614106 0.006516046 0.04400167
0003d0 db 3e a2 3c 46 b3 bd 3c f9 9e 7a bd b7 9f 54 bb
       0.019805362 0.023156773 -0.061186764 -0.003244383
0003e0 2c 15 14 bd c2 13 8f 3c 64 93 cf 3c 6d da ea 3c
       -0.036153004 0.017465476 0.025338836 0.028668607
0003f0 84 ed 53 3d 4b 55 6d 3c d7 6d 21 3c 7e 3a 27 3d
       0.051740184 0.014485667 0.009852848 0.040827267

fc3.weight f4 [5, 300]
000000 ec fc 1b 3d e3 0d 55 3c 31 20 d8 3c d6 99 51 bd
       0.038083002 0.013003799 0.026382538 -0.0511721
000010 1b b1 94 bd a0 bc 0f bd 3a f0 28 3c c8 5b 2e bd
       -0.07260343 -0.035091996 0.010311181 -0.042568
000020 0b 01 0b bd 18 2b 25 3d ac c0 6f 3d 2d bd b5 bc
       -0.03393654 0.0403243 0.058533356 -0.022184933
000030 d2 ae 80 3d 44 11 30 bd 5d ce 7b 3c 97 41 b8 bc
       0.06283344 -0.042985216 0.015369025 -0.022492213
000040 ae 04 8b 3d d5 ab f7 3a c1 fa 91 bd 00 fc 11 bd
       0.06788002 0.0018895814 -0.07127906 -0.035640717
000050 85 f3 90 3d 1a 59 6d bd 6d 2f 0e 3d fc 65 34 3d
       0.07077698 -0.057946302 0.034713197 0.044042572
000060 04 78 2d 3d 97 df fa 3c 8c 27 c6 3c 1a fd 71 3d
       0.042350784 0.030624194 0.02418878 0.059079267
000070 d6 dc 93 3c ad 7b 23 bc b5 b2 9f 3d e0 6e 31 bc
       0.018049639 -0.009978217 0.077977575 -0.010829657
000080 64 45 7f 3d 5c a2 02 3d 48 f2 b7 bb 42 59 d8 3c
       0.062322035 0.03189312 -0.005613599 0.026409749
000090 a2 58 87 3d 22 cd 61 3d c7 e4 4f bc 01 0f 24 3c
       0.06608702 0.05512727 -0.012688822 0.010013343
0000a0 f5 86 0e 3b 43 d5 4c bd 14 ad 7a 3c 95 50 27 3d
       0.002174792 -0.05000807 0.015300054 0.040848333
0000b0 35 93 10 bd 60 93 3d 3a c8 13 71 3d 5b c0 6b bd
       -0.035296638 0.00072317384 0.058856755 -0.05755649
0000c0 28 00 05 3c 72 2f 2a 3d c3 33 7c bc 2c e4 65 3d
       0.008117713 0.041549154 -0.0153932 0.056125805
0000d0 12 83 9d bb e7 d5 8b bd 88 ff 9f 3d d8 b9 de 3a
       -0.0048068846 -0.06827908 0.078124106 0.0016992642
0000e0 4f e0 9b 3b e6 ea a4 bc 43 4a 46 bd e9 aa a0 3d
       0.0047569643 -0.02013154 -0.048410665 0.078450985
0000f0 1f 84 29 bc 8f da 56 bd dd 5f 6c 3d e6 cc 61 bb
       -0.0103464415 -0.052454527 0.05770861 -0.0034454404
000100 64 90 06 bd 88 7a a7 bd 9e 6f d8 3b 6f b3 93 bd
       -0.032852545 -0.08177668 0.0066051027 -0.072119586
000110 5e 6e 4f bd 3b f3 81 3d c0 25 05 bd 7a 03 38 bd
       -0.050642364 0.06345221 -0.032506704 -0.04492519
000120 60 02 80 3d 48 b9 46 bd 18 da 0f bd 17 a4 a2 3c
       0.06250453 -0.04851654 -0.0351201 0.019853635
000130 81 1a 97 bd ed 08 67 bc 02 52 73 bd fb 4d 61 bd
       -0.07378102 -0.014101249 -0.05940438 -0.05500601
000140 54 95 3d 3b 60 b1 68 3c b9 54 77 bd 4d 7f d2 bc
       0.0028928118 0.014202446 -0.060383532 -0.025695467
000150 01 2b 50 bd 83 dc 15 3d 38 4a 9f 3d 66 0a 24 bb
       -0.05082226 0.03658725 0.07777828 -0.0025030612
000160 52 cf 43 3d b3 dd 42 bd 70 d3 3e 3c 55 94 ff bc
       0.047805138 -0.04757471 0.01164709 -0.03119866
000170 20 4e c5 3c 88 d0 d7 bb be 81 22 bb c4 8e 9f bd
       0.024085104 -0.006586138 -0.002479657 -0.07790902
000180 3e 93 25 bc 3c 6b d6 bc d8 bc d7 bc 47 b7 a6 3c
       -0.010105906 -0.02617418 -0.026335165 0.020351065
000190 2a 4a 9f 3c a1 26 0d 3b 4c 0b a1 3c 1c 32 c5 3c
       0.019444544 0.0021537917 0.019658707 0.024071746
0001a0 7e c9 d9 bc 1d 20 02 bd b1 2b 8f 3c 9b 97 73 bd
       -0.026585337 -0.031768907 0.017476888 -0.059470754
0001b0 23 6f 53 3d 37 c0 65 3d 05 4d 02 bc 95 73 5e 3d
       0.05161966 0.056091513 -0.007952933 0.054309446
0001c0 7c d4 87 3d d5 53 5f bd a6 0b 7e bd 1a 10 90 3c
       0.06632325 -0.054523308 -0.062022828 0.017585803
0001d0 70 29 28 bc 5d e9 04 bd 5e bc 46 3d 9a e8 7d bd
       -0.010263786 -0.032449115 0.048519485 -0.061989404
0001e0 1f dc a7 3c 06 ad 67 bd d8 ad cb 3c a8 cb 2b bd
       0.020490704 -0.056561492 0.024863169 -0.04194227
0001f0 01 78 3c 3c 6c a6 40 3d 21 5a f8 bc 7b 7e 6c 3d
       0.011503221 0.047033712 -0.030316414 0.05773781
000200 aa 17 8b 3d 39 f0 31 b7 82 9d 64 bb 26 07 50 bd
       0.06791623 -1.0605953e-05 -0.003488392 -0.050788067
000210 7a dd 2a bd 55 28 2b bb a5 0f 77 3d 61 46 74 bd
       -0.041715123 -0.002611657 0.060317654 -0.05963743
000220 7c ce 34 bd e3 ac 4d 3a 48 03 25 3d 5f ea 48 3c
       -0.04414223 0.00078458915 0.040286332 0.01226291
000230 cd e5 ac 3c ec 2e 7b 3d f4 d2 06 bd a6 7a 63 3d
       0.021105671 0.061324045 -0.032916024 0.05553689
000240 e3 b3 21 bd fa 66 29 bd b8 1d 8a 3c e8 7e 01 bd
       -0.039478194 -0.04135797 0.016859874 -0.031615168
000250 6f 56 d3 bc 33 c8 d1 bb 61 33 f2 3c 6a 7a cc 3c
       -0.02579805 -0.0064020394 0.029565515 0.024960715
000260 a3 e7 7c bd b4 d5 f5 3c d1 7f 05 bd 54 47 ff 3b
       -0.061744343 0.030009128 -0.0325926 0.0077904854
000270 09 8f a1 bd 07 a8 50 bd 54 09 87 3d af bb 80 3c
       -0.0788861 -0.050941493 0.06593576 0.015714495
000280 19 53 e2 bb 72 f4 78 3c 74 1d cd bc f9 a9 a3 3d
       -0.0069068787 0.015194999 -0.025038458 0.07991404
000290 59 f0 eb 3b 38 b8 58 bd 81 4b a5 3d 88 f6 9a 3c
       0.0072002825 -0.05291006 0.08071042 0.018916383
0002a0 b8 90 58 3d 2c bb 08 3d 50 e9 80 bd f1 04 22 bd
       0.05287239 0.033381626 -0.06294501 -0.039555494
0002b0 38 e8 a2 bd 0b 83 af 3d a3 1f 85 3d 0a 53 e4 bc
       -0.079544485 0.08569916 0.06500175 -0.027871627
0002c0 65 23 32 bd c6 4f 5c 3d 3a bc fd 3c 9e d6 89 bd
       -0.043490786 0.053787015 0.030973542 -0.06730388
0002d0 d5 9c 89 bd 28 55 34 3d 62 84 66 3d 3b d9 69 3d
       -0.067193665 0.044026524 0.056278594 0.057091933
0002e0 21 52 f7 3c 3d 83 3d 3c a8 e3 24 3c f4 27 66 bd
       0.03019053 0.011566934 0.010064043 -0.056190446
0002f0 ea b2 47 bd ca 0c 41 bc a9 6a db 3c db f3 9a bd
       -0.04875461 -0.011782834 0.026784258 -0.07566043
000300 f4 4a 50 3d dd b7 07 3d 01 0d ec bc 75 b7 a7 bb
       0.05085273 0.03313433 -0.028814794 -0.0051183053
000310 33 89 0f 3d 6d f6 39 bd 92 97 0b 3d a1 47 5b bd
       0.035042953 -0.045401026 0.034080096 -0.053535108
000320 37 5a 74 bd a8 90 3e bd c6 81 8d bd 91 84 aa bc
       -0.059656348 -0.046524674 -0.06909518 -0.020815166
000330 c6 ff 92 bd 73 06 82 bc 07 c6 be 3c 4c 01 86 3d
       -0.07177691 -0.015872216 0.023287786 0.06543216
000340 07 c2 0d 3d e8 57 84 bd ed 95 39 3d 52 8e 15 bd
       0.034608867 -0.06462079 0.045308996 -0.03651268
000350 70 dc f9 bb 50 d2 e7 3c 3b da 7c bd a3 e4 49 bd
       -0.007625155 0.028298527 -0.06173156 -0.04929031
000360 b5 21 00 bc 90 31 55 bd 47 4c 58 3d f0 46 8d bd
       -0.007820536 -0.05204922 0.05280712 -0.06898296
000370 f5 a4 af bc 25 5e 91 bc 49 aa cd 3b f2 be 4c 3d
       -0.021440962 -0.017745087 0.006276403 0.049986787
000380 f6 72 95 bd 92 81 5c bd 25 69 94 bb c9 02 12 bd
       -0.07297318 -0.053834505 -0.004529136 -0.035647187
000390 4d 0e 5e bc fc ea 1b 3b f6 ce a8 bd d5 f5 54 bd
       -0.013553214 0.0023791185 -0.082426 -0.051992256
0003a0 d7 14 89 3d b0 e6 6e bd 75 0a 7d 3d c2 dc 1d bc
       0.06693428 -0.05832547 0.06177755 -0.009635152
0003b0 dd 86 51 bd fc 58 2f bd 88 ca 3b bc 50 14 8e 3c
       -0.051154006 -0.04280947 -0.011461861 0.01734367
0003c0 bb 5f 1c bd 6d 87 7a 3c 35 15 d3 3c c3 2e 64 3d
       -0.038177233 0.015291077 0.025766948 0.055708658
0003d0 69 0d 1a 3d 92 1e 53 3d fc 7f 06 bd 16 aa b1 b9
       0.037610445 0.051542826 -0.0328369 -0.00033886795
0003e0 af 0d 37 3d d1 4f 90 3d 8b 23 8d 3d 50 71 3b 3d
       0.044690784 0.07046474 0.06891545 0.04576236
0003f0 49 f5 5a 3d 26 56 07 3d d6 9e 6b 3d e3 4b 2d 3d
       0.05345658 0.033041142 0.057524525 0.0423087

fc3.bias f4 [5]
000000 b9 bb c0 3b 68 8a 8e 3a b6 54 bb bc ff 81 51 bd
       0.0058817533 0.0010874989 -0.022867542 -0.051149365
000010 54 65 28 3d
       0.04111226
