model_weights/taxi_weights/model_taxi_SDTW_gamma_1.pt (torch, 395176 bytes, 6 tensors)

fc1.weight f4 [300, 20]
00000000: f1e3 923e 541a 27be f84b 44be fba9 bdbc
00000010: e0f0 2d3d 2666 bdbd 24d5 cd3c 5631 413e
00000020: 73e9 663c 0b1f 163d 2a7f 56be 337d 1d3d
00000030: 527f 8d3d 1669 7abd 44cf 0c3c f105 81be
00000040: efbe 3a3e 170b 743e ceaa 893e 5370 233d
00000050: fd95 683d 8993 85bd e3c7 edbd c7fc f33d
00000060: 5ccd 243d e917 0e3e c655 fc3d f670 803e
00000070: dea3 0d3e 9890 813b d515 62be 18eb ac3d
00000080: 6e0c 58be e469 6b3c b5bd 79be d1db 97be
00000090: 787e 2b3e 54c9 e53d 31fe 043d efb1 b43e
000000a0: 4fc6 ab3e fb71 6a3e 8704 c03d ae5c 3f3e
000000b0: dc21 203e f954 03be 4f14 aebd 619a 323e
000000c0: afa0 a83d 9ebd 1dbd fbd9 023c 85e6 0dbe
000000d0: 36bb 29be 6534 60be 444c 0f3e 13ec 1ebe
000000e0: 24fe 04be ff99 9c3d e681 40be 110a a03d
000000f0: 2462 13be c7e1 80be 3eb4 0dbd 9c90 7bbc
00000100: ae7e cdbb d3a4 68be 99c4 e13d cf4a 26be
00000110: 242f c03c 6956 333d 2c80 cd3d 626e e43d
00000120: e52f 6fbc 2b99 7ebd b875 543e 03dc f93c
00000130: c534 983e 37bc 423d e80b ed3d 1b48 193d
00000140: 11e9 773e 54ba e53c a01c 913d 286f 21be
00000150: c712 f73c 1366 24bd 7c1e 01bd 7a22 2d3e
00000160: fe73 993c 5338 58be 6c5d 4bbe 7a24 893d
00000170: e91c 3dbe 2eb9 f0bd 8edc 563d 8733 1a3d
00000180: f818 9cbc 3f70 e23d 39e3 483e dda2 c5bc
00000190: ae50 7dbe 1776 5dbe d213 a83d addc db3d
000001a0: 4037 9dbc 75a0 1a3d f23d fc3d 1e05 d23d
000001b0: 6e32 853d 8765 843d 9e16 87bd 04f7 983b
000001c0: c079 833d d456 7fbd 194c 69be 89f5 59bd
000001d0: f975 4fbe 21fa cebd 139f 8fbe 62e5 05be
000001e0: 0f71 b33e e279 fe3d 3df3 d8bd dda4 533e
000001f0: 17f6 dabb 571c 26be 3119 0ebe 727d 9fbd
00000200: 4ab9 103e e8ec 6b3e 605b 5dbd 59db cdbd
00000210: 2ff9 bc3d 5ed9 8abc 2858 cabd 7d92 28be
00000220: 5750 e33d f556 52be e2e8 2ebe c7a4 1e3e
00000230: 7ef0 703e d05b 18be 5c18 183e a7c1 03bd
00000240: 03ac 073e cb40 413e 38c3 813d d7a3 afbd
00000250: 9bda a4ba 246c 593e c400 2dbd e243 3dbe
00000260: b251 83bd 5273 2bbd 6497 253e ba0c d33c
00000270: f1c9 9c3c 2b20 47be 8faa 713e 24b0 a73e
00000280: 214f 37be f8b7 fa3d 3999 303e a89c 1bbc
00000290: d551 063e 3509 1fbe eb68 45be e559 dc3c
000002a0: ccba a13d 9abc 16be 3c8a 3ebe 5f8b 1bbe
000002b0: 1f8c 91be a155 94bd e1da f23d fbdc 4cbc
000002c0: 9fd8 393e eb1a 9c3d 66d7 e2bc 4e75 87be
000002d0: dc71 62be fb24 933c 0377 41be 91a4 0c3d
000002e0: 577b 87bd 7a44 1dbe ce37 d13c 8cbd 0bbd
000002f0: 2af0 27be 8c82 eebc e4d2 573e f1a4 c5bd
00000300: 3707 0a3e 5b6f 933d 5ce3 1ebc cf2b 26be
00000310: d50a 65bd aa51 943d ebd3 883e ba70 733e
00000320: 55a4 08be 733f 3dbe 0025 673d bb86 e8bd
00000330: 8c1d 1abe c903 2b3e 62a1 c0bd f652 00be
00000340: 8be7 f9bd 0d10 aebd e895 60be 2f65 fdbd
00000350: f348 15be 04e9 30bd 9a3d 91bc e5cd 013e
00000360: ebcb 9cbd 0c69 16be 5eec 5c3e 4ec6 f33d
00000370: b458 02bd 9e67 c9bd 8adb 6bba c1d9 91be
00000380: 6658 993b b380 9c3c b102 2cbc f7f6 06be
00000390: c5d4 3d3e 5552 2abe 8d51 5a3e 1bc7 563e
000003a0: 6904 663e 4118 483e 7a00 853e a114 aa3e
000003b0: 7053 3e3e 253e 8a3d 3e0a f3bd 58ae e83d
000003c0: 4350 6fbd 1929 023e a936 203e 99b6 e0bc
000003d0: 7105 4abe 2ca9 66bc 0487 28be 3eb3 29be
000003e0: 935c 82bd f346 32be 6380 41be 85a4 0bbe
000003f0: 9036 01be 64b3 d9bd 2acb 86be a1a2 8bbe
0.2868953 -0.16318637 -0.19169605 -0.023152342 0.042466044 -0.09247999 0.025126047 0.18866476
0.014093745 0.0366507 -0.20946947 0.038449477 0.0690905 -0.061135374 0.008594338 -0.25199845
0.18236898 0.23832355 0.26888126 0.039902043 0.056783665 -0.06522281 -0.11610391 0.11913448
0.04023491 0.13876309 0.123210475 0.25086182 0.13832042 0.0039540045 -0.22078641 0.08443278
-0.21098492 0.014368508 -0.24388774 -0.29659894 0.16747463 0.11220041 0.03246898 0.35292003
0.33549735 0.22895043 0.093758635 0.18687698 0.15637916 -0.12825383 -0.08499967 0.17441703
0.08233773 -0.03851091 0.007986541 -0.13857467 -0.16575322 -0.21894987 0.13993937 -0.15519743
-0.12987572 0.0764656 -0.18799552 0.0781442 -0.14392906 -0.25172254 -0.03459572 -0.015354302
-0.006271205 -0.22719125 0.11023826 -0.16239475 0.023459978 0.04378358 0.100342125 0.11153866
-0.014598821 -0.06215779 0.20748031 0.030500418 0.2972776 0.047542777 0.115745366 0.03742228
0.24210002 0.02804295 0.07085538 -0.15765059 0.03016032 -0.040136408 -0.031523213 0.16907683
0.018732067 -0.21115236 -0.19859856 0.066964105 -0.1846806 -0.1175407 0.05245643 0.037646797
-0.019054875 0.110565655 0.19617929 -0.02412551 -0.24737808 -0.21627079 0.082069054 0.1073545
-0.019191384 0.03775068 0.12316503 0.10254882 0.06503759 0.06464677 -0.06596111 0.0046681184
0.06419706 -0.062338665 -0.22782935 -0.053212676 -0.20259847 -0.10106302 -0.28051051 -0.13075784
0.35047194 0.12425591 -0.10593269 0.20668359 -0.006682168 -0.16221748 -0.13876797 -0.07787599
0.14133182 0.23039591 -0.05404222 -0.10051603 0.092272155 -0.016949352 -0.09880096 -0.16462131
0.11099308 -0.20540984 -0.17081025 0.15492545 0.2352924 -0.14878774 0.14853042 -0.032167103
0.13249211 0.18872373 0.06336063 -0.08576172 -0.0012577357 0.21232659 -0.04223706 -0.18482926
-0.064120665 -0.041858025 0.16171032 0.025762904 0.019139262 -0.19445865 0.23600219 0.32751572
-0.17901279 0.122421205 0.1724595 -0.009497799 0.13117154 -0.15530856 -0.19278304 0.026898334
0.07896957 -0.14720383 -0.1860742 -0.15189885 -0.28427216 -0.07242895 0.11858154 -0.012503858
0.1814904 0.07622322 -0.0276906 -0.26456684 -0.22113746 0.01796197 -0.18893056 0.03433663
-0.06615322 -0.15358153 0.025539305 -0.034116313 -0.16400209 -0.029114984 0.21076542 -0.09650601
0.13479315 0.07198974 -0.009697761 -0.16227649 -0.055918533 0.07242139 0.2672418 0.2377347
-0.13343938 -0.18481235 0.05643177 -0.11353823 -0.15050334 0.16700663 -0.09405781 -0.12531647
-0.122023664 -0.08499155 -0.21932185 -0.12372815 -0.14578609 -0.04319097 -0.01772957 0.12676199
-0.07656082 -0.1468851 0.21574542 0.11903058 -0.031822875 -0.098342165 -0.00089972524 -0.28486446
0.0046797274 0.019104337 -0.010498689 -0.13180147 0.18538196 -0.1663297 0.21320172 0.2097439
0.2246262 0.19540502 0.25976926 0.33218864 0.18586516 0.067501344 -0.11867188 0.113613784
-0.058426153 0.1271099 0.15645851 -0.02743082 -0.19728638 -0.01407842 -0.16457754 -0.16572282
-0.063653134 -0.17409877 -0.18896632 -0.13636978 -0.1261847 -0.10629919 -0.26326877 -0.27272514

fc1.bias f4 [300]
00000000: ebda c2bd d99a 353d ae3e e2bd a469 34bd
00000010: dde0 4ebe 81a7 823d 8d0d 0dbe e5b3 203e
00000020: c54b d73d a2d2 e9bd d351 303e db68 56be
00000030: a8b7 673e 2585 553e 3133 dabd 7488 2ebe
00000040: 48d9 eebd 278b 1d3e ed5a 7ebc 618e 1dbd
00000050: dba4 cf3d c60a 42be f92a c1bd 745d 22be
00000060: 6e65 2dbe 71e9 123d fc5f ed3d a613 073e
00000070: 1e17 cfbd ce82 403e 3ec3 4bbe 26be 8dbd
00000080: ccb5 46be c5d5 c3bc 438d e6bd 9477 53be
00000090: 64a0 323d 0339 57bd 3e52 9cbe 7b55 48be
000000a0: 0537 f1bd 9396 2dbe 2971 93bd 8ff3 583e
000000b0: 53d7 2e3e f05e 983c 7b40 3bbd 6859 b73d
000000c0: 1f0c f8bd 71c9 463c 69ef a9bd abac 75bd
000000d0: 3d4c 4cbe 35b4 323e 7b5a c03c 7a73 b1bb
000000e0: d2d0 563e 07da 923d 479a 133d 7ff1 773d
000000f0: 8030 5abe 2e5d 6dbe e760 e4bc dfe9 fdbd
00000100: 9323 01bd 5905 e23c d85a 113e f2d3 3cbe
00000110: fef0 53be d725 f73d 7449 28be 4a2f f33c
00000120: ea53 003e 0c0d 84be f7de 513e 5f52 1ebe
00000130: 267b 13be 4dbb 473d db35 60bd 2ae1 693e
00000140: f68e b4bd dcb9 f2bd a97a 87be af04 76bd
00000150: 310b 563d 5777 c13d 80f6 3d3e e1b4 62be
00000160: a728 4c3d b85a 88bc b810 213e 7bca 52be
00000170: 7860 cebd 3e6a 81bd 0a82 213d bc1f 08be
00000180: fc0d 2a3e d009 363e 4e7c 74be 3520 13be
00000190: 849f 37be d195 4abe 9793 8dbc 58df 333e
000001a0: 1134 9a3d b259 1dbe 5027 2abe ba88 883e
000001b0: 9a51 70be e7ec b03d cd35 1e3e 6092 453e
000001c0: 4b44 24be 07b0 26be 9043 74be 1df5 a7bd
000001d0: 2b0a e2bd 33d8 52be b49f aebe aae6 9f3d
000001e0: 6ad6 2f3e 97fb 193e d2df bcbc 40bc 84bd
000001f0: 6086 4f3e 31c5 e23d 8abd 80be a06d 103d
00000200: 3182 a1bc 9f5f 073e c90c 02be 3d34 44be
00000210: d1fd 553b 6f7d 42be 9ac5 14be ea95 8b3d
00000220: 701e 083e a544 ee3d 1417 063e b337 e43d
00000230: 64f4 1b3e 851e 03be 2071 f6bc 57d5 78bd
00000240: 0441 58be 23b8 f23c fd74 e83d 0711 24bd
00000250: a81a 793d 7ee0 dbbd 6db7 dabc 153c 69be
00000260: 24f7 383e 45c6 c73d 4aaa 113e 3f6d fbbd
00000270: 11b9 83be 666a 9e3b 988a 2d3e 42ef 6dbd
00000280: aba8 38bd c486 563d a53c 103e 203b 803c
00000290: 73e0 76be 4ffa 883d fc66 85be 0fb6 0bbe
000002a0: 6ac2 87bd f74a 9abd 16fd 38be 31b3 afbd
000002b0: 6d43 743b 3ce7 09be 0d5d 673e f56f 04bd
000002c0: baf3 52be fdae 973d 6a7d 3e3e b994 f0bd
000002d0: f39c 83be 4f45 38be c0e0 adbd 5fd5 263e
000002e0: f6a4 4ebe 088f ad3b 4558 17bd a179 023c
000002f0: 75b6 51be d4d5 1abe a238 d2bd 23f2 d33d
00000300: 7c30 263e 8b7f 38bd fa6e 393d e146 fbbd
00000310: ea68 1f3e d4e6 a8ba 9d92 d03d 9a3c 3f3e
00000320: 3122 593e aa60 49be 6505 5e3c af6e 313e
00000330: ef3d f63c 430b d8bd b929 1bbe 4ab9 e9bd
00000340: 32b9 63bd d0a7 2a3e fb40 46be 8cc1 0e3d
00000350: 7797 063d f991 593d 7427 3bbe f655 a3be
00000360: bb39 66bd ae1a 573d 581b 05be 57cd febd
00000370: 74a6 46be 1579 b13d f655 74be 4bdc 253e
00000380: c8d4 473e 9dcb d13d 0315 1c3e 8bed d8bd
00000390: 4538 4ebe f662 193e ea19 353e da5f 4dbe
000003a0: 209e fdbd 9013 20be 1f29 69be f42f 803d
000003b0: e5b8 533e 2182 15be 9023 f53d 6b4a eabd
000003c0: f5ff 8ebd 4c17 3bbe 32f6 8d3d f19e f3bd
000003d0: d54f febd 8b7b 7bbe ae7e 063e 8da6 43be
000003e0: f0c2 913e 4e93 ea3c b1ed a2bd 8986 55bd
000003f0: 8ca7 813c 9af5 5abd 2dfe 643c cfe8 a73b
-0.095144115 0.044337127 -0.110471115 -0.04404606 -0.20202966 0.06379605 -0.137747 0.15693624
0.10512499 -0.11417128 0.17218713 -0.20938437 0.22628653 0.20851572 -0.10654295 -0.1704424
-0.11662537 0.15385114 -0.015524608 -0.03846586 0.101388656 -0.18949422 -0.094320245 -0.15855962
-0.16933224 0.03586716 0.11590573 0.13191089 -0.10111831 0.18799898 -0.19898698 -0.069210336
-0.19405288 -0.023905644 -0.11257412 -0.20651084 0.04360999 -0.052544605 -0.30531496 -0.19563858
-0.11778072 -0.16951971 -0.07199318 0.2118666 0.17074327 0.018599957 -0.04571579 0.089526
-0.12111687 0.012132988 -0.08297617 -0.059979122 -0.19950958 0.17451556 0.023480644 -0.005415377
0.20978096 0.07170492 0.036035802 0.060533043 -0.21307564 -0.23180076 -0.027878238 -0.12398123
-0.031528067 0.02759044 0.1419481 -0.18440226 -0.206974 0.12067764 -0.1643427 0.029685635
0.1253201 -0.25791204 0.2049521 -0.1546111 -0.14402446 0.04876261 -0.05473886 0.228398
-0.0881633 -0.11851856 -0.2646077 -0.06006306 0.052256767 0.094465904 0.18551064 -0.22139312
0.049843457 -0.01664482 0.15729034 -0.20585053 -0.10076994 -0.06319092 0.039430656 -0.13293356
0.16606897 0.1777718 -0.23875543 -0.14367755 -0.17931944 -0.19783713 -0.01728229 0.17565668
0.07529462 -0.15366247 -0.16616559 0.26666814 -0.23468629 0.086389355 0.15450211 0.19294119
-0.16041677 -0.16278087 -0.23853898 -0.082010485 -0.11037096 -0.20590286 -0.3410622 0.078076676
0.17171636 0.1503738 -0.023055945 -0.06481218 0.20266104 0.110727675 -0.25144607 0.035260797
-0.0197154 0.1322007 -0.1270019 -0.19160552 0.0032652507 -0.18993162 -0.14528504 0.06815703
0.13292861 0.11634187 0.13094741 0.11143436 0.15229946 -0.12804611 -0.03008324 -0.06075033
-0.21118551 0.029628819 0.11350439 -0.0400553 0.060816437 -0.10736178 -0.026698792 -0.22776826
0.18063027 0.09754614 0.14225116 -0.122766964 -0.25727132 0.004834461 0.169474 -0.058089502
-0.04508273 0.052374616 0.14085634 0.015653193 -0.24109058 0.066883676 -0.26055133 -0.13643669
-0.066288784 -0.0753383 -0.18065295 -0.085791 0.0037271634 -0.13467115 0.2259409 -0.032333333
-0.20600787 0.07406423 0.18602529 -0.117471166 -0.2570568 -0.17995189 -0.08490133 0.16292332
-0.20180115 0.0052965917 -0.036949415 0.007963569 -0.20479758 -0.15120631 -0.10264708 0.10348918
0.16229433 -0.04504351 0.04527185 -0.122693785 0.15567365 -0.0012886175 0.10184214 0.18675461
0.21204449 -0.1966578 0.013551091 0.17327379 0.03005883 -0.10549023 -0.15152635 -0.11412294
-0.055596538 0.16665578 -0.19360726 0.03485255 0.032859292 0.053117726 -0.18276769 -0.3190152
-0.0562074 0.052515678 -0.12998712 -0.12441509 -0.19399434 0.08665673 -0.23860916 0.16197316
0.19514763 0.10243914 0.1524239 -0.10592183 -0.20138653 0.14979157 0.17685667 -0.20056096
-0.123836756 -0.15632463 -0.22769593 0.06259146 0.20676 -0.14600421 0.11969674 -0.11439975
-0.06982414 -0.18270606 0.06931724 -0.1189555 -0.124175705 -0.24558847 0.13134262 -0.19106503
0.28469038 0.028634693 -0.07955492 -0.052130256 0.015826963 -0.05345688 0.013976616 0.0051241885

fc2.weight f4 [300, 300]
00000000: 5c67 493d 7aa5 03bc 9418 c7bc 0769 3b3d
00000010: c1cc 4f3d 94e0 1f3d b001 293d fe13 8dba
00000020: cd59 563d 12ff 6ebd 1771 f0bc 73c5 e33c
00000030: bc17 c63c 6873 99bc 91cd 3e3d 25eb f6bc
00000040: 6479 143c 490d 203d 4d2b a0bb 1f7d 473d
00000050: 79df 6dbd 9e57 45bc 9d57 bebc 3414 88bd
00000060: 1a65 53bd 317e 3fbd e7ff faba b595 1dbd
00000070: 0af4 00bc cd82 56bb 406d 913c f36e 68bd
00000080: d553 32bc 12e5 53bd 0130 84ba ef00 073d
00000090: 4eac 3cbd 7a7b cd3c ce26 963b 09b4 d13a
000000a0: e2ad 1abd 8a17 1b3c af04 18bd f891 84bd
000000b0: 585d 28bc f107 40bc 178c 34bd 6d4b c4bc
000000c0: 0eb3 1dbd d376 863d 4adc 8bbc a26c 2c3d
000000d0: 8390 fd3c ebe0 df3c 5f5c 88bc 4a11 4fbd
000000e0: 8dc5 86bd 5744 203d c78b 9d3c a634 5b3d
000000f0: 7340 923c bb02 9fbb 6105 003d 58df 893d
00000100: 19fd 03bc 0628 e1bc 9aef e4bc 1b74 073d
00000110: 1d17 493d c234 193d e0bd 54bc bcbc 2c3d
00000120: eeb2 223c 6fb3 923c 9bde 5d3c d444 463c
00000130: 2841 9bbc a532 2d3d abbe ddbc a505 c53c
00000140: 6dd5 573d c2d1 d0bc 3e57 8cbd fa3e 273b
00000150: 3600 9c3c 9817 85bd a49a 8ebc 51b2 8b3c
00000160: 2396 5f3d 77d3 c9bc d03e dd3c bfa7 5d3b
00000170: 0d17 1dbd 432f 343d 81f0 8abd 2bbc ddbc
00000180: 2800 843d 7b68 083c 6663 3d3c 5605 1cbd
00000190: e937 053b df62 4a3c 33b7 22bd 900a 03bd
000001a0: e0fd 23bd 861f cdbc b75e 80bd cfc6 1a3b
000001b0: 1242 0abd 03eb 033d 5e94 d3bc 5764 00bc
000001c0: 039b b7bc 465a b4bb 2d3b b6bc ac1d 5cbd
000001d0: e939 e1bc b61e 55bd 8865 babb 4a10 0cbc
000001e0: 64ac 4ebd 777a 7e3c f4af 0e3d bf73 a7bd
000001f0: 5582 073d a17d c8bc 4f0e 5cbc f0c8 81bc
00000200: f910 a03d dd10 32bd bbcb a73c da19 afbb
00000210: 765a ae3a 4dd1 e23c a608 ca3c 0c44 1a3d
00000220: 72e0 eabb cebd 7c3c ba42 513d 78cb 41bd
00000230: e192 da3b 9693 96bd e06c 083d 1a3d ebbc
00000240: 1ca9 5fbd 1c3b 6dbd c933 493d 9657 8dbd
00000250: 3964 fc3b a2a1 49bd 4268 5bbc dda5 16bc
00000260: fc0b 493d 0dbd 2ebc cd34 5cbd 3a3f 72bd
00000270: f9d9 6cbc a724 48bd fd07 3bbd f61e 3a3b
00000280: 93c5 ef3c ebab 063d d294 13bd 5163 0cbd
00000290: 8d8d 2f3d 6bbc 553d 30b7 7fbd a2c4 2dbd
000002a0: 8547 803c 314b 813c 7782 0fbd 3196 2fbd
000002b0: daf4 46bd f7c7 463b 7e43 81bc 19f0 c53c
000002c0: 946f 36bd e76f 0bbc c305 8a3b ee26 8f3c
000002d0: c3e3 9dbc 1427 9bbc 3b11 ecbb 8bb0 30bd
000002e0: 350b a1bc ba8b 2138 5a36 0dbc eaee 133b
000002f0: 5648 62bc f54b 87bc 3704 50bd 1af4 5fbc
00000300: bf16 f63c b4b9 ab3c 2db6 d5bc 8f79 063d
00000310: 77f1 19bd e2b5 3ebc 0186 12bc dcd6 de3c
00000320: 6627 0c3d a2ce 213d 8268 4dbd 2d12 9d3c
00000330: 24e9 d2bc 62ec 1e3d 8a41 2ebc a28b c33c
00000340: 233f d3bb f0fd b039 fc71 4abd f897 c9bc
00000350: 87c0 85bd ea18 353d 286b 623d bd5d 7fbd
00000360: b3c4 45bd cfa1 5bbc 0e71 5bbd dbce 2e3c
00000370: bd5b aa3c 68e8 02bd 8057 a53c aa98 07bd
00000380: e6fb 953c 0f12 8abc 33b7 8d3c 3c99 08bc
00000390: 468f b5bc 8b56 e9bc 37ad 863c aaf0 553d
000003a0: 37b5 e039 8910 233c eb90 8abc fb77 7f3c
000003b0: 3e61 193d f78b 92bb d859 67bd 2450 e93c
000003c0: 8e8a 56bc 1844 913c 5d00 153b 32c4 123d
000003d0: 455a 7c3c 638a b3bc 58df 153d 0fc0 5fbd
000003e0: 48d1 a4b9 4078 1ebd 8b90 703d a902 9fbd
000003f0: bee5 0f3d c9f6 eb3c ca2c 54bd cea7 abbb
0.049170837 -0.008035058 -0.024303712 0.04575446 0.050732378 0.039032534 0.041261375 -0.0010763404
0.052331734 -0.058348723 -0.0293508 0.027804112 0.02418124 -0.018731788 0.046582762 -0.030141423
0.009062145 0.03907517 -0.0048879744 0.04870331 -0.05807445 -0.012044815 -0.023235137 -0.066444784
-0.05161009 -0.046751205 -0.0019149751 -0.03847285 -0.007870683 -0.0032731772 0.01775229 -0.056746434
-0.010884245 -0.05173213 -0.0010085107 0.032959875 -0.04606276 0.025083292 0.0045822626 0.0015999089
-0.037763484 0.009466061 -0.03711384 -0.06473154 -0.010276161 -0.011720643 -0.044078913 -0.023961747
-0.038500838 0.06565633 -0.017072815 0.042095788 0.030952698 0.027328929 -0.016645608 -0.050553598
-0.065806486 0.039127674 0.01923169 0.053517006 0.017852997 -0.0048526204 0.03125513 0.067320526
-0.008055949 -0.027484905 -0.027946282 0.03306971 0.04909431 0.03740383 -0.012984723 0.04217218
0.0099303555 0.017907826 0.013541843 0.012101371 -0.018951967 0.042284627 -0.027068457 0.024050543
0.052693773 -0.025490645 -0.068525776 0.0025519715 0.01904307 -0.06498641 -0.017407723 0.017052801
0.05458654 -0.024636967 0.02700749 0.0033821908 -0.03835206 0.043990385 -0.06784154 -0.027067265
0.06445342 0.008325691 0.011559343 -0.038091026 0.0020327515 0.012352674 -0.039725494 -0.031992495
-0.040037036 -0.025039446 -0.062680654 0.0023617034 -0.033754416 0.032206547 -0.025827583 -0.007836423
-0.022412783 -0.0055039255 -0.022245014 -0.053739235 -0.027493434 -0.05203124 -0.005688373 -0.0085488055
-0.050457373 0.015532128 0.03483577 -0.08176374 0.03308328 -0.024473967 -0.013431146 -0.015842885
0.07815737 -0.043473113 0.020482888 -0.005343658 0.0013302106 0.027687693 0.024662327 0.03766255
-0.0071678692 0.015426112 0.051089026 -0.047313184 0.0066703414 -0.073523685 0.033306956 -0.028715659
-0.054604635 -0.0579177 0.04912165 -0.06901471 0.007702377 -0.04922641 -0.013391556 -0.009194818
0.049083695 -0.01066519 -0.053761292 -0.05914233 -0.014456266 -0.04886308 -0.045661915 0.0028399802
0.029269015 0.032878798 -0.036030598 -0.034274403 0.042859603 0.052181643 -0.06243056 -0.04242385
0.015659103 0.015782924 -0.03503653 -0.042867843 -0.048573352 0.003033159 -0.015779253 0.024162339
-0.044540003 -0.008510566 0.0042121126 0.017474618 -0.019273644 -0.018939532 -0.0072042025 -0.043137114
-0.019658664 3.851552e-05 -0.008618915 0.0022572824 -0.013811192 -0.016515711 -0.05078527 -0.013669038
0.030040143 0.020962574 -0.026087845 0.03283077 -0.037583794 -0.011640044 -0.008943082 0.027202062
0.03421726 0.0395037 -0.050148495 0.019173706 -0.025745936 0.03879965 -0.010635743 0.023870293
-0.0064467355 0.00033758534 -0.04942511 -0.024608597 -0.06530862 0.044213213 0.055277973 -0.062345255
-0.04828329 -0.013405277 -0.053574614 0.010669435 0.020795697 -0.03195992 0.020183325 -0.033104576
0.018308591 -0.016854314 0.01729927 -0.008337315 -0.022163045 -0.02848365 0.016440017 0.05223147
0.00042859625 0.009952673 -0.016914805 0.01559257 0.037446253 -0.0044722515 -0.056482166 0.028480597
-0.013094557 0.017732665 0.0022735812 0.035831638 0.015402381 -0.021916574 0.03658995 -0.05462652
-0.00031436444 -0.038688898 0.058731597 -0.07764179 0.03513121 0.0288042 -0.051800527 -0.0052385097

fc2.bias f4 [300]
00000000: 90a0 ba3c 34f8 133d 5ef5 82bb dde5 bd3c
00000010: ad55 05bb f23d d03c ef7d c13c 2850 f1b9
00000020: f281 04ba b671 803c bb7e 66bd 027b aabc
00000030: 8271 a1bc 2616 cebc 7c40 bfbc 9ee3 f83c
00000040: edf1 cf3c 950b 1ebd 4158 1d3c 61a2 dabb
00000050: c566 5f3d e21d 3abd eb56 22bd e2f8 273d
00000060: 6e49 2ebc ea16 66bd 497f 80bc 4fea 753c
00000070: 75a3 aa3c fbfe aa3c 1c36 70bb d3ff 58bb
00000080: 7cb0 623c ef48 dfbc e545 073d 7611 5cbd
00000090: 0240 123c b57a 75bd 867a d03c 84f7 fe3c
000000a0: 6e4d 05bd 47a3 d1bc 1362 083d 425e f63c
000000b0: 2f21 01bd a12d d33c bddd 00bd 9d50 1bbd
000000c0: 5f7a 2dbc c163 173d c985 3e3a 59dd a7bb
000000d0: 3928 c13c 9e60 5dbd 376a c13c 0f25 1d3c
000000e0: a52a c53c 74f9 c03c e0d0 ae3c 8400 c63b
000000f0: 3347 61bc b9e5 1a3d 665d 60bd 1dfe b5bc
00000100: ee10 4cbd 08c6 a7bc c930 573c 2e0d 9d3c
00000110: a4f1 823b 141a cf3c d198 63bd 56bf 923c
00000120: 85e9 6cbd 618f d8bc aa17 973b c63d 113d
00000130: 9e15 09bc 5738 2cbc 2123 273c 4596 1c3d
00000140: f425 54bd 6482 923c 9322 213d 29e3 143c
00000150: 07e9 bb3c 5ecc 36bd 194b 2b3d ed03 f33c
00000160: 2c32 353c e5e7 b0bc 6b78 2fbd e35f 823a
00000170: 9c22 59bc ae3e 40bd 603e 96ba b1ca 8d3c
00000180: 9a0e 24bd b069 2bbd c433 a5bc 05b4 ae3c
00000190: 52f5 223d 3c92 bb3a 2df1 b7bc 686d f03c
000001a0: 5cb3 c6bc a8fa 203c 1cc9 64bc f7cf e7bc
000001b0: f8a3 9b3c b684 0a3b 8491 90bc 654d 65bd
000001c0: 081d f03c 6e66 1d3c 0513 e7bb d2f7 e7bc
000001d0: 8a6b 10bd 4a95 813c 5ed0 80bd 2399 42bd
000001e0: 6ac2 26bd 76f2 9a3b 7a9c 083b 9ec2 fd3c
000001f0: 9455 3fbd f115 533c 9417 24bd cccf 5c3c
00000200: aea5 8bbb e533 19bc faf3 433d 2f86 5e3b
00000210: e845 04bd b03b 3bbd 6f53 e1ba 4da6 47bd
00000220: c15d ab3c b317 083d 078a 903c cd35 63bc
00000230: e60c 06bd add3 7ebd 77d9 c93c 9201 68bd
00000240: a773 913c 81c2 443d e1cd 2b3d cd94 e0bb
00000250: 47d0 373d 56b1 86bc 3988 4fbd f695 9e3c
00000260: 0c65 0a3d 5291 e7bb 3074 bc3c 2246 e1bc
00000270: 8077 11bd aa33 c93c 7c80 ac3c 3e2e 09bd
00000280: 5954 403d d01f fd3b b70c 463d 18ef fabc
00000290: 6806 523d b7fc 6bbc 9e30 38bd 7d0e 5b3d
000002a0: fbc7 15bb 97b9 6ebd 991f 2a3d 9dce 5ebd
000002b0: 1212 703c 72a0 273d c50b 983c 3743 223d
000002c0: 0b13 113d 120f 4ebd 1eb6 ad3c 7941 71bd
000002d0: 12c4 beb9 75a8 44bd f35f 313d 522f 73bd
000002e0: 4c6e 36bd 2a4c 333c fdc5 363d b40d bc3a
000002f0: cc2b 62bd 6767 36bc dd68 b9bc f274 113d
00000300: fce8 b93a ee90 2dbd 42bf 4c3c 6ee3 0ebc
00000310: df24 01bd 5310 65bc 9868 d1bc c3d6 00bd
00000320: 1c21 cfbc 5296 0f3d d259 47bd 5363 66bc
00000330: d5c7 943c 9236 c3bc 068a a43c f0d0 cb3c
00000340: de91 62bd 4ae6 37bc 116c a73c 32b8 e73c
00000350: b7df 693d 3a1e c2bc d103 363d df84 343d
00000360: 1ea9 8bbc 43bc 313d a6e0 f63c 2f64 023d
00000370: bb5b c8bb 88b0 4ebd 17ab 483b 9311 60bc
00000380: f38c a0bc 1fe3 84bd 52bd 3ebd 4a47 55bd
00000390: 8055 21bd a196 2bbc c46f 4a3c fa3e af3b
000003a0: 9c2f b7bc 86f7 06bc 66f4 6e3c bbf6 413d
000003b0: c997 a6bc a990 313d 7c0d 68bc e922 de3b
000003c0: 913d 01bb a143 c13c ecdb a63b a3ca e1bc
000003d0: 6a74 06bd c186 0abd 88c6 1abd d085 2e3d
000003e0: d357 d03c c895 acbc bfa0 a8bc ff91 92bb
000003f0: 401f 9f3c ceef c9bc c40a 86bc 74d2 c23a
0.02278164 0.036125377 -0.003996535 0.023180896 -0.0020345256 0.025420163 0.02361962 -0.00046026823
-0.0005054764 0.015679222 -0.056273203 -0.020810608 -0.019707445 -0.025157046 -0.023346178 0.030381974
0.025383914 -0.038585264 0.009603561 -0.006672189 0.054541368 -0.045438655 -0.039633673 0.041008838
-0.010637624 -0.056174196 -0.015685694 0.015009477 0.020829896 0.020873537 -0.0036653345 -0.0033111467
0.0138360225 -0.027256457 0.03302564 -0.05372759 0.008926393 -0.059931476 0.025449049 0.031123884
-0.032544546 -0.025590552 0.033296656 0.030074243 -0.031525787 0.025778593 -0.031461466 -0.037918676
-0.010588258 0.036960367 0.00072678603 -0.0051228222 0.02357875 -0.05404722 0.023610217 0.009591355
0.024068186 0.023556449 0.021339834 0.006042542 -0.013749885 0.037816737 -0.05477657 -0.022215897
-0.049820833 -0.02048017 0.01313419 0.019171324 0.003996091 0.02528099 -0.05556566 0.017913502
-0.05783989 -0.026435556 0.0046109753 0.035459302 -0.00836697 -0.010511479 0.0102012465 0.038229246
-0.051794007 0.01788444 0.039339613 0.009087362 0.022938265 -0.044628493 0.041819666 0.029664958
0.011059325 -0.02159495 -0.04283945 0.0009946789 -0.01325288 -0.046934776 -0.0011462681 0.017308565
-0.040052988 -0.04184884 -0.020166285 0.021326074 0.039784737 0.0014310549 -0.022453869 0.029349044
-0.024255447 0.009825386 -0.013963964 -0.028297408 0.018999085 0.002113623 -0.017647512 -0.055982012
0.029310718 0.009606941 -0.007051828 -0.028316412 -0.035258807 0.015818257 -0.06289743 -0.047509324
-0.04071275 0.0047286106 0.002084522 0.03097659 -0.046712473 0.012883649 -0.04006155 0.013477277
-0.004261694 -0.0093507515 0.047840096 0.0033954491 -0.03229323 -0.04571122 -0.0017191003 -0.04874258
0.020918729 0.033225726 0.017643942 -0.013867808 -0.032727145 -0.06221359 0.024639828 -0.056642123
0.017755343 0.048037056 0.04194439 -0.006853676 0.044876363 -0.016441982 -0.05066702 0.019358616
0.033787772 -0.007066884 0.023004621 -0.027499262 -0.035514355 0.024560768 0.02105736 -0.033491366
0.04695544 0.0077247396 0.04835197 -0.030631587 0.05127564 -0.014403514 -0.04496824 0.053480614
-0.0022854793 -0.05828246 0.04153404 -0.05439626 0.014652746 0.040924497 0.0185603 0.039614882
0.03541855 -0.05030734 0.021205004 -0.05890033 -0.00036385708 -0.048012216 0.043304395 -0.0593713
-0.04453878 0.010943452 0.04462241 0.0014347346 -0.05521755 -0.0111330515 -0.02263301 0.03551192
0.0014183815 -0.042374544 0.012496771 -0.008721216 -0.031529304 -0.013980943 -0.02556257 -0.031454813
-0.025284342 0.035055466 -0.048669644 -0.014061767 0.018161694 -0.023829732 0.020085346 0.024879903
-0.05531489 -0.011224339 0.020437272 0.028286073 0.057098117 -0.023696054 0.044437233 0.04407203
-0.017048415 0.04339243 0.030136418 0.031833824 -0.0061144507 -0.050461322 0.0030619556 -0.013676065
-0.01959846 -0.064886324 -0.04656727 -0.05206994 -0.03938818 -0.010472924 0.012355749 0.0053480836
-0.02236157 -0.008237725 0.014584636 0.04735444 -0.020336049 0.04335085 -0.014163371 0.006779064
-0.0019720534 0.023591818 0.0050921347 -0.027562445 -0.032825865 -0.033819918 -0.03778699 0.042608082
0.025432503 -0.021067515 -0.020584462 -0.0044729705 0.01942408 -0.02465048 -0.016362555 0.0014863745

fc3.weight f4 [5, 300]
00000000: c164 0fbd b12b 2cbd 9139 bc3c 7b0e 0f3d
00000010: c98d e1bc f5cc 86bd 4ed9 903d 21ef 0fbd
00000020: ecc7 75bd 31cd 0ebd 666c 0dbd f8ab 24bd
00000030: a870 f93c 2e49 be3c 7993 1e3d a00a 3a3c
00000040: 4832 e43c 577a 823d 7d5a 723b 25d5 d3bc
00000050: 3c9f 16bd 232d bfbc a313 6c3d e434 183d
00000060: a454 87bc d5f5 123d 9459 b63c 9df9 34bd
00000070: fcf3 6ebd ce0f 8bbc 4c0f 84bd 87b2 673d
00000080: 83b8 44bd ee6f 7fbd 6080 56bd 80c0 01bd
00000090: 0ea4 543c 4704 73bd f76f 27bd 0a4a 1cbc
000000a0: 9e61 953d 3d8a bcbc 91bb 883d c961 36bd
000000b0: a8e5 833c d694 3e3d be34 69bd a15f 68bd
000000c0: 510a 873d c84b 4cbd 5046 9dbd 98ea 8e3d
000000d0: 8516 333d cda0 0bbd 7574 49bd 06b1 48bd
000000e0: bc35 d73c cef1 7bbd b45c 1e3d f45e 5abd
000000f0: 8794 63bb 788a 5ebd a9bd 0dbd b29c ff3c
00000100: 023b 993d 6599 3ebd 03fd 31bc 093c de3c
00000110: d4e2 793d 8161 8cbd 77b2 ddbc fafe 48bd
00000120: e5e0 b5bc af30 143c ec9e 9cbd 2571 493d
00000130: 83ac 3e3d 18e6 243d 7446 873c 1c19 31bd
00000140: 42bc a0bd 43b5 03bd d5e3 8b3d 3c9c 673c
00000150: a5f2 253d 4398 84bc 5ff5 59bb bc83 373c
00000160: 01ab 873c bf41 87bd fd99 d03b d744 cb3c
00000170: d6ef 4c3d 1427 16bd 040d 783a a6b1 3e3d
00000180: 0070 df3c e938 8e3c 5568 3fbd da10 453d
00000190: 3dcb 97bb 9954 bdbc 2162 82bd abc2 953c
000001a0: e800 a8bc f7e1 abbc cac7 e4bc 8c65 353d
000001b0: 19ee 7dbd f742 473d 5137 89bd 8a27 1d3c
000001c0: c593 5b3c ba7b 98bc 863f 54bd 04ad 823c
000001d0: d7d9 30bc 17e7 26bd 2418 1e3b b7fe 82bd
000001e0: a851 173b 6e5b e9bc ec30 5abd bdab 8c3d
000001f0: ec35 58bd 7bff 1e3c 1cf0 943c 4b21 513b
00000200: 64d9 593d b701 6c3d ad06 e9bc f46d db3b
00000210: 9565 aebb ec94 393c 4b31 7f3d 80e5 48bd
00000220: 03ba 6ebd 7f39 dd3c d6ad f93c 75f8 0ebc
00000230: a1b1 8f3d e400 38bd 81b7 a4bc ccb6 013d
00000240: a9d4 bdbc d559 353d 8119 1dbd 8635 32bd
00000250: 99ea 953c c74d bbbb e36c 67bd 234e 4fbd
00000260: 3ee7 24bd 7430 713d eca8 3bbd 5b1f aebb
00000270: ae5e 3b3d 69c0 79bd c0b7 8dbc 2ec8 873d
00000280: 2341 7c3d db66 e3bc 0953 12bd c524 343b
00000290: d2a0 d33c e490 01bc d009 633d 9db6 40bc
000002a0: f4a3 09bc 3d32 2dbd a7ce 7c3d 968d 96bc
000002b0: dc2c 0a3d 5108 8dbb bca5 e2bc 0f68 8bbc
000002c0: c454 5f3d c460 91bd 1042 3b3c 99e5 f03c
000002d0: d1bf 023c 8783 57bd 968b 14bd 7942 fe3c
000002e0: 15e7 88bd f88c 81bd 51d5 5bbc 5db3 03bc
000002f0: 40cd 453d 045d 0e3c 2f27 b1bc 1d08 adbc
00000300: 271b 1c3d 123e cd3c 1547 bbbc c995 69bd
00000310: 327e 753c 40a8 943d 0ec7 7fbd 8837 9b3c
00000320: abf9 24bd 2758 b9bc ccd2 84bc d881 453b
00000330: e26a 94bd c4a8 50bd ebd6 5bbd a954 7c3d
00000340: 0f51 62bd 0fab 98bb a74a 733d 6ac5 253d
00000350: 7c3f 243a adb5 b8bc 3fb5 1b3d 3919 e4bb
00000360: 803e c73c 9fb2 1b3d 8780 fbbc b68f b8bc
00000370: 3615 573c f1bb 233d 17a2 61bd 8243 3fbc
00000380: bfde abbc ecfd 613d e108 c43c 6103 3abd
00000390: 8efe 8e3d 9d35 0ebc 8d84 6b3d d0c5 643c
000003a0: d37e 7cbb 7a82 5d3c fd3b 423d 8914 3b3d
000003b0: bc93 433c d04d 133c 5cd5 12bd 707d 58bc
000003c0: e570 38bd 2732 83bd b032 40bc 2cbc 1fbd
000003d0: 7183 0bbc 16fd 853a 106c c63c 18e3 9e3d
000003e0: 0d9e 7b3d c69a 303d 675f 0abc c537 30bd
000003f0: b065 1abd d5f0 2dbd 86bb 3a3d 17af 803d
-0.035008196 -0.042033855 0.022976669 0.03492592 -0.027533429 -0.06582061 0.070726976 -0.03514016
-0.060005113 -0.034863655 -0.034527205 -0.040203065 0.030449226 0.023228254 0.03871486 0.011355072
0.027856007 0.06370991 0.0036980205 -0.025858471 -0.03677295 -0.023336953 0.057635915 0.037159815
-0.016519852 0.035878975 0.022259511 -0.044183362 -0.05833815 -0.01697531 -0.0644823 0.05656674
-0.048027527 -0.062362604 -0.05236852 -0.031677723 0.012978567 -0.05933025 -0.040878262 -0.009539137
0.072940096 -0.023015136 0.066764005 -0.04452685 0.01610072 0.04652866 -0.056935064 -0.056731824
0.065937646 -0.049876958 -0.07679427 0.06978339 0.04372265 -0.0340889 -0.049183328 -0.048996948
0.02627074 -0.0615099 0.038662627 -0.05331321 -0.003472598 -0.054331273 -0.034604702 0.031202648
0.07481958 -0.046533007 -0.010863545 0.027128236 0.061007336 -0.06854535 -0.027062638 -0.04907129
-0.022201965 0.00904481 -0.076474994 0.04918017 0.04655124 0.040258497 0.016513087 -0.043236837
-0.07848407 -0.032155287 0.06830565 0.01413637 0.040514607 -0.016185885 -0.0033257825 0.0112008415
0.016561033 -0.06604337 0.006366013 0.024813099 0.050033413 -0.03665836 0.00094623887 0.046556138
0.027275085 0.017361121 -0.04673036 0.048111774 -0.004632382 -0.023111628 -0.06366373 0.018281301
-0.020508245 -0.020981772 -0.027927298 0.044286296 -0.061994646 0.048647847 -0.06700004 0.009591946
0.01340193 -0.018613685 -0.051818393 0.01595164 -0.010794125 -0.04074773 0.0024123276 -0.06396239
0.0023089442 -0.02848598 -0.05326931 0.06868694 -0.0527858 0.009704466 0.0181809 0.0031910713
0.053185835 0.057618823 -0.028445566 0.006696457 -0.005322168 0.01132701 0.06230287 -0.049046993
-0.058282863 0.027004955 0.0304784 -0.008726229 0.07016302 -0.044922724 -0.020107033 0.03166847
-0.023172693 0.044275124 -0.0383544 -0.043508075 0.018300341 -0.005716059 -0.056500327 -0.050611626
-0.040259592 0.0588841 -0.045815393 -0.0053137965 0.04574459 -0.060974512 -0.017299533 0.06629978
0.061585557 -0.027759006 -0.03572372 0.0027487737 0.025833521 -0.00790808 0.05542928 -0.011762288
-0.008400906 -0.04228424 0.061720517 -0.01837806 0.033734187 -0.00430397 -0.027666919 -0.017017392
0.0545242 -0.07098535 0.011429325 0.029406356 0.007980303 -0.05261567 -0.036265932 0.031037556
-0.066847004 -0.06325716 -0.013417558 -0.008038369 0.048291445 0.008689169 -0.02162513 -0.021122033
0.038111832 0.025054011 -0.022861043 -0.057027612 0.014983701 0.07258654 -0.062445693 0.018947378
-0.040277164 -0.022625042 -0.016213797 0.0030137207 -0.07246949 -0.050942197 -0.05367176 0.061604176
-0.055253085 -0.0046590636 0.059397366 0.04047147 0.00062655634 -0.022547567 0.038014647 -0.0069610146
0.024321795 0.038012143 -0.030700935 -0.022529464 0.013127616 0.039974157 -0.05508622 -0.01167381
-0.020980237 0.0551738 0.023930015 -0.04541338 0.06982146 -0.008679775 0.057499457 0.013963178
-0.0038527742 0.013519878 0.04742049 0.04567388 0.011937078 0.00899072 -0.035848007 -0.0132135
-0.04502954 -0.0640605 -0.011730835 -0.038997814 -0.008515225 0.001022252 0.02422145 0.077581584
0.061430026 0.043116353 -0.008445597 -0.043021936 -0.037694633 -0.042466003 0.045588993 0.06283396

fc3.bias f4 [5]
00000000: ff42 9b3c 720b bf3c cf7b 253c b81d 1dbd
00000010: 92c2 23bd
0.018952845 0.023320887 0.010100319 -0.03835842 -0.03998048
