model_weights/taxi_weights/model_taxi_SDTW_gamma_1.pt (torch, 395112 bytes, 6 tensors)

fc1.weight f4 [300, 20]
000000 de 72 54 3e f6 58 84 3e 8e bd 1c 3e ca 14 90 bc
       0.20746943 0.25849122 0.15306684 -0.017588038
000010 42 09 24 be 0f 6a 04 3e 47 34 d3 3c 7b 91 5b bd
       -0.16019157 0.12931083 0.025781764 -0.053605538
000020 94 bd 22 3d 60 d4 58 3e 8b 2b 9f bd 86 42 0d 3d
       0.039731577 0.21174765 -0.07771977 0.03448727
000030 20 b5 5e bb f6 c4 13 3e 0b 1e 53 3d 12 a6 77 be
       -0.003398247 0.14430603 0.051542323 -0.24184445
000040 c9 a9 35 bd 1a ab 21 3e b5 a7 89 3c 62 3a a0 3e
       -0.044351373 0.15787926 0.016803602 0.31294543
000050 1e 03 3b be d6 fc 57 be 42 dc 51 bd 14 88 dd 3d
       -0.18262908 -0.21092543 -0.051235445 0.108169705
000060 40 36 b3 3d ba bc 2b 3e 33 73 57 be 3a aa 3b 3d
       0.08750582 0.16771212 -0.21040039 0.045816638
000070 6b e9 b5 3d 5a 30 05 3e 38 cb 8c bd f3 b6 84 3d
       0.088824116 0.13006726 -0.068746984 0.06480207
000080 eb 6f 53 bd 9f 26 58 3d 86 a1 4c 3c 5a ba 39 3d
       -0.051620405 0.052771207 0.012489682 0.045343734
000090 de bd fa bc e4 f4 22 3e a2 2c 35 3d ff 39 a6 be
       -0.030608114 0.15913731 0.04423202 -0.32466123
0000a0 1c 94 8e bd fa 47 49 3e 9a ba fa bc 1a e9 e6 3d
       -0.06961843 0.19656363 -0.030606557 0.11274929
0000b0 4e 98 bb 3c 6c ee 63 3e 52 3d e3 3d 69 17 06 3e
       0.022899773 0.2225892 0.1109568 0.13094868
0000c0 57 ef 0b 3e 1c cd 9c bc 48 ec 4f be f3 00 5d 3d
       0.1366552 -0.019140773 -0.20304978 0.053955983
0000d0 14 06 a6 3d 71 88 0f bc e2 f8 4d 3e b1 0c 86 3b
       0.08106628 -0.0087605575 0.20114473 0.0040908684
0000e0 27 54 3c 3e 71 99 a5 bb 25 cb 8a be 56 10 92 be
       0.18391477 -0.005053692 -0.27108112 -0.28528088
0000f0 ac 32 a1 3e f6 91 6d 3d 48 33 3d 3e 15 de 32 be
       0.31483972 0.058000527 0.18476593 -0.1746753
000100 86 f1 07 be 6a 93 85 3d 24 23 16 3e aa 29 bb 3d
       -0.13275728 0.065222576 0.14661843 0.09138806
000110 35 ee 3d 3d 58 c1 af 3d e8 f5 05 3e 0c 29 b0 3d
       0.04636975 0.08581799 0.13082087 0.08601579
000120 3d b2 d8 3d d1 94 56 be 4a 86 16 3e f3 df 89 3d
       0.10580871 -0.20955206 0.14699665 0.06732168
000130 a0 2e d8 3d 28 b1 55 3b b4 5d 23 3e ce d7 b5 3e
       0.10555768 0.0032606814 0.15953714 0.35516208
000140 33 01 00 be 25 fc 55 3e de 41 55 3e b4 33 79 3d
       -0.12500457 0.20896967 0.20825908 0.060840324
000150 71 43 36 be 72 72 02 be 98 47 b3 3d 3a d1 a7 bd
       -0.17799164 -0.1273897 0.0875389 -0.08194204
000160 0d b5 f2 3c c3 22 ed 3d 19 03 23 be d7 53 8a bb
       0.029627347 0.11578896 -0.1591915 -0.0042214203
000170 89 e2 bd bd 27 3a 8a 3c fb 79 08 be dd 9b 21 3e
       -0.09271724 0.016873432 -0.13327782 0.15782113
000180 a9 ce bf bd e6 34 3b 3e 5d 15 54 3e 34 b1 a9 3e
       -0.09365589 0.18281898 0.20711274 0.33143008
000190 2d 23 24 3e 9b 9c 5c 3e 45 61 1b be 1d b1 09 3e
       0.16029043 0.21544115 -0.15173824 0.1344647
0001a0 1d ff 5c be fb 01 9d bd 4d af cc bd 5d ad d1 bc
       -0.21581693 -0.07666393 -0.099943735 -0.025595361
0001b0 ab d5 38 be 60 e7 6d bd d5 31 3f 3e b2 5a 29 bd
       -0.18050258 -0.058081985 0.18671353 -0.04134626
0001c0 38 5a f0 3d 52 8e e9 3d 11 aa 91 bd 96 cd c6 bc
       0.11735958 0.114040986 -0.07112516 -0.024267953
0001d0 b9 69 2f be 14 af 53 3e eb 53 07 3e c6 5e e6 3d
       -0.17130174 0.20672256 0.13215606 0.11248545
0001e0 4e e9 9c 3e 86 f4 53 3e 82 fa f6 bd 18 af c8 bc
       0.30646747 0.20698747 -0.12059499 -0.024497554
0001f0 34 6e 8e bd ba e0 23 3e a5 87 06 be d4 1a 82 3e
       -0.06954613 0.16003695 -0.13137682 0.25411093
000200 87 b6 80 3c 37 72 27 be 64 6c 95 3d 80 aa 22 3e
       0.015712036 -0.16352163 0.072960645 0.15885353
000210 71 ee 34 be 9e 95 1a be 7b c2 8f 3d 50 1f a4 3d
       -0.17669083 -0.15096137 0.07019516 0.08013785
000220 d7 1b f6 3d 7f 76 98 3d 6e 31 12 3e ee 50 84 3e
       0.12017029 0.07444476 0.14276668 0.25842994
000230 c5 5b 53 be 75 0d c0 3d 8e a4 3a 3d a1 59 ef bd
       -0.20640476 0.09377567 0.045567088 -0.11687017
000240 26 b3 4d bb 98 d1 ea bd 07 6e e9 3d 3e d4 8b 3c
       -0.0031387298 -0.11465758 0.11397939 0.017068978
000250 ae f5 3c be 82 fc ee 3d f6 73 36 3e f7 e6 18 3e
       -0.18453094 0.11669256 0.17817673 0.14931856
000260 59 db ee bd 42 dc ad bd be 3d d5 3d b9 16 c4 3d
       -0.11662931 -0.084892765 0.10412167 0.095746465
000270 51 79 47 be 64 61 cd bd 7e 9e f8 3c d8 fb 96 be
       -0.19479872 -0.100283414 0.030349012 -0.29489017
000280 ba 86 78 3e fb c2 8f bd 26 62 46 3e 55 42 25 be
       0.24270144 -0.070196114 0.19373378 -0.16138585
000290 90 09 4c 3e 1c 33 03 be f2 04 cf 3b 31 e8 3a 3c
       0.19925523 -0.12812465 0.006317728 0.011407898
0002a0 1f bb 1b 3e 5a f7 2a be ae ba 21 bd 38 d7 38 3e
       0.152081 -0.1669592 -0.039484672 0.1805085
0002b0 f9 57 14 be ee ca 16 be fc 13 1e 3e 6f 6f cb bc
       -0.14486684 -0.14725849 0.15437311 -0.02483341
0002c0 eb b2 f0 3d 9e e1 da bc 3c 33 81 3e 22 15 b1 3e
       0.11752876 -0.02671891 0.252344 0.34586436
0002d0 e7 d7 10 3d fd f0 3f 3e 84 02 36 3e a2 73 12 bd
       0.03536215 0.18744273 0.17774397 -0.035754807
0002e0 08 4d 03 be f8 34 af 3d d6 d1 28 bd b2 1a 5a be
       -0.12822354 0.08555025 -0.04121574 -0.21299246
0002f0 3d 7d 51 3e 7f eb 0b be 1e 3e 44 be 9a 71 03 be
       0.20457931 -0.13664053 -0.19164321 -0.12836304
000300 7c 74 1e 3c 48 20 92 3d 38 c3 35 be 8c 76 88 3d
       0.009671327 0.071350634 -0.17750251 0.06663236
000310 d1 1a 22 3e b9 29 85 3e 7e 36 bd 3d 66 fa 9a 3a
       0.15830542 0.26008394 0.09238909 0.0011823892
000320 42 a1 99 be da 25 1d 3e c0 da a1 bd 58 71 22 be
       -0.30005842 0.1534647 -0.079030514 -0.1586355
000330 ef 6e 2d 3e 9d da 6d 3d fc 13 16 be 72 96 e0 3d
       0.16936849 0.058069814 -0.14656061 0.10966195
000340 a0 36 42 be 75 70 35 be a6 9d 13 3e f0 0c 8d 3d
       -0.1896615 -0.1771868 0.14415607 0.06887233
000350 e7 25 38 3e ed 7e 0d 3d 1b 6e 6a 3d 47 b2 53 3d
       0.17983209 0.034544874 0.05723391 0.05168369
000360 c1 dd 6c bd 53 4c 8c bd 5e 0f 68 be 25 d7 98 bd
       -0.05782867 -0.06850495 -0.22662112 -0.074629106
000370 a9 b2 4d be 62 06 8f be b7 1c 4d be 64 5d 47 be
       -0.20087685 -0.27934557 -0.20030485 -0.1946922
000380 78 0b 85 3a a2 82 3d bd f0 68 43 3e 64 2b 02 bd
       0.0010150513 -0.04626716 0.19082999 -0.03177966
000390 88 45 e5 3d 28 da 51 be a1 70 86 3d 59 84 8e bd
       0.11194903 -0.20493376 0.06564451 -0.06958837
0003a0 3b 61 11 3d 75 31 4c be 03 c4 98 bd d3 24 16 3d
       0.035493117 -0.19940741 -0.07459261 0.036656212
0003b0 63 4e 08 3e a7 c7 09 3e 16 25 2b bc 39 53 ac be
       0.13311152 0.13455068 -0.010445854 -0.33657244
0003c0 88 6c 64 bd 2b eb 7a 3d 47 95 c5 3d 80 97 23 3d
       -0.055767566 0.06125943 0.09647613 0.039939404
0003d0 a9 d4 bb bc 1c 5b 88 bd 62 cf 21 3d 39 43 f8 bd
       -0.022928553 -0.06658003 0.039504416 -0.12122197
0003e0 31 0c 42 be 32 bd 22 be 4e c3 5d be 36 3c 3d be
       -0.18949963 -0.15892485 -0.21656534 -0.1848
0003f0 39 ad 2b be e3 20 3c 3d fd d8 f8 3d b2 fb 20 bd
       -0.16765298 0.0459298 0.12150762 -0.039302535

fc1.bias f4 [300]
000000 6e 3b 5d 3c e2 ff c8 bd 34 0d 44 3e a8 9e 7f 3c
       0.013502939 -0.09814431 0.19145662 0.015601791
000010 88 ad fc 3d 4a c3 0c bd 84 14 19 3e 50 c0 5a be
       0.12337786 -0.03436593 0.14949232 -0.21362424
000020 bc 9d 31 3e a9 ae 26 bd ef 48 40 be a4 4b 76 3c
       0.17345327 -0.040693913 -0.18777822 0.015032683
000030 49 30 45 3e 1c 33 ed 3d 03 ee 0d 3e d5 4c 2e be
       0.192567 0.11582014 0.13860326 -0.17021497
000040 dd 6a af bd 73 18 68 3e a5 b7 9c 3d 99 5f 7b be
       -0.085653044 0.22665577 0.07652215 -0.24548186
000050 e9 1b d3 bc 63 ef 4e be c0 ea 0e 3c 90 86 51 bd
       -0.025770145 -0.20208506 0.008722961 -0.05115372
000060 cc 83 82 bd b4 71 2c be 6c f8 4c bd d3 c4 65 3c
       -0.063727945 -0.1684025 -0.0500416 0.014023977
000070 d4 d8 d2 bc 8f be 2b 3e 43 46 9e bd 81 96 a7 bd
       -0.025738157 0.16771911 -0.07728245 -0.08183003
000080 5b 95 8a 3d 6d be 61 be 49 c2 3c be fb e9 d7 3a
       0.067667685 -0.22045298 -0.18433489 0.001647293
000090 18 2e 0c bd 43 a7 84 3d 89 6c dd 3d 4f c0 1b be
       -0.034223646 0.06477215 0.10811717 -0.15210079
0000a0 16 9c 6f bd 9d 93 31 3e db f9 f1 bd 10 09 fa bd
       -0.058498465 0.17341466 -0.11815234 -0.1220876
0000b0 4d cd 4d be d5 75 54 3c 9f b1 5b be 1f 53 42 3e
       -0.20097847 0.0129675465 -0.21454476 0.1897702
0000c0 b1 ed 21 bd 39 dc ea bd e9 4f 96 bd 4a ce 30 be
       -0.03953332 -0.114677854 -0.073394604 -0.17266193
0000d0 30 f3 64 be 77 ce d4 3d 99 9d f7 3b 61 4e 94 3c
       -0.22358394 0.103909425 0.007556629 0.01810378
0000e0 85 7e 18 3e 0c d7 17 be 64 2e 1c be e0 d5 69 bd
       0.14892013 -0.14828128 -0.15252072 -0.057088733
0000f0 30 bf af 3c 10 a0 d5 3d fe 75 63 be d1 fc 3d 3e
       0.02145347 0.1043092 -0.22212979 0.18553473
000100 2f c4 15 3e 58 19 d4 3c 04 6e fc 3c 99 2f 29 3d
       0.1462562 0.025890991 0.030814178 0.04130516
000110 f2 6f b1 3c 05 91 59 3e 4c 4b ee 3d 7c 75 d6 3d
       0.021659825 0.21246727 0.116354555 0.10471627
000120 a0 9c c3 bd 26 e9 c3 3d 17 75 08 be 74 bb 1f 3e
       -0.09551358 0.09565954 -0.13325916 0.15598851
000130 0a 28 a4 3d 80 1a 98 bd 3a 40 67 3d 51 38 51 3d
       0.08015449 -0.074269295 0.056457736 0.051079098
000140 d9 f7 cd 3d 5a ab f8 3b 9c dc 6a be 26 b8 24 3e
       0.10057039 0.007588786 -0.22935718 0.16085872
000150 ad a3 31 bd d6 34 b9 bb 21 8d 71 be f1 f9 a1 bb
       -0.043368984 -0.0056520505 -0.23588993 -0.0049431254
000160 3e 69 13 3e de 9e 40 bc fc 3d 32 be cc d9 51 3e
       0.14395615 -0.011756627 -0.17406458 0.20493239
000170 40 55 85 bd cb d7 ff 3d f7 f9 d1 3d f8 60 33 3e
       -0.06510401 0.12492331 0.10252755 0.1751746
000180 77 90 82 bd c3 1a 5e bd f9 bc de 3d e1 21 ce 3d
       -0.06375211 -0.05422474 0.108758874 0.10065056
000190 c0 36 c4 3d 7f cc 2b be 9c 67 1e be b6 87 3e 3b
       0.09580755 -0.16777228 -0.15469211 0.002907259
0001a0 0d c8 68 be fd 01 6c be 93 b1 71 3e 86 1d 8b be
       -0.22732563 -0.23047633 0.23602895 -0.27170962
0001b0 e4 be c3 bd cc f5 3d ba bc 48 1a be 04 0c dd 3d
       -0.09557894 -0.00072464044 -0.15066808 0.107933074
0001c0 3c 3e 4a bd ee 62 0d 3e e1 c8 92 be d0 1d 31 3e
       -0.049375758 0.1380727 -0.28668883 0.17296529
0001d0 ed 76 6c be e2 e5 55 be 6a bc 6e bd 66 99 0e 3e
       -0.23092242 -0.20888475 -0.058285154 0.13925704
0001e0 90 18 36 be a5 59 08 3e 76 50 20 3d d3 27 4f 3e
       -0.17782807 0.13315447 0.039139234 0.20230035
0001f0 0a ea ee 3c bd 6d d4 3d b7 f7 0d bd 09 9d 26 3d
       0.029164333 0.103724934 -0.034660067 0.040677104
000200 27 e0 59 be 90 e8 3e 3d 94 b1 10 be 22 14 7d 3c
       -0.21276914 0.046608508 -0.1413024 0.015446695
000210 d3 63 25 be b9 61 30 be a5 83 cd 3a e3 d7 b8 bc
       -0.16151361 -0.17224778 0.0015679492 -0.02256388
000220 e1 bf f9 bd 4b ad 01 3e d2 dc 1f be ad c6 05 3e
       -0.12194801 0.12663762 -0.1561158 0.1306407
000230 ee 3d 69 be 2c 76 ca 3b 82 31 18 3e c1 bb f4 bc
       -0.2277753 0.006178638 0.14862636 -0.029874684
000240 00 b7 30 3e 50 47 37 3e 5c 7c 4e be d1 db c7 bd
       0.17257309 0.17898297 -0.20164627 -0.097587235
000250 54 e1 61 be ea 17 3a be 8d 62 0d bd 0e 54 77 be
       -0.22058612 -0.18173185 -0.034517813 -0.24153158
000260 e5 a0 84 bd 95 c5 a1 bc ff e3 75 bd c1 db 7c bd
       -0.06476001 -0.019747535 -0.060031887 -0.06173301
000270 d6 3d eb 3c 15 4b 72 be 13 54 4d be 3c 2b f1 bd
       0.02871601 -0.23661454 -0.20051603 -0.117758244
000280 66 60 5f be 32 ac 76 bd 71 b1 bb bd d3 b7 86 3d
       -0.21814117 -0.060222812 -0.09164704 0.065780304
000290 ef b8 47 be 86 5a ab bd 21 42 1f 3e e5 21 d5 3d
       -0.1950414 -0.08366875 0.1555257 0.104068555
0002a0 18 87 49 bc 03 71 9a be d2 e4 88 3c 0c 94 66 bd
       -0.012300275 -0.30164346 0.016710673 -0.056293532
0002b0 7e e4 8d 3d 4f f6 6c bd d6 4f 67 bd cf 34 c2 bd
       0.06928347 -0.057852086 -0.05647262 -0.09482729
0002c0 ef c0 e2 bd bd 7b 74 bd 9e e1 a5 3d 56 1b 97 bd
       -0.110719554 -0.05968832 0.08099674 -0.07378261
0002d0 2a 4d 69 3e 23 78 5b be a4 c6 77 3b f4 0a 52 3e
       0.22783342 -0.21432547 0.0037807608 0.20511991
0002e0 29 20 f7 bd e8 e9 07 3e 91 b9 94 3d 4f cb fb 3d
       -0.12066681 0.13272822 0.072619565 0.122946374
0002f0 0f 54 77 bd b7 34 58 be 99 3b 72 3d d7 6a 72 bd
       -0.0603829 -0.21113859 0.059138868 -0.05918392
000300 ac b8 ca bb 5f f6 c6 bd 23 a5 5e be c4 28 8c bd
       -0.0061865654 -0.0971496 -0.21742682 -0.06843713
000310 53 2d e1 3d 5e 72 f2 ba b9 73 e3 bd e4 8d e5 3d
       0.10994973 -0.0018497219 -0.11106057 0.11208704
000320 bd f6 5b 3e f2 d7 6b 3b 56 1d 05 3e fe c3 28 bd
       0.21480842 0.0035986868 0.12999472 -0.041202538
000330 30 a0 2e 3e 4e 8f 14 3e b9 e7 6c be a1 1e d1 bd
       0.17053294 0.14507791 -0.2313527 -0.1021092
000340 80 3b 47 bd 92 df ea 3d 8c d8 35 3e 95 0e 9f bd
       -0.048640728 0.11468424 0.17758387 -0.07766453
000350 ff 09 9b 3c 36 76 a9 bd f9 47 8b bc da cc 75 3d
       0.018925665 -0.082745 -0.017002093 0.060009815
000360 be f1 ce bc 0e d7 1f 3e 65 69 31 bd 54 43 47 bd
       -0.025261756 0.1560938 -0.043313403 -0.048648193
000370 c2 21 f4 bc ac 29 04 3d 2d e9 5d be b0 25 18 3d
       -0.029801253 0.032266304 -0.21670981 0.037145317
000380 13 de 39 be a7 b7 6b be ed 79 af 3d 2d 2a 9f bd
       -0.18151121 -0.23019277 0.08568177 -0.07771716
000390 b9 90 bc bd da a9 14 be 83 12 bf bd 04 d1 6f be
       -0.09207291 -0.14517918 -0.09329703 -0.23419577
0003a0 05 80 03 be 06 1d f0 3c 39 39 90 3e ae c6 d0 bd
       -0.12841804 0.029310714 0.28168657 -0.10194145
0003b0 90 33 1d bd b4 75 0c 3e 90 bf 39 bd ea ff 71 3d
       -0.038379252 0.13716775 -0.045348704 0.05908195
0003c0 82 55 06 be 1f 5f a6 3d be 00 d6 3d 5a 57 24 be
       -0.13118556 0.08123612 0.1044936 -0.16048947
0003d0 44 b0 13 be d7 65 14 3e 49 fc 3c 3d 2c 67 27 3e
       -0.14422709 0.14491974 0.046139035 0.1634795
0003e0 5b 1a 14 be 9f 14 d2 bd 2f 95 7c be 10 98 ac 3d
       -0.14463179 -0.102578394 -0.24666284 0.08427441
0003f0 94 93 1c be b8 08 f1 bd 3f b9 c0 bd 8c 80 34 be
       -0.15290672 -0.11769241 -0.09410333 -0.17627162

fc2.weight f4 [300, 300]
000000 4e a9 87 bd e5 07 80 3d f3 38 ba bc aa ca 5b bd
       -0.06624089 0.06251506 -0.022732234 -0.053660072
000010 ad 30 83 bd a1 f5 ad bd 9a 2b 90 bd 3f 6e aa bc
       -0.064057685 -0.084941156 -0.07039566 -0.020804523
000020 d1 82 cd 3b b5 13 3a bd 04 f2 3f 3c 53 2a 4b 3d
       0.006271698 -0.04542895 0.011715416 0.04960091
000030 cf 16 00 3d 4a 63 0e bc 95 bd 23 3d 8a 45 85 3b
       0.031271752 -0.008690665 0.03997572 0.0040671276
000040 04 8b 21 bd 48 aa 84 bc 87 d0 2e 3c da c0 26 3d
       -0.039439216 -0.016194478 0.010669834 0.04071126
000050 9d 89 4a bd 3d ab 38 bd fd a1 65 bc a4 2d 09 3d
       -0.049447645 -0.04508518 -0.014015672 0.033490792
000060 65 3c ed 3b bb 72 6c bc 7e a5 5d bd a5 d9 8a bc
       0.0072398656 -0.014431651 -0.054112904 -0.016949484
000070 98 00 b2 3b c1 44 15 bd 83 32 a2 3d b8 17 87 bd
       0.0054321997 -0.036442522 0.079197906 -0.06596321
000080 ea f3 a5 3d 85 58 99 bd fd b3 3e 3b 39 41 b2 bc
       0.081031635 -0.07487587 0.002909898 -0.021759616
000090 4a 05 74 3d 1f 29 46 3d ae f1 27 3d 8a 64 2f bd
       0.059575357 0.04837906 0.041001968 -0.04282049
0000a0 b6 72 81 3d 29 d2 8c 3d e5 2b 0e bd 2a 60 75 bd
       0.063207075 0.06876022 -0.03470983 -0.059906162
0000b0 56 1d ba bd cc 81 03 3d e2 9a 22 bd 83 2b 66 bd
       -0.09087627 0.032106206 -0.03969849 -0.05619384
0000c0 85 5c a9 bd 34 2e a8 bb 98 1d 6d 3c 0c bb 8e bc
       -0.082696 -0.005132461 0.014472388 -0.017423175
0000d0 a4 6a 86 3d 00 9a 22 3d 76 8d 66 3c 58 c7 b2 3b
       0.06563309 0.039697647 0.014071813 0.0054558925
0000e0 81 0f f7 3c e1 c3 53 bc 4c 7c 67 3c a5 f0 e9 3c
       0.03015876 -0.012925119 0.014128756 0.028557131
0000f0 aa 24 b5 bc 5f 7a 39 bc 06 5b 84 3d 07 47 94 bc
       -0.02211221 -0.011320679 0.06462674 -0.018100275
000100 04 32 65 bd 2e db ab bc b0 25 68 bd 27 02 9e 3d
       -0.0559559 -0.020978536 -0.056676567 0.07715254
000110 43 ab db bd 7d 53 75 3c d9 81 be bb ad 7b 90 bd
       -0.10726025 0.014973518 -0.005813819 -0.07054839
000120 25 aa 4d 3a 17 a7 be bd f9 36 18 3d db 43 31 3b
       0.0007845483 -0.093092136 0.0371618 0.0027048502
000130 19 22 76 3c 9d 86 e5 3c 11 ff 3b bd 9a 28 a6 3c
       0.015022778 0.02801829 -0.045897547 0.020283032
000140 50 30 a8 bb e3 8e f4 bc 75 be 9b 3d 36 52 bf 3b
       -0.0051327124 -0.02985329 0.07604686 0.0058386577
000150 41 cf 8e 3d e1 5f af 3d a3 79 04 bd 55 d0 5e 3d
       0.06973124 0.08563209 -0.032342564 0.0543979
000160 0f c3 ac bd c7 0f 8e 3d ed 55 f7 bc 4e 5b 9d bd
       -0.08435642 0.06936603 -0.03019234 -0.076834306
000170 b7 41 60 3d 4f 36 a2 3c 2f 9e e7 3b 23 32 2d 3d
       0.05475017 0.019801287 0.0070684175 0.042284142
000180 76 04 ab 3d 23 4d 05 bd ba 03 32 3d 59 93 34 bd
       0.0835046 -0.032544266 0.043460585 -0.044085834
000190 cc 90 c7 bd 3d c2 c9 3d 38 d7 d6 bc 32 30 f3 ba
       -0.09744415 0.09851501 -0.026225671 -0.0018553792
0001a0 88 87 2c bd 1d 45 fc bc 03 c1 a1 bd 42 97 a5 bc
       -0.04212144 -0.030794675 -0.07898142 -0.020213727
0001b0 91 60 48 bc 38 de 5d 3d b8 65 b5 bd 22 4d 3a bd
       -0.0122300545 0.054167002 -0.08857292 -0.045483716
0001c0 2e b6 09 bd 2c 24 81 bd d4 cf 28 bb 85 73 22 bd
       -0.033621006 -0.06305727 -0.002575864 -0.03966095
0001d0 21 d9 1f 3d da c9 4e 3d 9e 59 7d 3c 4e 25 02 bd
       0.03902543 0.05048547 0.015463261 -0.031773858
0001e0 59 96 e2 3c 6b f8 46 bc aa 5c 48 bd 09 33 94 bd
       0.027659582 -0.012144188 -0.048916496 -0.07236297
0001f0 53 e9 d2 3c 2a b9 69 bd 02 bc 90 3d e9 fb f5 3b
       0.025746023 -0.05706135 0.0706711 0.0075068367
000200 de b6 37 bd fb 26 a9 3d 24 ee f3 ba 13 c5 ba 3d
       -0.04485213 0.08259388 -0.00186104 0.0911962
000210 95 c6 95 3d fa 84 a8 bc 20 a5 17 bd c3 fa 83 3d
       0.07313267 -0.02057122 -0.03702271 0.064443134
000220 82 3f 30 3c b5 cd 05 bd 4d b5 7c 3c 10 4d 16 3c
       0.010757329 -0.03266688 0.015424085 0.009173647
000230 34 dc e4 bc 34 c4 c9 bb 1e aa b4 3b b6 73 b7 bd
       -0.027937032 -0.0061574224 0.0055134436 -0.08957617
000240 55 f4 af bc 32 b0 c2 3c 6b 4f 0b 3d 02 be 9c bc
       -0.021478811 0.023765657 0.034011286 -0.019133572
000250 b5 a6 67 3c ec 4c cf bd ad 50 17 bd fa e6 84 3c
       0.014138867 -0.101220936 -0.036942173 0.01622342
000260 bd 20 ca bd e8 e6 ab bd 06 1c fb bd 5f 09 1d bb
       -0.098695256 -0.08393651 -0.122612044 -0.0023961884
000270 a4 e7 d9 ba a5 e1 ca bd d4 7d ec bc c6 ce 2c 3b
       -0.001662482 -0.099063195 -0.028868593 0.0026368364
000280 21 da 1c bd e7 3b 26 bc 6e 11 b2 bc 29 bb b4 bd
       -0.03829396 -0.010146118 -0.021736827 -0.088247605
000290 65 e3 3b bb 83 7c 0c bb 7a 02 41 bd cc 2f 86 ba
       -0.0028669473 -0.002143652 -0.047121502 -0.0010237633
0002a0 cd d4 b3 bc 8f 9e ed bc 3a 5f 5f ba 04 08 6b bd
       -0.021952057 -0.02900627 -0.0008520965 -0.05738069
0002b0 9c 4d 8b 3c c2 2d 7b bd cb 40 0b 3d 94 51 75 bd
       0.01700478 -0.061322935 0.03399734 -0.059892252
0002c0 0d 5f 03 bc 95 d7 aa bd 85 64 a2 bd 3b 54 d1 3b
       -0.008018267 -0.083419 -0.07929329 0.006388215
0002d0 e0 55 8b bc 10 fc ce 3c ed b3 04 bc 13 25 84 3d
       -0.017008722 0.025266677 -0.008099538 0.06452384
0002e0 44 ae 43 b8 00 43 a1 3c 8d 95 db 3c 92 c4 bf 3a
       -4.665392e-05 0.019685268 0.02680471 0.0014630726
0002f0 31 43 c3 bb 0b cc cc 3c d6 7a 25 3b 78 18 1e bc
       -0.0059589376 0.024999639 0.0025250218 -0.0096493885
000300 b0 44 de 3c 05 d5 c6 3c 86 b4 ee 3c a5 b6 99 3c
       0.027132362 0.024271498 0.029138815 0.01876385
000310 56 3a 65 3d bb 46 eb 3c 69 6d dd 3c 46 5c 7c bd
       0.055963837 0.02872025 0.02702971 -0.061611436
000320 57 5a 87 3c e3 b8 b6 3b 15 3e 1d bc 1e e8 0b bd
       0.01652257 0.0055762394 -0.009597321 -0.03415691
000330 a8 38 b8 bd 8d 99 2a bd e1 a1 0d bd c2 22 c0 39
       -0.08995181 -0.041650344 -0.034578208 0.0003664699
000340 21 c3 88 3c 62 3c e4 bb 9f 3b a4 bb 6e bd ed bc
       0.016694607 -0.006965206 -0.00501199 -0.029020991
000350 c8 c8 53 3b b8 e7 d6 bc 44 31 64 3c 82 07 10 3d
       0.003231572 -0.026233539 0.013927761 0.03516341
000360 5e c0 ae bc ad 70 7b bb d4 fa fb bc d0 6c b5 bd
       -0.021331962 -0.003836672 -0.030759253 -0.08858645
000370 48 1a 04 bc eb fb 5a 3c 3f 1f 26 3a 57 bc 81 bd
       -0.008062907 0.013365726 0.00063370535 -0.06334751
000380 35 86 4c 3d 6c 45 af 3d 5d a4 31 3d 66 8d 22 3d
       0.049932677 0.08558163 0.04336964 0.03968563
000390 5b d1 b2 bd fa df 24 3c 69 04 84 bd c0 8c 1d bc
       -0.08731338 0.010063166 -0.06446154 -0.009616077
0003a0 24 58 81 bd fa 4c 67 bc e1 d2 ef bd ec a1 ba 3c
       -0.063156396 -0.014117474 -0.11710144 0.022782288
0003b0 59 c0 e3 bb 9f 35 0b bd bb 4e 59 bc 23 a1 3c 3d
       -0.00695042 -0.033986684 -0.0132634 0.04605211
0003c0 1b 84 7c 3c 9e b0 93 3b 31 a2 8a bd 43 77 c8 3c
       0.015412356 0.0045071384 -0.06769217 0.02447093
0003d0 77 7a 86 3d c8 ef 97 bd 91 3d 99 3d 63 46 90 3d
       0.06566327 -0.074187815 0.07482446 0.07044675
0003e0 9e cf 89 3c 29 8b ac 3d 52 f5 a3 3c 96 69 1c bd
       0.016822632 0.0842498 0.020014439 -0.038186632
0003f0 6a d4 13 bd 31 5a e6 3b 11 42 0c bd b2 8a 20 bd
       -0.036091246 0.0070297946 -0.034242693 -0.03919477

fc2.bias f4 [300]
000000 45 44 46 3d 23 f2 50 bd a8 e9 1e 3d 1f d6 6e bd
       0.04840495 -0.05101217 0.03879705 -0.05830967
000010 3f fb de bc b5 9d e1 3c cf 1b 45 3d 83 51 6f 3c
       -0.027219413 0.02754102 0.048122223 0.014606836
000020 03 22 44 3d 00 9d e7 3c 16 6e 01 3d 16 0b f5 bc
       0.047884 0.028273106 0.031599127 -0.029912513
000030 6b cd 8e ba 27 39 6f 39 f9 fc 77 bd ca ea 33 3d
       -0.001089496 0.00022814107 -0.060543988 0.043925084
000040 89 5b 60 bc 2e 16 a6 bc e1 16 93 bc 76 e9 3a 3c
       -0.013693699 -0.020274248 -0.017955245 0.0114082005
000050 53 fb 29 3d b5 98 31 3d 30 8b 1d 3d 51 da 6c bd
       0.041499447 0.043358523 0.038462818 -0.05782539
000060 f8 98 9e 3b fd 6d 12 3d 27 a1 49 3c ea 9b 20 bd
       0.0048400126 0.035749424 0.012306488 -0.03921119
000070 ea 96 32 bd 6d 0c c5 bc f7 8f 44 bd ac ce 37 bd
       -0.043600954 -0.024053777 -0.047988858 -0.044874832
000080 76 bb 74 3d a3 8d 71 3c 56 18 0c 3d 7d e6 29 bd
       0.05974909 0.0147432415 0.034202896 -0.041479576
000090 75 4f aa 3c 7b bd 01 bd c9 76 da 3c cd 05 2c 3d
       0.020789841 -0.031674843 0.02666797 0.04199772
0000a0 77 29 39 3d 19 5d 52 3d ce 78 e4 ba 9d 7f 16 3d
       0.04520556 0.051358316 -0.0017431022 0.036742795
0000b0 c5 c7 48 bd d4 a9 1b 3d 17 de cc 3c e6 0d ae 3b
       -0.04901864 0.038003758 0.025008244 0.0053117154
0000c0 c3 fc 0d 3d 6b 8f 45 3d 80 98 9b 3c 07 24 f8 bc
       0.03466488 0.048232477 0.018993616 -0.030290617
0000d0 7f af 33 bd f5 e5 2d bd 9d 48 2a bd 58 c6 03 bd
       -0.043868538 -0.042455632 -0.041573156 -0.032171577
0000e0 47 ca 4a bb 54 80 7f bc 89 72 c7 3c 35 c3 de 3c
       -0.003094332 -0.015594561 0.024346607 0.027192691
0000f0 0f 22 4f bd c5 ac 3c bc 9d 8c 5f bd 62 ca 93 bc
       -0.05056959 -0.011515801 -0.05457746 -0.01804084
000100 e6 95 a4 bb 3b fa 47 bd 75 e1 24 3d 6d 97 5d 3d
       -0.005022752 -0.048822623 0.040254075 0.05409949
000110 bb 81 5e bd cb b5 14 bd 76 b3 47 3d 08 69 31 bd
       -0.05432294 -0.036306184 0.04875513 -0.043313056
000120 2f 65 35 3d 0c 24 34 bc 50 33 df bb 9c 03 84 3a
       0.04428595 -0.010994922 -0.006811537 0.0010071876
000130 f0 1e 08 3d 11 80 e5 bc c1 36 5d bc b9 b3 63 bd
       0.03323263 -0.028015168 -0.013501824 -0.05559132
000140 ba 8d e3 3c dd 3e 9e bc a7 ec 7e 3d e8 09 5b bd
       0.027777541 -0.019317085 0.062237408 -0.053476244
000150 c4 f7 ab b7 93 11 1d bd 68 a0 27 bc 0b db de 3c
       -2.0500163e-05 -0.03834684 -0.010231115 0.027204057
000160 78 a7 f8 bc e9 57 a4 bc 1b 05 d1 bc 1a 1e 3e 3c
       -0.030353293 -0.02006145 -0.02551513 0.011603856
000170 2b d5 12 3c 5a 71 db 3a 98 c6 08 3d 60 cb 53 bc
       0.008961956 0.0016742155 0.03339252 -0.012926906
000180 6e 94 34 3d 5f fb 98 3c ae 60 4c bd 70 49 73 bc
       0.044086866 0.01867455 -0.04989689 -0.014849052
000190 62 a2 74 3c 09 2c ec 3c 37 7a 9c 3c b5 c1 0a bd
       0.014931293 0.028829591 0.019101245 -0.03387614
0001a0 69 a6 07 3b b1 e8 d1 bc 23 42 ab bc aa 52 94 3c
       0.0020698553 -0.025623651 -0.02090556 0.018105824
0001b0 15 85 f5 3c ba 91 47 3d e4 4d 26 3d 6b 49 7d 3d
       0.029970685 0.04872296 0.040601626 0.061837595
0001c0 f4 e9 13 3d b2 95 05 bb e2 22 d0 bc 3a 33 30 3d
       0.036111787 -0.0020383415 -0.025407258 0.043017603
0001d0 e8 fe b3 bc 04 3d 17 3d bc 36 32 bc 9d 74 f8 3c
       -0.021972135 0.036923423 -0.0108773075 0.030329043
0001e0 53 1b e6 3c a2 c9 41 3d e9 93 a2 bc 18 35 5a bd
       0.028089201 0.047311433 -0.01984592 -0.05327329
0001f0 b1 ae 37 3d 3a bd 56 3c e3 47 9f 3b f1 ee 9b ba
       0.044844333 0.013106639 0.0048608645 -0.0011896772
000200 2b 85 02 3d ae f1 d2 3c bf d7 05 3d 74 f7 07 bd
       0.03186528 0.025750007 0.032676455 -0.033194974
000210 23 f1 01 bd 0b 91 b9 3c 4b a3 43 bd 61 00 01 3d
       -0.031724107 0.02265217 -0.04776315 0.031494502
000220 10 a6 fd 3b ca 23 9b bc f5 bb 40 3d 9d f4 ec bc
       0.0077407435 -0.018937964 0.04705425 -0.028925234
000230 bd 87 01 bd 58 1c 72 3c a0 fe 0b bc e3 4b 94 3c
       -0.03162359 0.0147772655 -0.008544594 0.018102592
000240 7c 8f 81 bd 3e 54 6f bd 7f 6f 51 bd 99 51 33 3d
       -0.063261956 -0.05842995 -0.05113172 0.04377899
000250 1d b2 b8 bc f2 81 82 3b 57 71 81 3d 50 5b 81 bc
       -0.022545869 0.003982776 0.06320446 -0.015790612
000260 2b 39 a9 3b 3e 02 58 bd 6e 48 98 3a 40 e6 61 bd
       0.0051642857 -0.052736513 0.0011618265 -0.055151224
000270 5e e8 6d 3d 3d b7 86 bc 6b 25 4f bd e4 68 35 bc
       0.05808293 -0.016444797 -0.050572794 -0.011072371
000280 4c cb df 3c d8 21 35 bc 3f 2d 96 3c c1 24 e4 3c
       0.02731862 -0.011055432 0.018332122 0.027849557
000290 bb 98 9d 3c 90 3e 93 3c 1b 31 8d 3c 0f 2b 6c 3b
       0.019237867 0.017974168 0.01723533 0.0036036407
0002a0 a7 0d 5a bc b5 d2 46 3d a2 24 ae 3c 0e b6 39 bc
       -0.013308919 0.04854079 0.021257702 -0.011334909
0002b0 5a 72 3e bd f3 d7 34 3d ac e9 0f bd 85 93 3b bd
       -0.046495773 0.044151258 -0.035134956 -0.045794982
0002c0 78 4e 6b bc 51 1b 94 bc e6 e5 6f 3b 96 b6 ff b9
       -0.01436197 -0.018079432 0.0036605536 -0.00048773427
0002d0 67 6c c3 bb 61 5f cc bb 53 bf 1e bd 89 0f e9 ba
       -0.0059638503 -0.006236956 -0.03875668 -0.0017781119
0002e0 a7 72 fb bc 62 c7 38 bd 18 ca 49 3d 40 17 af 3c
       -0.030694319 -0.04511202 0.049264997 0.021373391
0002f0 cd 3b 4c 3d ca a9 3f 3d 71 e3 28 bd 12 d4 6d bd
       0.049861718 0.046792783 -0.04123253 -0.058063574
000300 e8 53 00 bd 78 b3 1c bc a1 0a 1d bd 3b 23 ce 3c
       -0.03133002 -0.009564273 -0.038340215 0.025163284
000310 9f 99 a3 bb 18 95 25 3d b4 f5 39 ba c0 d7 a1 3c
       -0.0049926783 0.04042539 -0.00070938026 0.019756198
000320 04 35 69 bd b8 15 b5 3c 92 32 16 3c c2 1b eb bb
       -0.056935325 0.022105083 0.00916733 -0.00717494
000330 9f a0 5e bd 79 b8 3b bc e5 da 49 3d 9e 2a b1 3b
       -0.0543524 -0.011457556 0.04928102 0.0054066917
000340 20 26 31 bd 29 8e 37 3d d2 36 46 bd 29 bb 8e 3c
       -0.04324925 0.04481331 -0.048392124 0.01742323
000350 3f 32 45 bb b4 26 5a bd 7e c1 af bc f5 81 33 3d
       -0.0030089763 -0.053259566 -0.021454569 0.04382511
000360 77 f1 19 3d 4b a2 ac 3c 48 b6 da bc 25 6b 4b bd
       0.037583794 0.021073481 -0.026698247 -0.049662728
000370 a9 b0 33 bd 12 3c 34 3d 14 f0 5c 3d 98 df 2a 3d
       -0.043869648 0.0440026 0.053939894 0.041717142
000380 ce 37 68 3d d0 01 ed bb a9 d8 e4 bc 71 2c 96 bb
       0.056693844 -0.007232882 -0.027935343 -0.0045829345
000390 34 8c 01 3d 7d 85 20 3d 0f 03 51 bc 4a 21 8d bc
       0.03162785 0.039189804 -0.012757077 -0.017227788
0003a0 87 83 86 3d 5a b2 17 bd bd 2c 9b bc 5c 19 27 bd
       0.065680556 -0.037035324 -0.018942231 -0.04079567
0003b0 f6 2e 56 bd 5a 0c 00 bd ae ad 05 bd 5e 4c 2e bc
       -0.05229088 -0.03126178 -0.032636337 -0.010638325
0003c0 34 5f 1f bd c0 81 46 3c af 4e 27 3d 82 15 ae bc
       -0.038909152 0.012115896 0.040846523 -0.02125049
0003d0 bf f0 34 bd 04 4b 06 bd 1d 53 e8 3c 3c b5 bf bc
       -0.044174906 -0.032786384 0.028359944 -0.023401849
0003e0 88 c8 20 3d 88 11 41 bd 24 36 04 3b 45 ca 71 bc
       0.03925374 -0.04713586 0.0020173872 -0.0147576975
0003f0 ab e0 c9 bc 3e e6 3e bb e3 81 15 3d 68 b8 39 bd
       -0.024643263 -0.0029128934 0.036500823 -0.04534188

fc3.weight f4 [5, 300]
000000 66 c9 7a 3c 12 e8 a9 bc 79 c4 50 3d 41 2c b8 3c
       0.015306806 -0.020740543 0.05096862 0.02248204
000010 6b 45 17 bd 09 34 4d 3d 21 97 7a bc 68 3c 32 3d
       -0.036931437 0.050098453 -0.015294821 0.04351464
000020 90 6f 9b bd bb 85 67 bc c2 68 75 3d b8 f6 18 3b
       -0.07589638 -0.014131005 0.059914358 0.0023340415
000030 d5 d1 08 bd aa f4 48 3c ac 88 98 bc dc 8c 60 bd
       -0.033403236 0.012265364 -0.018619858 -0.054821834
000040 84 f7 92 3d 70 f5 f8 3c 64 24 18 bd f4 94 a4 bc
       0.07176116 0.030390471 -0.03714408 -0.020090558
000050 7e 2e 1e bd 49 98 d3 3c f8 ab 46 3d 1c 38 0a bd
       -0.038618557 0.025829451 0.048503846 -0.033744916
000060 0d 8e 87 3c bd c9 9f 3d 1b f7 77 bd 90 32 3c 3d
       0.016547227 0.078021504 -0.060538393 0.045946658
000070 76 1a ce bb 1b e2 83 3c b3 60 1a 3c 46 ce fb 3c
       -0.0062897755 0.016099026 0.009422469 0.030738007
000080 8e 75 45 3d e0 e9 ef 3c 15 2f 83 bd 18 aa 8f bd
       0.048207812 0.029286325 -0.064054646 -0.07014865
000090 a6 85 a5 bc aa 73 0a bd 01 4f 23 3d c8 97 79 bd
       -0.02020533 -0.033801712 0.039870266 -0.060935766
0000a0 ad 85 89 bd 4b 5b 8d bd 1a 2b 29 bc f2 f8 6f bc
       -0.0671495 -0.069021784 -0.010325218 -0.0146467555
0000b0 cc 5a 49 bd d1 d9 63 bc ad 30 e8 3c 23 60 02 bd
       -0.049158856 -0.013906912 0.028343523 -0.031829964
0000c0 d4 41 90 bd 6c a9 20 3d b1 e5 76 3d 94 16 5e 3d
       -0.07043806 0.039224073 0.060277645 0.05422075
0000d0 f1 87 0d bc 54 70 80 3d db c9 65 bd 81 b9 1c 3d
       -0.008638368 0.06271425 -0.056100708 0.038262848
0000e0 c7 a9 04 bd 42 00 1b bd 5d ce 3d 3a e9 b2 25 3d
       -0.032388475 -0.037842043 0.00072405284 0.040453825
0000f0 07 f5 dd bc 5f 69 71 bd 31 cd 8d bb 20 8f 52 3d
       -0.027094377 -0.05893838 -0.0043274392 0.051406026
000100 f8 f3 86 3c 5d 11 ec 3c 79 72 3e bd 97 a0 29 bd
       0.016473755 0.028816873 -0.04649589 -0.041412916
000110 8a a8 8a 3d 19 3f c3 bc ef a5 87 3d 02 20 00 3d
       0.067704275 -0.023833798 0.06623446 0.031280525
000120 81 ce 1c bb 9d a2 9f bd 6e 86 a4 bc 1b 01 1e 3c
       -0.0023926797 -0.07794688 -0.020083632 0.009643818
000130 b2 b3 26 3d 9a 02 52 3d 66 fe f3 3c 2c 17 31 bc
       0.040698715 0.051272012 0.029784393 -0.010808747
000140 20 54 e7 bc ae c2 09 bd 33 2f 46 bd ea a9 24 bd
       -0.028238356 -0.033632927 -0.048384856 -0.040201105
000150 43 b6 1c 3d 1a fa 9d 3d 3c 4c 9a bd 25 5c a3 bc
       0.038259756 0.07713719 -0.07534072 -0.019941399
000160 16 7a 36 3b e7 86 7f bd b5 64 71 bd c0 c0 74 bb
       0.0027843765 -0.062384512 -0.058933932 -0.0037346333
000170 eb ae 66 bc 42 bc 09 3d 85 9b 80 bc 04 d9 1c 3d
       -0.01407979 0.033626802 -0.015699157 0.0382929
000180 63 1d 86 3d f8 8d 65 bd b3 c2 41 3d 82 54 76 3d
       0.06548574 -0.056043595 0.04730482 0.060139187
000190 0a a5 14 3d f9 39 83 3d cc 8e 6f bd d8 cf b5 3c
       0.036290206 0.06407542 -0.05848579 0.022193834
0001a0 97 a8 5b 3d 94 2b 83 3d 00 86 8c bc e6 a3 23 3d
       0.053627577 0.06404796 -0.01715374 0.039951228
0001b0 78 cb 16 3d 37 20 5c bd 0f 68 35 bc f8 f1 71 3d
       0.036815137 -0.05374166 -0.011072173 0.05906865
0001c0 eb bd 7c 3d 5b 07 43 3c 98 5b 42 bd 13 de 88 3d
       0.061704557 0.011903609 -0.04745063 0.06682982
0001d0 52 1c 9b 3d 8b 65 f8 bc 62 11 9a bd 60 ff 85 3d
       0.07573761 -0.030321857 -0.07522847 0.065428495
0001e0 f5 96 0f bd 5a 94 47 3d 57 7b 84 3d 99 3c 58 3d
       -0.035056073 0.048725463 0.06468838 0.052792165
0001f0 9b 94 8c 3b db b9 6c 3d fb a3 0b bd 1f 73 b0 bc
       0.004290176 0.057794433 -0.03409193 -0.021539269
000200 bd dc 3f 3d d7 6a 3d 3d 9f 15 97 3b ee b7 b3 bb
       0.04684137 0.04624447 0.0046107317 -0.0054845726
000210 ea fd 73 bd ed 76 3a bd 6b 60 22 bc b4 5f 5d bc
       -0.059568323 -0.045523573 -0.009910683 -0.013511587
000220 8f 34 3e bc 8b d7 6a 3d 99 e8 9a 3d 47 d4 80 3d
       -0.011609211 0.057334464 0.07563896 0.06290489
000230 1d 3b 85 bd de b4 73 3d 04 f5 5d bc 3b e1 40 bd
       -0.065054156 0.05949866 -0.013547186 -0.047089797
000240 8c 9b d3 3c 8a 8c 34 3d 16 ac 53 bc 9a e1 16 3c
       0.025831006 0.04407934 -0.012919446 0.009209061
000250 24 e9 86 bd 72 fd 40 3d d3 91 13 bc 95 1a 58 3d
       -0.06587437 0.047116704 -0.009006935 0.052759726
000260 8b 91 29 3d 28 ed 70 bd 96 04 93 bb de a3 67 bd
       0.041398566 -0.05881992 -0.0044866307 -0.05655276
000270 fb be 29 bd cc 8e 87 bd dc d5 8c 3c b9 84 0e 3d
       -0.0414419 -0.06619033 0.01719182 0.034794543
000280 36 b8 03 bd fa 4a 89 bd b4 ed 5a bd 0e 46 19 bd
       -0.0321581 -0.06703754 -0.053449348 -0.037420325
000290 b4 0a ea 3b 14 0b 8d 3c e8 61 6d 39 c7 48 22 3d
       0.007142389 0.017217197 0.00022638554 0.039620187
0002a0 0b 1e 6b bd 4b b0 3c bd ad d0 bc bc 82 a4 d3 3c
       -0.057401698 -0.046066564 -0.023048723 0.02583528
0002b0 d8 1f e9 bc 57 da 48 bd 3c 8d 04 bd c2 bf 8e bd
       -0.028457567 -0.04903635 -0.032361254 -0.06970169
0002c0 d5 9b 85 bd 7d e8 b5 bc 39 a4 31 3c 60 4b 05 bd
       -0.06523863 -0.022205586 0.010842376 -0.032542586
0002d0 58 e2 38 3d 5e d2 c9 3c 8b 14 f8 bc 05 59 5e 3d
       0.045137733 0.024636444 -0.030283233 0.054284114
0002e0 c2 81 08 3d 13 87 d2 3c a3 0d 96 bd 8e 36 16 bd
       0.03332687 0.025699174 -0.0732682 -0.03667312
0002f0 91 5b e4 bb ef 95 0b bd d1 0f 91 bb b6 eb 85 bd
       -0.0069689234 -0.034078535 -0.0044269343 -0.06539099
000300 49 97 16 bc 94 88 cf bb 35 ed 39 3d c2 bd 8a 3d
       -0.009191343 -0.00633342 0.045392234 0.06774475
000310 9a ca 39 bd ac 09 0f bd 0b a4 89 3d e2 61 cd bc
       -0.04535923 -0.034921333 0.06720742 -0.025071088
000320 7c fa 0e bd 77 d2 53 3d 58 79 51 3d d8 4d 1e 3d
       -0.03490685 0.051714387 0.051141113 0.038648456
000330 26 fa 31 3d 4a 26 44 bd 1b 9c 17 bd 86 f2 33 bd
       0.04345145 -0.047888078 -0.03701411 -0.04393246
000340 7e 17 e8 3c dd d3 89 bd 9d 05 29 bd d5 b3 28 3d
       0.028331514 -0.06729863 -0.04126512 0.041187126
000350 16 73 22 bd 77 1a 05 bd 9a d8 2f 3d e5 c2 0c bd
       -0.039660536 -0.032495942 0.042931177 -0.034365553
000360 68 47 52 bd 64 a1 1a 3d 6a af ee bc 86 e1 7f bd
       -0.05133763 0.03775157 -0.029136378 -0.062470935
000370 ec 8b b3 bc 6a 30 5d 3d 0d f0 27 3d f4 15 2f bc
       -0.021917306 0.05400125 0.041000415 -0.010686386
000380 2a 17 82 3d 7a 7c 33 bd c7 91 77 bd bc 33 e1 3c
       0.063520744 -0.043819882 -0.06044176 0.02749049
000390 d1 b4 48 3d 73 87 3e 3d 79 63 28 3d 55 0e 6e bd
       0.049000565 0.046515893 0.04111049 -0.058119137
0003a0 e1 ed 0b 3d 10 1d 7e 3d f7 5a da 3c ca 9f 5c bb
       0.034162406 0.062039435 0.026654704 -0.0033664578
0003b0 1d 7b 4e bd 9f 24 23 bd d8 05 88 3d af 5d 96 3c
       -0.05041038 -0.039829846 0.066417396 0.018355219
0003c0 60 df 85 bd c6 8c 6c bd ad af 34 bd 3a b1 f0 bc
       -0.06536746 -0.05775144 -0.04411285 -0.029381383
0003d0 ee 69 13 bc 12 fe 91 bd 36 3e ad 3b f5 36 4e bb
       -0.008997424 -0.07128538 0.005286957 -0.0031465862
0003e0 45 c9 2d 3d 98 1f 9c 3b 45 17 a1 bd 77 c9 88 3d
       0.042428274 0.0047645085 -0.078657664 0.06679051
0003f0 ca 6b 9a bd 2d 2c 9a 3b f0 98 56 3d ce bd 36 bd
       -0.075400904 0.004704973 0.052391946 -0.044614606

fc3.bias f4 [5]
000000 77 36 57 ba d1 a2 96 bc 74 b2 43 3d 82 3e a0 3c
       -0.0008209715 -0.018388184 0.047777608 0.019561056
000010 b1 10 6e bd
       -0.058121387
