model_weights/taxi_weights/model_taxi_SDTW_gamma_1.pt (torch, 395176 bytes, 6 tensors)

fc1.weight f4 [300, 20]
00000000: eedd 8b3c 7de3 a43b 2eff 56be 1bd4 4a3e
00000010: 0f97 283e 7e67 a03d ec51 5dbe 0844 44be
00000020: a94c 6a3c fc61 163c a226 243e 320f 28bc
00000030: 4068 26be 1c4f 9d3c 51f5 203e 87c4 82bd
00000040: 731f 37bd 8bf2 afbd e9f7 55be 1772 2abd
00000050: 74f2 8d3d d66e 343c 1092 3dbd 7f58 c43d
00000060: aba9 dc3d e77a 2ebe 9c35 cfbb da5a d3bc
00000070: cd25 dfbd 58c4 33be 044a 373d 9b22 673e
00000080: b3bb 36be d178 b03d a8ab 18be b8b4 6a3d
00000090: e3a7 25be fa0c 523e 27fe e73d 01fc c73d
000000a0: 528a 923d bb70 74bd cd3d 653d e675 0f3e
000000b0: 46d6 81bc 1f56 c93d 0c05 45be 4d71 883c
000000c0: 4a80 02be a59b c53d 7a35 743d d386 97bd
000000d0: b210 323e d970 703e 0a24 01bd 5d19 de3d
000000e0: c582 753b 7f22 ebbc 85ff c6bd f8cf f03c
000000f0: a67f 833d 3c20 87bd f317 00be 78ec 0dbe
00000100: 6dbe 61be 02f8 22bc 9ae2 39be 40be e9bd
00000110: 8d94 ae3d a2e9 d1bd 523f 27bd 976f 143e
00000120: 0278 34bd cc8e dbbd a8ff f7bd 21b6 38bc
00000130: 37af 743c beff 80bc c806 ddbc 32c5 1c3e
00000140: 58f9 36be d6d6 f93b 032e 193e 0b8b 00be
00000150: 35e9 17be a987 b3bc 9ffe c5bd 7401 90bd
00000160: dd35 17be 265b 003e 2983 96bd 22c2 8c3d
00000170: 0199 d3bd 886e b03d 94cd b83d 3192 01be
00000180: c36a 64be b61c 61be 2b11 e1bb 47f0 513e
00000190: 1f48 ea3d 7589 093e 113d c0bd 06a8 443e
000001a0: 07d9 3bbe aeee 83bd d56a 0d3e e0d8 20be
000001b0: 8e7a 09be 7739 153e db19 84bd f734 f63d
000001c0: 4b8a 09be c0ad fdbc 5c5d d73d ad15 95bd
000001d0: 24f4 193e 32be 0d3e 0150 c43d d990 3b3e
000001e0: cc80 55bd 7c1d c4bc 2d3a 9e3d 3c66 1bbe
000001f0: f689 723d 5363 f5bd 9904 37be a4a3 4cbe
00000200: 417b aa3d cc13 4bbe e1ce 02bd e1e8 f83d
00000210: 4c05 c7bd 25a4 533e 5828 fb3c 1260 4fbe
00000220: 4cef ea3d 0ca8 52be d3e9 5bbe c668 21bd
00000230: 7752 1c3e fb86 0f3e d235 1f3e 3ca8 213e
00000240: 5185 993d 41ee b5bd 1154 8b3d 6517 c4bd
00000250: 03d0 443e b31e 01be 4f5d f9bd 24e4 333d
00000260: 6b22 4fbc 4dc4 ea3c bb12 a43d 0f7b 29be
00000270: b584 583e ecf6 433e 77d1 2fbe 1e26 4b3e
00000280: ecc2 0c3e bf92 913d a0e7 c4bd 0589 843d
00000290: 721c 08be 1d60 cbbc 4435 2b3e b39a 1bbe
000002a0: baf0 173e 551f 78bd 5f59 45be 99b9 b7bd
000002b0: a9c4 703e 1d02 abbd 2da6 23be 9d62 2b3e
000002c0: 921f ae3b 22d8 123e 04b8 773e df4c 363e
000002d0: dc14 23be 8cb7 713e c04a 8cbd bce6 733e
000002e0: ae2f c83d 6755 16bd 110d db3d e2ac 1b3c
000002f0: 9359 0c3e 9506 d6bd 5822 fc3c da94 b9bd
00000300: 4319 993d fb26 4a3e ebc3 ebbd 22f1 ee3c
00000310: dcb5 423e 6550 1ebe 1107 17be 304f 81bd
00000320: 6e6a bc3d 5f0b 383e d7a3 04be 7084 cabd
00000330: 979c 0abe 2a44 9bbd 5f69 fdbd 44c8 f9bd
00000340: fdab 093e 1a2b c23d aaa0 963c 2669 7c3e
00000350: becd 3f3e bb28 59bc 33f8 80bd 6417 bcbd
00000360: d7e6 3bbe 978b 9c3d bd76 2fbe 72b9 393e
00000370: 78d7 9e3d f3ca 6c3e 50de 0a3e 6d6c 16be
00000380: e092 41be ebae 05be d968 f2bd f680 8d3d
00000390: d7f4 533d 2b9b 32be f0ed 15bd c192 6c3e
000003a0: c74a fcbd 66dc a2bc 1fd9 4d3d 16b5 0f3e
000003b0: c7aa 093e 57f6 39bd d8ec f63b a308 673e
000003c0: ad67 0dbe 42bb 9ebd 433a 543b 696a c0bd
000003d0: bc01 43be 0fd9 33be 3995 9fbc 974d ba3d
000003e0: c7a2 193e 08f9 ec3d b7b5 5dba e8e1 593e
000003f0: bfe3 553e b290 68bd 4e9b 2ebe ffab e3bc
0.017073598 0.0050320015 -0.20995781 0.19807474 0.16463874 0.078322396 -0.21613282 -0.19166577
0.014300504 0.009178635 0.16030362 -0.010257529 -0.16250706 0.019202761 0.15718581 -0.06385141
-0.044707727 -0.08591183 -0.20895351 -0.04161271 0.0693101 0.0110127535 -0.046281874 0.09587192
0.10774549 -0.17039071 -0.0063235294 -0.025800157 -0.10895882 -0.17555368 0.04474832 0.22571795
-0.17845039 0.08616794 -0.14909232 0.057301253 -0.16177325 0.20512763 0.113277726 0.09764863
0.07155289 -0.05967782 0.05596714 0.14009818 -0.015849244 0.098308794 -0.19240206 0.016655589
-0.12744251 0.096488275 0.05962131 -0.073987626 0.17389181 0.23480548 -0.03152851 0.108446814
0.0037461978 -0.028702972 -0.09716705 0.029396042 0.064208314 -0.06597945 -0.12509136 -0.13859737
-0.22045298 -0.009946825 -0.18152848 -0.114132404 0.085244276 -0.1024964 -0.04083187 0.14495693
-0.04405976 -0.10720596 -0.121093094 -0.011273892 0.014934353 -0.015746947 -0.026980773 0.15309599
-0.17868555 0.0076244874 0.14958958 -0.1255304 -0.14835055 -0.021915274 -0.09667706 -0.07031527
-0.14766641 0.1253477 -0.073492356 0.068729654 -0.103319176 0.08614832 0.09023586 -0.12653424
-0.22306351 -0.21983609 -0.0068685017 0.20501815 0.11439537 0.13431342 -0.093866475 0.19204721
-0.18344508 -0.06442009 0.13810284 -0.15707731 -0.13425657 0.14572702 -0.06450244 0.12021821
-0.13431661 -0.03096664 0.10515854 -0.07279525 0.15034539 0.13842085 0.09585572 0.18316974
-0.052124783 -0.02393984 0.0772594 -0.15175718 0.0592136 -0.11981835 -0.17872848 -0.19984299
0.0832429 -0.1983177 -0.031935576 0.12153793 -0.09717807 0.20668085 0.030658886 -0.20251492
0.114714235 -0.20571917 -0.21475916 -0.03940656 0.15265833 0.14016335 0.15547875 0.15786833
0.07496131 -0.08883334 0.06803144 -0.09574775 0.19219975 -0.12609367 -0.12176 0.043918744
-0.012642483 0.028658057 0.08011385 -0.1655085 0.21144374 0.19137162 -0.17169748 0.1983876
0.13746232 0.07108068 -0.096144915 0.06471447 -0.13292101 -0.024826104 0.16719538 -0.15195732
0.14837924 -0.060576756 -0.19272374 -0.08970947 0.2351252 -0.083500125 -0.1598136 0.16736837
0.005313822 0.1434026 0.2419129 0.17802761 -0.15925926 0.23605174 -0.06850195 0.23818487
0.09774719 -0.03670254 0.106958516 0.009501668 0.13706045 -0.10450474 0.030778095 -0.09061594
0.074755214 0.19741432 -0.11511978 0.029167715 0.19014686 -0.15460356 -0.1474879 -0.06313932
0.09199987 0.17973088 -0.12953125 -0.09888542 -0.13536297 -0.07581361 -0.123736136 -0.12196401
0.13444515 0.09480877 0.018387157 0.24649486 0.18730828 -0.01325434 -0.0629734 -0.09184149
-0.18349777 0.07643812 -0.17135139 0.18137148 0.07755941 0.23124294 0.13561368 -0.14689799
-0.18903685 -0.13055007 -0.11836404 0.06909363 0.05174717 -0.17442004 -0.036603868 0.23102857
-0.1231895 -0.019880485 0.05025589 0.14033923 0.13444053 -0.045400944 0.007535558 0.22561888
-0.1380908 -0.0775056 0.003238336 -0.09395296 -0.1904363 -0.1756327 -0.019480335 0.0909683
0.15003501 0.115709364 -0.00084575586 0.21277583 0.2088766 -0.056778617 -0.17051432 -0.027791975

fc1.bias f4 [300]
00000000: f0e7 563e 6831 d43d 0853 643e b3d5 1ebe
00000010: e559 5c3e 1e48 6a3e c882 d63d c10f 333d
00000020: ca09 ed3d 0b1b adbd d05c 2bbe 93b9 b5bd
00000030: 07a2 b0bd eb11 4c3e d6a1 993d b06f ebbd
00000040: 7564 5b3d 423e 253d 0437 40be 248d 9a3d
00000050: cb33 623e 3974 643a 3678 603e df33 323b
00000060: 19ed 10be d87c 1aba 6100 3bbe 715a 443e
00000070: 788b cbbd da21 1bbe d580 273e 66a7 f53d
00000080: e14f 413e 472e 9c3d da4f 103e 952b 433e
00000090: 52be 5fbe cd03 11be 317e 773d dd85 6dbb
000000a0: 42ef 53ba ed66 8f3d 8d19 0e3e 1720 0f3e
000000b0: 466e 1a3e 7c23 603e b131 21be e7b3 9c3c
000000c0: 6a38 253e 6490 50be fde2 263e 9960 57be
000000d0: 89a8 85bd 7ab8 573e 08cc 0f3e 3b7d a7bd
000000e0: ca3f ab3d cc8f 2bbe f7fe 5a3d e96e c43c
000000f0: c797 0b3e 67f7 29be d18d b1bd bbde 74bd
00000100: fabf 29bd e7b1 5b3e 104b 42be cc99 3d3d
00000110: 6bae 02be 30ee d73d 628e 56be 0778 94bd
00000120: 3c82 543e 3696 1a3e 0b19 3b3e b288 c0bc
00000130: f6eb ff3c 5758 4c3e 2206 ebbd cc93 00bc
00000140: fa85 32be 3c47 41be 060a 393e b8f9 803e
00000150: 5bbd 113e ae78 503b bec5 393e d680 703e
00000160: 7033 6e3e 8992 403e 204a 0d3e 0d7e 673e
00000170: 4c4a 333e d205 f13b d856 133e 5899 96bd
00000180: 6475 e73c a9a1 5bbe 8176 b43b 4289 1b3e
00000190: 33ed d2bc 014f 1a3e 9498 0dbe 3a13 4a3e
000001a0: b10c 113e 7c24 5e3e 843b 503d 5a94 343e
000001b0: f563 873d fb88 b33a 6c15 6bbb fc0f e63d
000001c0: 6285 ba3b 3e3c 9b3d 845d 9f3c 8442 43bc
000001d0: 4744 5ebe 6796 243e 0e43 78bd 0935 a13d
000001e0: 9d59 9abd c723 07bd 7a10 37be c2b0 b8bd
000001f0: 1240 793d 6c12 143e 1755 34bd 00fb 143e
00000200: 3a1e 423e e80e 85bd e1f1 853d 1e2b 353e
00000210: 16ca 343e fcb2 c7bd 6d7d 013e a069 643e
00000220: 7e78 b5bd ebfc 4d3e fd68 643e 587c 06be
00000230: 695f bf3c a08b 863d a5e7 4dbe c834 623e
00000240: e41d 29be 2001 a0bd 1d00 f5bd ae9c ce3d
00000250: 482c d3bd 07f6 14be 8173 38be c41b 31be
00000260: bf5e 2c3e bd87 a0bd f024 27be 9de5 44be
00000270: 8341 1f3e f171 4abd 9503 febd a4f6 5bbe
00000280: 54ba a93d 0fcf 963d 27c1 52be 73a5 233e
00000290: 6cb8 663e deb1 e0bd 4c92 49be 7a5e ed3d
000002a0: 0a6c d63d ae17 2fbd 96f5 4c3e 892b 8b3d
000002b0: aa99 a33c fff8 123e e5cc 44be 7af6 473e
000002c0: 8945 bc3d 24ec 5d3e 09a7 45be 8fcf ce3d
000002d0: 1fe9 f33d 0c2c 0ebe e23a d9bd 8936 cfbd
000002e0: b9a5 43be a088 ae3d ba04 493e fc8e 1d3d
000002f0: 3de5 5dbe 000c db3c 0e24 a73c 7db9 babc
00000300: 5ab6 2b3d b909 f13c 7cfc 8cbc 6b0a 123d
00000310: 6a3d 1cbe 9b50 593c 7f20 e0bd 484d 3f3e
00000320: e785 13be 2917 9bbd cbfa 423e 4ae9 0abd
00000330: af89 e1bd 1fb9 27be f0b9 b0bd 5116 f33d
00000340: ad4c 01be 8edc d0bd 9952 3c3e 8e1c b53c
00000350: c3c8 21be 87bc f3bc ec8c 9fbd f93a 693a
00000360: 75bb 1b3d 094b f03d e2fe 293e d21b ccbd
00000370: 9b02 913d 0eb2 5f3e b9fa ee3c eac3 17be
00000380: 802f 4fbd 141d 2ebe 718f 993a 3658 653e
00000390: 97e6 abbd 99ba 43be 33cb 363d 21f8 87bd
000003a0: 38ed 2d3e a9d5 8b3c 8aa9 18be a00b ad3d
000003b0: b0ae 993d 3c8a 143c 0d33 813d 2eab d2bd
000003c0: 5840 873c 470d 91bd 493f 2ebd 919e 113e
000003d0: 8315 3e3d 3422 123e 330e 4cbe cc85 e4bd
000003e0: 1237 49be 7c18 c13d 7c07 1c3e f835 c43d
000003f0: a813 0e3d 7b1c 9b3d ff65 743d 2f8a 52bc
0.20986915 0.10360986 0.22297299 -0.15511207 0.21518667 0.22879073 0.10474163 0.043716196
0.11574133 -0.08452424 -0.16734624 -0.08873286 -0.08624654 0.1992871 0.07501571 -0.11495912
0.0535626 0.040342577 -0.18770987 0.07546452 0.2209007 0.0008714828 0.21920857 0.0027191562
-0.14152946 -0.0005893237 -0.18261863 0.19175126 -0.09938711 -0.15149632 0.1635774 0.11994819
0.18878128 0.07626014 0.14092961 0.19059594 -0.21849945 -0.14161606 0.06042308 -0.0036243119
-0.00080846634 0.070020534 0.13876934 0.13977085 0.15081128 0.21888536 -0.15741612 0.019128753
0.16134802 -0.2036758 0.16297527 -0.21032943 -0.06526286 0.21066466 0.14042675 -0.08178183
0.08361776 -0.16754073 0.05346581 0.023978667 0.13632117 -0.16598283 -0.086696275 -0.059782725
-0.04144285 0.21454583 -0.18973947 0.04628925 -0.12761848 0.105434775 -0.20952752 -0.07249456
0.20752805 0.15096363 0.18271272 -0.023502681 0.031240445 0.19955574 -0.11475779 -0.0078477375
-0.1743392 -0.1887483 0.1807023 0.2519052 0.1423239 0.0031810212 0.18141839 0.23486647
0.2326181 0.18805899 0.13797808 0.22606678 0.17508811 0.00735543 0.14388597 -0.07353467
0.028254218 -0.21448387 0.005507291 0.15189078 -0.025747871 0.150692 -0.13827735 0.19733897
0.14164998 0.21693605 0.05083801 0.17634717 0.06610862 0.001369744 -0.0035870923 0.112335175
0.00569217 0.0757985 0.019453771 -0.011917714 -0.21705733 0.16072999 -0.060610823 0.07871444
-0.075366236 -0.032993104 -0.17877379 -0.09018089 0.060852118 0.14460152 -0.04402646 0.14548874
0.18956843 -0.06496984 0.06540275 0.17692229 0.17655215 -0.097509354 0.12645502 0.22305918
-0.08860873 0.20116012 0.22305675 -0.13133371 0.023360925 0.065696 -0.20107897 0.22090447
-0.16515309 -0.078127146 -0.11962912 0.10088478 -0.1031118 -0.14546977 -0.18012811 -0.17295748
0.16833018 -0.0783839 -0.16322684 -0.19228216 0.15552334 -0.04942507 -0.12403027 -0.21480805
0.082874924 0.07363712 -0.20581494 0.15981083 0.22531289 -0.109714255 -0.19684714 0.115902856
0.104698256 -0.042747192 0.20015559 0.06795413 0.019970734 0.14352797 -0.19218786 0.19527617
0.0919295 0.21672112 -0.19302 0.100981824 0.11909699 -0.1388399 -0.10606934 -0.10117824
-0.19106187 0.08522153 0.1963071 0.03846644 -0.21669479 0.02673912 0.020402934 -0.022793526
0.04192195 0.029423581 -0.017210238 0.035654467 -0.15257803 0.013263847 -0.10943698 0.18681824
-0.14406548 -0.07572777 0.19040982 -0.033913888 -0.11012589 -0.16379212 -0.08629215 0.11869491
-0.12626906 -0.101983175 0.18390884 0.022108342 -0.15799241 -0.029752983 -0.077905506 0.0008897032
0.03802057 0.11733062 0.16601136 -0.09966244 0.07080575 0.21845266 0.029172288 -0.14820829
-0.05058241 -0.1700328 0.0011715723 0.22396931 -0.08393591 -0.1911415 0.04462738 -0.06639124
0.16985023 0.017069655 -0.14908424 0.08449483 0.07504022 0.009066161 0.06308565 -0.10286556
0.016510174 -0.070826106 -0.042540822 0.14220645 0.046407234 0.1427086 -0.19927292 -0.11158332
-0.19649914 0.09428498 0.1523723 0.09580606 0.034686714 0.075737916 0.059667584 -0.012850328

fc2.weight f4 [300, 300]
00000000: 7dc9 1fbd 40e0 9a3c 8c8a 6e3d a0a2 863c
00000010: 56b4 f43b 0e73 2d3d 289c f0bc e73b b23d
00000020: afe5 c23d 704a ae3d 885e 463d ba0b 2c3a
00000030: b29f bf3d 05cd 0cbd 801c 6d3c 49b0 8d3d
00000040: 5f7f 553c 5a2d 9ebb d466 293b 3e62 d43c
00000050: bf3b 823d 27b0 b9ba 4b2a 913d fa2a 353d
00000060: 5167 453d ce58 c53d e128 ec3c 561b 393d
00000070: cd7f b83c ee6f 853d 24bc b1bc efce bb3c
00000080: 71e3 e33b 13b3 b93d 5171 4b3d dfac 813d
00000090: 6d02 843c e0b6 a53d 2795 91bb 75e9 bcbb
000000a0: d551 543d 640f 4c3c 4400 c23d 6b68 353d
000000b0: 0aec cc3d e3af 823d babb 5e3d 2fd6 a63c
000000c0: 5d03 ed3c e31b f43c 3ff0 a4bc dae7 153c
000000d0: f324 953d 54f1 b3bc fa40 a13c 9a55 013d
000000e0: 14f8 5b3d 8943 02bd 5b1f 4f3d 91b7 0c3c
000000f0: e07d 2b3d 95f3 c63d 99d5 bb3c d791 1fbc
00000100: 0445 0b3c 5870 f53b 6398 803c 3bb4 2c3d
00000110: 4d9e ca3d 611d d43d f598 fc3c e65e 083d
00000120: 76e3 4e3d c4be 893d 8447 a23d 78c3 77bd
00000130: 2686 07ba 84fb 6b3d e799 613c b7da 63bc
00000140: 4d6d 243d f61e ad3d 94a8 98bc 9329 2d3d
00000150: 98e8 103e 8fe7 59bd 1c9d ea3c 6a22 2c3d
00000160: 9900 723c 3fe3 353d b978 de3d aef7 cd3c
00000170: e3bc 30bd 4e02 8a3c a8c5 193d 74af 073d
00000180: ae8b 483d 5cb2 073e 4b3e 58bd a433 833d
00000190: 132b 553d 6adc 83bb 7770 47bc 7b92 553d
000001a0: 745c 383d d337 fd3b da3f 3b3d c268 733d
000001b0: 66a2 a7bb 7b6e c5bc 9dc3 993d 19a2 013d
000001c0: da47 efbb 7a33 da3b ecfa 643d df1f 673d
000001d0: 1c95 993d 2b17 c63d e1ab 693d b59e df3c
000001e0: a607 7c3c 39cb b33d 5bc1 1e3d 1ba4 c13d
000001f0: 4767 593d 40ba 2e3d 11a0 0a3d 7d65 293c
00000200: de11 3f3c a3bb 983c de47 7abb 6158 deba
00000210: 33e4 bc3b 8973 dc3c 1b73 a23d 7691 e43b
00000220: 196f 463c 5e2d be3d f5b1 7c3d e6d3 783c
00000230: 8c7c eb3c c369 593d c765 343c 05ae 15bd
00000240: aae3 a03d 961f 923d 3282 103c 8ce5 563d
00000250: 0168 273c 366c 3f3d 1988 bd3c 190f 31ba
00000260: 6949 cd3d 7501 1d3d 1062 d63c 3578 623d
00000270: c17e e23b 0fe0 d93d babc a5bc a213 6e3d
00000280: 35a7 d33c a8c8 783d 6270 853d 5942 b53d
00000290: a8a1 a03d e22b 183d 008b 9a3d f526 f13c
000002a0: 69a4 bd3d e404 1b3c 6440 873d 82bb 253d
000002b0: fa8b 13bd 468b ae3d 2ecb 75bd 0334 da3d
000002c0: f13f 453d bff1 5a3d 28fb 3e3e 7e69 7c3d
000002d0: 946c 103d 24bc 3dba e4e7 86bc 9ebc 8f3c
000002e0: 6ca0 5d3d 7897 873e bfdc 1f3d aedd d5bc
000002f0: 8206 1fbd db56 cbbc cbef 55bd 2d46 a1bb
00000300: 983d d83d 1cab 05bc 7a31 fdbc e534 4a3d
00000310: a06a 7f3c f2ca 713d 2c58 1abd 6406 05bb
00000320: 74e5 093d afde 023d 5c2e 72bc c1ea 113d
00000330: 5b5d 70bb 591b 2d3d 2255 e03d aff7 8e3d
00000340: 4002 3f3d b54f 873d cb93 da3d d734 1ebc
00000350: 5f65 7d3d a03d 463d da76 2bbb 290d 463c
00000360: b98f 7c3c 280b 493d d6a6 6f3d 6816 4f3d
00000370: 98e3 403c 3ec4 7e3d 83f6 163c f913 8c3d
00000380: 2c16 a3bb b33e 723d c104 ca3d 3792 753d
00000390: 4493 a33d 6a9f 553d c6bd 233d aaae 3dbd
000003a0: 9604 383d 2609 47bc 7bec c73d 04fb 883d
000003b0: 4ee3 653d 56ef bb3d af79 bb3c 42f0 923d
000003c0: 19c9 913d cdff 3e3b a601 d23d 7800 92bc
000003d0: e448 4e3c 860e 8b3d 5f49 8e3d 675b a93c
000003e0: 6e82 533d 8a09 083d eddc 2d3d 0289 cb3c
000003f0: 80dd a03d 890d 393d c085 d43d 3fee 0abd
-0.039010514 0.018905759 0.058237597 0.016434968 0.007467787 0.042346053 -0.029371336 0.08702832
0.09516465 0.085102916 0.048429996 0.00065630267 0.09356631 -0.03437521 0.014472127 0.06918389
0.013030856 -0.0048271837 0.0025848644 0.025925752 0.06359052 -0.0014166877 0.07088145 0.04423044
0.048194233 0.09636079 0.028828086 0.045192085 0.022521878 0.065154895 -0.021696158 0.022925822
0.0069546034 0.09067359 0.049668614 0.06331801 0.016114438 0.08091521 -0.004442829 -0.005765135
0.051835854 0.012454841 0.09472707 0.044289034 0.100059584 0.06381204 0.05437825 0.020365803
0.028932268 0.029798454 -0.02013409 0.009149516 0.07282438 -0.02196566 0.019684304 0.031575777
0.053703383 -0.031802688 0.050567012 0.0085886875 0.04186809 0.09714428 0.022929 -0.009739361
0.008500341 0.007490199 0.015697664 0.04216407 0.09893475 0.10357166 0.030834654 0.033293627
0.050509892 0.06725839 0.07923797 -0.060489148 -0.0005169831 0.05761291 0.013769603 -0.013907126
0.0401433 0.08453171 -0.018635072 0.042275976 0.14151227 -0.053199347 0.028639369 0.042025007
0.01477065 0.044406172 0.1086287 0.025142517 -0.043148886 0.016846802 0.037542015 0.03312631
0.048961334 0.13251632 -0.052793782 0.06406334 0.052043032 -0.004024078 -0.01217281 0.052141648
0.045010045 0.007727602 0.04571519 0.059426077 -0.005115795 -0.024100533 0.075080134 0.03164873
-0.0073022665 0.0066589685 0.05590336 0.05642688 0.074991435 0.09672388 0.057048682 0.027297357
0.015382683 0.08778996 0.038758617 0.09455129 0.05307701 0.04265809 0.033844057 0.010339138
0.011661975 0.01864416 -0.003818981 -0.0016963595 0.005764508 0.02691056 0.07932111 0.006975348
0.012111449 0.09285997 0.06169315 0.015187239 0.028745912 0.053079378 0.011010594 -0.03654291
0.078559235 0.07134931 0.0088201035 0.052465007 0.010217668 0.046734057 0.023136185 -0.0006754264
0.100237675 0.038331468 0.026169807 0.05529042 0.006912083 0.10638439 -0.020231593 0.058124192
0.025836566 0.060738236 0.06515576 0.088505454 0.078433335 0.037151225 0.075460434 0.029437521
0.092598744 0.009461615 0.066040784 0.040462025 -0.036022164 0.08522658 -0.06000822 0.10654452
0.048156682 0.053453203 0.18650496 0.061624043 0.0352598 -0.0007237813 -0.016467996 0.017545994
0.05410807 0.2648275 0.03902888 -0.026106682 -0.038824566 -0.02482169 -0.052230638 -0.0049216957
0.10558623 -0.008158471 -0.030907381 0.04936685 0.015589386 0.059031434 -0.037681744 -0.0020297999
0.03366609 0.03195065 -0.014781561 0.03562427 -0.0036676738 0.04226241 0.10953738 0.06980836
0.046633005 0.06607 0.106727205 -0.009656153 0.061864253 0.048398614 -0.002616337 0.012088099
0.0154151255 0.049082905 0.058508717 0.050558478 0.011773013 0.06219887 0.009214046 0.06839747
-0.0049770083 0.059141826 0.09864188 0.059953894 0.07987073 0.052153982 0.039975904 -0.04630915
0.04492625 -0.012148177 0.09761902 0.066885024 0.056124978 0.09176509 0.022885172 0.07174732
0.071184345 0.0029144168 0.10254221 -0.01782249 0.012590621 0.067898795 0.06947588 0.020673467
0.05163806 0.033212222 0.04244702 0.024845604 0.07854748 0.045178924 0.10377073 -0.033918615

fc2.bias f4 [300]
00000000: 96f1 4b3c ddf9 1f3d 8a55 b13d 6c6f 40b9
00000010: 931e 9f3c 8da3 b63c b0fb 7c3c b1b4 383d
00000020: 7baa 2c3d 30f6 6c3d 73d7 213d eede c3bb
00000030: 2687 5b3d b2ff 653d 380f 1c3d 1618 823d
00000040: f7b2 e63c 3a5d 593d 70b7 a53d 5dfa b73c
00000050: dbec 9c3d 1cd9 aabb fb05 2e3d f494 903d
00000060: 5881 1c3d 99d0 353c 3bdb 14bd 2ad2 3ebc
00000070: 691d 973d 4e24 033d 13ff 0a3b bc7f a73d
00000080: c13b 9d3d 0c0f 9a3c f9f9 053d 4083 7ebc
00000090: 2f7f 783c 2a00 863d 7d97 9d3d 7d00 5b3d
000000a0: 4d00 a2bd 68b9 8d3d 5526 f8bb e7be 9a3c
000000b0: e592 e83c 3e47 333d 9613 be3d 9c50 533d
000000c0: 54cc 84b9 5fc0 7fbb 2870 773d 85b0 a13d
000000d0: 0835 3a3d 7e3d 873d 8f9b 47bb 752b 08bc
000000e0: 2549 0f3a 9362 ae3d 9039 533c c07b 163d
000000f0: a57c 4e3d 49dc c839 6f44 1f3d 1434 8d3a
00000100: f5e1 ac3d 3f96 79bc ab1f 963c 0400 83bd
00000110: 5b16 c03d dd04 143c bc7c b43d cded 9d3d
00000120: 8e82 9d3d 3567 6c3c e8c4 a13d c6bd cc3d
00000130: 46b7 173d f039 413c edcb fb3c 67b2 1b3d
00000140: 704f 3e3d 5098 0a3d 9aaa a03d 01f9 8f3d
00000150: 1cb1 523b d110 60bc 6b63 353d d087 6c3c
00000160: 7a2a ff3c d217 903d 4c8c 3d3d 5839 e3bc
00000170: 3aab a03d bda7 4f3d 459b 00bc 0559 c13d
00000180: 40a3 ee3c 5acd 063d 5931 b43d c26f 3f3a
00000190: 0bc4 41bc 65c7 863d f253 803d 72d4 143d
000001a0: 5d4b ed3c 6c51 86bb 44da 7b3d fdc3 713d
000001b0: 114b c33c 5660 3a3b e9a7 363d 2d37 a73d
000001c0: 251e a43c e90c b13d 3316 cc3d 7388 30bc
000001d0: 993e 863d 82f6 903d 73ac 0e3d 3f3c a9bd
000001e0: 7147 c63d 5295 3f3d b74d e43c cc16 99bc
000001f0: 430b 1ebc 3123 283d ed96 453a 36a3 8c3d
00000200: 0081 1f3d 8466 9c3d 41a3 0bbd 2603 773d
00000210: 3085 f33c 1248 d43d 075f 823b 2977 c93a
00000220: 066c 703b 985b 81bc 80a2 773c 8719 16bc
00000230: 97f7 cb3d 84bb 2c3c 5808 683d 2ed6 613c
00000240: b88b 6d3b ffe4 d839 d68d 653d 6a52 b53d
00000250: 1cfa ce3d 8417 043c be44 cb3b b294 883d
00000260: 7eb8 ab3d ab4d 093d b935 a53d 4f94 0d3d
00000270: a85f 773d 01d3 7dbb 4240 6a3d aad5 eabc
00000280: 2bd4 7d3d 6655 b73d c09f 953d b599 d43b
00000290: 6e0b a33d f624 f7ba f799 823d e244 163c
000002a0: 238a 723d c393 8a3d 2fa3 10bd ce9e 733d
000002b0: cd0e c43d 4fd7 d43c c95a 603d 8193 b43c
000002c0: ffdd 913d c4a9 3d3c f3b4 693d f7e0 aa3c
000002d0: f013 663d 4969 8a3d 8067 983d 2fd4 e23c
000002e0: 22b2 203b 75b8 6d3d 73f1 3abc 750f 2dbb
000002f0: 03e3 8b3c 204a 323d dce5 ac3d 370c fcbb
00000300: 02ec b93d 5b75 713d 1865 af3d 2a9f 9c3d
00000310: 6213 26bc 8dbe 823d 4193 a03d f293 45bc
00000320: be95 473d 841b a33d cc63 ab3d 6870 cdbc
00000330: 227a a43d e0f3 403d 12a5 bd3d 6bc0 92bc
00000340: c878 913d ddf7 c4bb e4e1 493d 8865 93ba
00000350: 3ec2 243c 341a c33d 635a 863d bcfd 4f3b
00000360: f353 bb3d cd8f e93c b14e 143a 1f3a 9abd
00000370: 259a 853c a028 93bd 9ca3 b53d 29db 87b9
00000380: 7c5a d3bb 299f 36bd 55ed 4a3d cc21 033d
00000390: 2ff9 c6ba 35c8 a83d cb1b 013d b3c9 cc3c
000003a0: 99a5 05bc 853f d33c 960f cf3c 6557 ac3c
000003b0: d2bb 863b f597 613d 2355 353d b51f c73b
000003c0: 5b54 473d c1d4 8e3d 1d63 ac3d 32ec ec3b
000003d0: 280d 073d 0e7b 64bc d976 2b3b 3cc4 26bd
000003e0: 87ea 243d ed13 aa3d 48ed 833c a4ae 5b3d
000003f0: 165b 353d 1eb1 dc3c 7024 1b3c dcf9 b63d
0.012447735 0.039056648 0.086588934 -0.00018352055 0.019423759 0.022294784 0.015440866 0.045094196
0.04215477 0.05785197 0.03951211 -0.005977503 0.053595684 0.056152053 0.03810045 0.0635225
0.028161509 0.053067423 0.080916286 0.02245825 0.07662364 -0.0052138697 0.042486172 0.070596606
0.03820929 0.011097097 -0.036341887 -0.011646787 0.073786564 0.032017045 0.0021209165 0.0817866
0.07677413 0.018806003 0.032709096 -0.015534222 0.015167042 0.06543 0.0769491 0.053467263
-0.079102136 0.06920129 -0.007572929 0.018889857 0.028390357 0.043769114 0.092810795 0.051590547
-0.00025329238 -0.0039024574 0.060409695 0.078949966 0.04546073 0.066035256 -0.003045771 -0.008311142
0.00054659165 0.08514895 0.012892142 0.03673911 0.05041184 0.00038311098 0.038883623 0.0010772967
0.084415354 -0.015233575 0.018325647 -0.06396487 0.09379264 0.009034363 0.08812854 0.077113725
0.07690917 0.014428903 0.07898885 0.09997134 0.037040018 0.0117935985 0.030736888 0.038011935
0.046462476 0.033836663 0.0784504 0.070299156 0.0032149022 -0.013675884 0.044284265 0.014436677
0.031148184 0.07035793 0.046276376 -0.027737305 0.07845159 0.050697077 -0.007849519 0.09440807
0.029130578 0.032910682 0.08798475 0.0007302725 -0.011826525 0.06581 0.06266011 0.036335416
0.0289666 -0.0040990617 0.06148745 0.0590248 0.023839505 0.0028438768 0.044593725 0.08164821
0.020033905 0.086450405 0.09965172 -0.0107747195 0.06554908 0.07078268 0.03483243 -0.08263444
0.09681595 0.046773262 0.027869089 -0.018687628 -0.00964624 0.041049186 0.00075374433 0.068670675
0.038941383 0.07636741 -0.034091238 0.060305737 0.029726595 0.10365309 0.0039786133 0.0015370596
0.003668548 -0.015790746 0.015114427 -0.00916136 0.099593334 0.010542754 0.056648582 0.013783975
0.003624661 0.00041369346 0.05604347 0.0885361 0.10106298 0.008062247 0.006203263 0.066689864
0.083847985 0.033521336 0.080668874 0.034565266 0.06039396 -0.0038730504 0.057190187 -0.028666336
0.061969917 0.08951835 0.073058605 0.00648805 0.079611644 -0.001885562 0.06377023 0.009171696
0.05921377 0.067664646 -0.035311874 0.05947762 0.095731355 0.025981573 0.05477408 0.022042992
0.071224205 0.01157612 0.057057332 0.020859225 0.056171358 0.06758363 0.07441616 0.027689068
0.0024520238 0.05803724 -0.011410105 -0.0026406918 0.017076021 0.043527722 0.0844228 -0.007691886
0.09078218 0.05894981 0.08564204 0.07647546 -0.010136457 0.06384001 0.078405865 -0.012059199
0.04872679 0.079642326 0.08368644 -0.025078014 0.080311075 0.047107577 0.0926 -0.017914018
0.07103115 -0.006010993 0.04928769 -0.0011245469 0.010056077 0.09526482 0.06560209 0.003173693
0.091468714 0.028510952 0.0005657478 -0.07530617 0.016308853 -0.07185483 0.08869097 -0.00025912494
-0.0064499956 -0.04458538 0.049542744 0.032014653 -0.0015180464 0.082413115 0.031520646 0.024998521
-0.008157157 0.025787124 0.025275987 0.021037767 0.0041117454 0.05507656 0.044270646 0.006076778
0.048664432 0.06974173 0.08417342 0.007230305 0.03297153 -0.013945354 0.0026163368 -0.040714487
0.040262725 0.08304582 0.016104355 0.053633347 0.04427632 0.026939925 0.009469137 0.08934376

fc3.weight f4 [5, 300]
00000000: 3056 a73e 1567 a43e fa1a 983e 74a8 a83e
00000010: 0ecd 933e a83c 9d3e 3b67 ab3e 74ae 8d3e
00000020: 5c46 b03e 50d0 b23e fc81 9b3e 6fea a13e
00000030: 501b 973e c91f b13e 99d5 9f3e 0aee a63e
00000040: 2722 a53e dba8 af3e 3cf4 ae3e ab42 a43e
00000050: 16ed 8f3e aab8 ae3e 9392 843e 5439 903e
00000060: 6de6 c13e 6e04 953e 8fa4 5d3e eecd a23e
00000070: 7f17 973e 93ec 993e 983d ae3e 1738 973e
00000080: 5d67 b63e 0a88 a03e 998d ad3e a7af b23e
00000090: dfd2 b93e e36a 9f3e 08ea 8b3e df6a 973e
000000a0: 80bd 02bc e588 b83e ef84 6ebc 182c a93e
000000b0: 6029 ab3e 5bc9 9b3e 8641 993e 9b66 923e
000000c0: 517f 993e a3d5 953e fb6b bb3e 9513 a43e
000000d0: 5631 823e 209d 923e db34 af3e 9af5 8b3e
000000e0: dd6a ae3e 9b32 8b3e c4e5 9a3e 1afe ac3e
000000f0: 9273 873e 3a37 a63e 8646 a93e ed67 bf3e
00000100: 2456 893e 4bc5 c6bc b0fe 833e c256 cbbc
00000110: 8fb3 7b3e d48a 933e e049 ad3e 73ed a13e
00000120: 782c 973e 7319 51bb c2df ac3e 5fbb ae3e
00000130: 8258 9d3e 8ff3 953e 618f a73e f87f 893e
00000140: 6877 803e 5547 c13e 36d9 ac3e a3b2 933e
00000150: 512e 9d3e 803b 853e 6945 b63e 8365 a33e
00000160: 0d54 9a3e ba9f b63e 1c40 9f3e b651 9d3d
00000170: 9225 cc3e 775f 6c3e 5093 fdbb f018 903e
00000180: 782e b43e 9df5 9a3e 6475 a53e 8cd7 bc3e
00000190: 4db0 b03e 9c64 ac3e 5990 873e 38cd 6a3e
000001a0: 6a8d a13e 5f68 9c3e 5537 a93e 0167 aa3e
000001b0: 1f93 883e 1192 ab3e b969 9a3e 8e64 9f3e
000001c0: 1494 993e cfea 963e 2778 af3e 72d0 823e
000001d0: a262 923e fd11 a43e 48f6 9d3e 468e 9fbc
000001e0: 8d8e 8c3e 46e6 9e3e 0c62 953e 7b24 8d3d
000001f0: d36c a33e 7570 b53e 61d0 963e 0fdc b23e
00000200: 43f4 a23e 13af a73e 5f12 f43d 50ee b23e
00000210: bb87 853e 35cb a63e 4468 8b3e 776f 9d3e
00000220: 6f2c 983e 5ab4 9d3e 0075 ae3e 0037 893e
00000230: 81cc 9b3e 1875 a53e 647f b23e fac4 9a3e
00000240: b0fd bb3e 33aa 923e 477a 773e 9b67 863e
00000250: c842 a73e 10b6 983e fda0 a53e eee2 8a3e
00000260: 2032 9e3e 694f 943e ffac b23e ae9b 933e
00000270: b131 af3e d0ec b33e 9cb5 b23e e54b b63e
00000280: e008 a83e 10ba a83e 0f13 a73e 04a9 ab3e
00000290: 1f84 993e 67e9 a13e 7f8f 833e 5532 9a3e
000002a0: c4b4 933e 1ce2 933e 258a 14bb 1b18 a83e
000002b0: 759b 803e f0eb a03e f127 983e d584 9c3e
000002c0: 9e7e 703e b996 a63e 3114 b23e 25b8 9b3e
000002d0: da89 993e 6f2c 873e 1dc9 a43e ace5 9d3e
000002e0: 38ff b23e ed9c a63e 8593 9e3e 23bc 903e
000002f0: 1bee 933e cdaf 9d3e 2fa6 963e 54bf a03e
00000300: 396e ac3e 620d 8f3e ab0e cc3e 0531 8f3e
00000310: 575f 853e 5d12 9e3e 83b2 a33e d111 903e
00000320: 2303 aa3e 0180 b03e 22e3 9b3e b608 973e
00000330: bd4b b03e 6016 7a3e 19f3 a13e e6f3 64bc
00000340: ed3b 903e 1d95 b83e 7e9c 9a3e 2b20 8e3e
00000350: b907 b83e ea5b 873e 8a04 a13e 8d8b 99bc
00000360: 05d4 753e c153 b53e 6e8b 8e3e 3037 7dbc
00000370: 1e9b 8b3e ac84 bb3a 40b5 8c3e d291 a93e
00000380: 13df a33e 4c90 833a 6709 8d3e 5e4e a83e
00000390: 7539 a93e cc22 9e3e 7253 a63e 960b c33e
000003a0: 9d92 a63e 3ca0 8c3e 0472 b53e 9853 a23e
000003b0: 4475 6b3b 9596 a13e eb21 963e 91cd 9d3e
000003c0: 9a4a 9f3e b49d af3e 3057 993e 42ff ba3e
000003d0: 492e 9f3e 621f 9b3e 9623 963e 5418 823d
000003e0: 652e b23e 187a bc3e 829c 9a3e 1135 ae3e
000003f0: e7b1 7b3e 66ab 953e 176b 813e 0f8b 943e
0.32682943 0.32109895 0.2970808 0.3294102 0.28867382 0.3071034 0.33477196 0.2767216
0.3442868 0.34924555 0.30372608 0.3162417 0.29513025 0.34594563 0.3121765 0.32603484
0.3225262 0.34308514 0.3417071 0.32082114 0.2811057 0.34125262 0.25893077 0.28168738
0.37871113 0.29104942 0.21644805 0.31797737 0.29510114 0.30063304 0.34031367 0.2953498
0.35625735 0.3135379 0.33897093 0.34899637 0.36293694 0.31136236 0.2732699 0.29573724
-0.007979751 0.36041942 -0.014558061 0.33041453 0.33430004 0.3042706 0.29932803 0.28593907
0.29979947 0.29264554 0.3660582 0.3204619 0.25428265 0.28635502 0.34220013 0.27335817
0.34065905 0.27187046 0.30253422 0.33787614 0.2645536 0.3246401 0.33061618 0.37383977
0.26823533 -0.024263998 0.2578025 -0.024821643 0.24580215 0.28816855 0.33845425 0.31626472
0.29526114 -0.0031906038 0.33764464 0.34127328 0.3073159 0.29287383 0.32726577 0.26855445
0.250911 0.37749735 0.3375947 0.28847227 0.306994 0.26021957 0.3559983 0.31913385
0.3014225 0.35668737 0.311036 0.07681601 0.39872414 0.23083292 -0.0077385083 0.28144026
0.35191703 0.30265513 0.32316124 0.368832 0.34509507 0.3367051 0.26477316 0.22929847
0.31553203 0.3054838 0.33050027 0.3328171 0.26674744 0.33509877 0.30158785 0.31131405
0.29995787 0.2947602 0.34271356 0.25549656 0.28590876 0.32044974 0.3085196 -0.019477021
0.27452508 0.3103506 0.29176366 0.06891724 0.31918964 0.3543736 0.29455855 0.34933516
0.31826982 0.3275076 0.119175665 0.34947443 0.26080117 0.3257691 0.27227986 0.30749103
0.297214 0.3080166 0.3407364 0.26799774 0.30429462 0.32315898 0.34862816 0.30228406
0.36716986 0.28645477 0.24167739 0.2625092 0.32668138 0.29826403 0.32349387 0.2712626
0.30897617 0.28966835 0.3489761 0.28829712 0.342176 0.3514161 0.34904182 0.35604778
0.3281927 0.32954454 0.32631728 0.33527386 0.29983613 0.31623384 0.25695416 0.30116525
0.2884885 0.28883445 -0.0022665348 0.3283089 0.25118604 0.31430006 0.29717973 0.30570093
0.234858 0.32536867 0.3478103 0.3041393 0.29987985 0.26401088 0.32184687 0.30839288
0.3496034 0.325416 0.30971923 0.28268537 0.28892598 0.30798188 0.29423663 0.31395972
0.33677843 0.27939898 0.3985494 0.27967086 0.260493 0.30873385 0.3197213 0.28138593
0.33205518 0.3447266 0.30446726 0.29498833 0.34432784 0.24422598 0.3163078 -0.013974166
0.2817072 0.36051264 0.3019752 0.27758917 0.35943392 0.26437312 0.31448776 -0.0187433
0.2400666 0.35415462 0.2784075 -0.015455052 0.27266783 0.0014306507 0.27482033 0.33119065
0.3200613 0.0010037511 0.27546236 0.3287229 0.3305165 0.30885923 0.3248554 0.38094777
0.32533732 0.27466 0.3543855 0.31704402 0.003592805 0.31560197 0.29322752 0.30820897
0.31111604 0.34300005 0.2994933 0.3652287 0.3109 0.3029738 0.29324025 0.063522965
0.3480102 0.368119 0.3019753 0.3402486 0.24579583 0.2923233 0.25277016 0.29012343

fc3.bias f4 [5]
00000000: 8f89 7b3e 0bd8 8f3e 8a53 723e 9c58 98bb
00000010: 2468 80bb
0.24564193 0.28094515 0.2366468 -0.004649235 -0.0039186645
