model_weights/weather_weights/model_weather_MSE.pt (torch, 142636 bytes, 6 tensors)

fc1.weight f4 [64, 456]
000000 6c df 21 3e 91 2f c1 3c 68 73 62 3d 92 a9 24 3c
       0.15807885 0.023582252 0.05528584 0.010050194
000010 59 c2 46 be 3b c5 2c 3d 57 6c 1d 3d a4 87 20 bd
       -0.19410075 0.04218028 0.0384334 -0.039191857
000020 7e fa bb 3d 57 81 8a 3d 53 52 b1 3c a0 14 60 be
       0.09178637 0.06762951 0.0216457 -0.21882868
000030 f0 2c 66 3d a3 9a 96 bd 98 6f d5 bc 8c b7 5f be
       0.0561952 -0.07353713 -0.026054189 -0.21847361
000040 29 5e 92 3c 8e 9b 54 be f3 4d 08 bd a5 7e f0 3d
       0.017867165 -0.20762464 -0.033277463 0.117429055
000050 80 87 f6 3c 51 b2 d8 bb 5d 2d e2 3c d0 e8 37 be
       0.030093908 -0.006613054 0.027609522 -0.17959905
000060 df 11 05 bd b2 72 b8 3d 5f 01 86 bd 37 57 71 3d
       -0.032487746 0.090062514 -0.0654323 0.058921065
000070 1d bc 9f 3d f2 ee af 3b 2e a0 55 be a5 be f8 3d
       0.07799552 0.0053690607 -0.20861885 0.121457376
000080 55 97 9e bd 8d ca ff bc e2 62 c9 bc 2f 40 87 3d
       -0.07743708 -0.031224513 -0.024583284 0.06604039
000090 4e e4 03 be 7e 1e 87 3b 7e e4 e0 3d 66 34 bd 3b
       -0.1288006 0.004123508 0.109810814 0.0057740686
0000a0 6f 64 3a 3d 8b 7c 82 bc 4c d0 17 be 23 b4 a9 bd
       0.045505937 -0.015928527 -0.14825553 -0.082863115
0000b0 95 56 8b 3d 1f 27 d8 bd 50 3d a9 3d 10 5f 32 3d
       0.068036236 -0.10554337 0.082636476 0.04354769
0000c0 50 9d 70 3d 0b f1 25 be b4 37 19 3e d7 7f 95 bd
       0.058743775 -0.16205232 0.14962655 -0.07299774
0000d0 1d 32 4b bd f0 e8 03 bb e0 50 29 3d 87 2b 02 be
       -0.04960834 -0.0020127855 0.041336894 -0.12711917
0000e0 02 0b 92 bd 23 64 b3 3c bd ee e0 3b 21 9e c1 3b
       -0.07131006 0.021898335 0.0068643973 0.005908743
0000f0 13 23 df 3c af b9 05 be 79 24 c6 bc 16 69 b5 3d
       0.027238404 -0.13059114 -0.024187313 0.08857934
000100 4a 7c 30 be a5 61 80 3c 92 9b 84 3c ea ed ad bc
       -0.17234913 0.01567156 0.016187463 -0.02123161
000110 92 ec 87 bd 3a ae 30 3e 94 9c 51 bd 83 a9 8b 3b
       -0.06636919 0.17253962 -0.051174715 0.0042621507
000120 7a 32 06 bb e3 98 8f 3d 46 08 14 be e5 c9 e7 bd
       -0.0020476864 0.07011583 -0.14456281 -0.11317805
000130 98 cd e1 ba 51 5e 04 bc 50 15 45 bd a4 fb 8f 3a
       -0.0017227409 -0.008079127 -0.04811603 0.0010985029
000140 74 cf 4f bd 0f 01 fe bc 4b 8c 07 3d c2 df 36 be
       -0.050734952 -0.031006364 0.03309278 -0.17858794
000150 5d 6f 92 3d 5a e6 24 3d 92 bf e0 bc fc 80 6b bc
       0.07150147 0.040258743 -0.027435098 -0.014374014
000160 ef c1 82 3e 80 78 91 bd 52 e8 26 bc b5 d3 e6 3d
       0.25538585 -0.07103062 -0.010187225 0.11270849
000170 51 b3 62 3e 54 32 fa bd 16 98 8d bd 13 50 19 bd
       0.22138716 -0.122166306 -0.06913774 -0.03742988
000180 94 d6 26 bd 31 7d d0 3c 18 c3 a0 bc 86 d5 8d bd
       -0.04073198 0.02545032 -0.019624278 -0.06925492
000190 48 bc e7 b9 3c 80 35 bc 1d 96 0b be 2b 59 08 3d
       -0.00044200034 -0.011077937 -0.13631482 0.033288162
0001a0 be e2 8a 3d f3 b4 30 3d 90 b5 48 3c 56 07 3a 3e
       0.06781529 0.043141317 0.012250319 0.18166861
0001b0 90 e4 95 bd 0c 73 0c bc 14 d1 e2 3d d5 1a 09 3e
       -0.073189855 -0.008572351 0.11075035 0.13389142
0001c0 ab 28 d1 bc b8 3e d6 bd 3b 8d ad bc f7 82 19 bc
       -0.025532087 -0.104611814 -0.021185508 -0.009369603
0001d0 31 d1 fd bc 6d 23 c9 3a df 51 65 bd 18 8f 44 bd
       -0.03098354 0.0015345641 -0.05598628 -0.047988027
0001e0 1b 9b 87 bc ad 44 f2 bc 4c 3e 20 3b 1a 3b 14 3d
       -0.016553452 -0.029573763 0.0024451194 0.036189176
0001f0 3b cb 83 3c 73 d3 65 3d 93 5d 3e 3e b2 ab 65 bd
       0.016088119 0.056109857 0.18590383 -0.056071945
000200 46 60 ef 3c c0 e1 06 3e c0 64 b7 3d 0d 7b d6 3c
       0.029220711 0.13172054 0.089547634 0.026181722
000210 7d 9b e2 bd 80 95 78 bd 34 45 12 3d 95 0c 33 39
       -0.11064813 -0.06068945 0.03571053 0.00017075457
000220 43 0a 66 bc 8e ea 39 bc 09 c0 26 3c 11 ee 4d bc
       -0.0140405325 -0.011347426 0.010177621 -0.0125689665
000230 43 b2 61 3d 7d 06 fb bc ea 14 4e bc 0c 17 8c 3c
       0.055101644 -0.030642742 -0.0125782285 0.017100833
000240 35 ed ad 3d 1c f2 69 3e 80 18 4a bd 2d 84 0f 3c
       0.08492509 0.22846264 -0.04933977 0.0087595405
000250 c0 ba 81 3c d6 ce 32 3d 4f 8c cf 3c 9b d6 08 be
       0.01583612 0.043654285 0.025335459 -0.13363115
000260 bb ff 01 bd 34 12 1b bd 32 62 92 bc cd 6a 4b bc
       -0.031738024 -0.037859157 -0.017869089 -0.0124156
000270 c6 4d d6 3c 78 0b aa 3d 46 ba 38 bc bc 22 da 3d
       0.026160132 0.08302969 -0.01127488 0.10651156
000280 d5 49 3b bc 56 58 c4 3c e8 af 2f 3a 35 b3 14 3e
       -0.011431177 0.023967903 0.0006701932 0.14521487
000290 f1 b8 3c 3e 1b 64 1b bc 58 30 81 bc 66 f2 2d bd
       0.18429925 -0.009484316 -0.015770122 -0.042467497
0002a0 31 c3 92 bc bb 2e 4d bd f2 76 ed bd 3e b2 2b bd
       -0.01791534 -0.050093394 -0.11594953 -0.041918032
0002b0 0b 3d 2e bd 3e 61 25 bc ad 65 0f bc 5e 93 e1 3c
       -0.042538684 -0.010093985 -0.008752269 0.02753609
0002c0 dd 9f b6 3d a2 83 0b 3c e1 f9 22 3e 39 3a 4e bc
       0.0891721 0.00851527 0.15915634 -0.012587124
0002d0 57 e9 bd bc 12 d7 84 bc a1 64 3c 3e 9d 1b f1 3d
       -0.023182554 -0.016215835 0.18397762 0.11772845
0002e0 53 b6 ea 39 4b be 0e 3d 96 4d e4 3b 08 82 23 3d
       0.000447678 0.034849446 0.006967257 0.03991893
0002f0 ed d4 8c bd aa d4 a9 bd 85 cc 30 3d b6 5d af bb
       -0.0687655 -0.082925156 0.043163795 -0.0053517474
000300 cc c1 5c bd e0 cd 08 bb 66 9b 1d 3d 8f ef c3 3d
       -0.053895757 -0.0020874664 0.038478278 0.095671766
000310 b3 63 22 3c 9b e8 27 3e ec e6 e6 bc 6c f3 e5 bc
       0.009911465 0.16397326 -0.028186284 -0.028070174
000320 01 cc 94 3d 0c 89 7e 3e 50 7f e3 3c ba a1 1e bd
       0.07265473 0.24856967 0.027770668 -0.038728453
000330 be c7 4f 3b 4b e7 d5 3d 27 df 04 3e 4d 0f 42 3d
       0.003170475 0.10444506 0.12975751 0.047377873
000340 84 60 51 3c 19 a6 06 3c a0 7d 95 bd 04 90 bb bd
       0.012779359 0.008218312 -0.07299352 -0.09158328
000350 ac a8 bf bd c4 67 b8 bc 23 79 23 3d 7f e9 bd bc
       -0.093583435 -0.022510417 0.039910447 -0.023182629
000360 b2 24 08 3e e1 34 85 bd da c0 ff bc b3 40 a0 3d
       0.13295248 -0.065042265 -0.031219888 0.078248404
000370 d2 2d 7f 3e 0a 9e 5a bb cf 68 40 bd 91 6b 66 3c
       0.24919823 -0.0033358359 -0.046974953 0.014063732
000380 a9 38 1d 3e 4d 46 0a 3e 2b 20 3e 3d 22 bc 4f 3d
       0.15353645 0.1350338 0.046417397 0.050716527
000390 2b c1 00 3b f2 6b a4 bd ed 3d 21 bd 41 3b d6 bd
       0.0019646387 -0.080284014 -0.039365698 -0.104605205
0003a0 24 f2 a3 bb df 5c 0b 3b 6a 57 82 bd 46 04 30 3e
       -0.0050032306 0.0021265072 -0.06364329 0.1718913
0003b0 3d 8d c1 bd c4 d1 88 bd c8 e7 02 3e 74 cb 60 3e
       -0.09450767 -0.066806346 0.1278373 0.21952611
0003c0 08 77 b6 bd a7 fb a7 3b 1d ca 04 bd 29 57 bc 3d
       -0.08909422 0.005126435 -0.032419313 0.09196312
0003d0 1e 10 a2 3d 55 b1 a2 3d fc 74 cc 3d f3 75 08 bc
       0.0791323 0.0794398 0.099832505 -0.008328903
0003e0 85 b0 11 bd 55 a0 41 bd 69 93 c8 bd ec 6a 54 bd
       -0.035568733 -0.047272045 -0.09793741 -0.05185978
0003f0 fc 05 0b 3c 0e 87 41 bd 20 51 b4 3d 0f d3 2b bd
       0.0084853135 -0.04724794 0.08804536 -0.041949328

fc1.bias f4 [64]
000000 bb c7 ca bc c3 ae b4 3e a6 a7 e7 bd c8 1a 77 3c
       -0.024753442 0.35289583 -0.11311273 0.015082069
000010 40 80 52 3e 1b 45 8a 3e 90 29 63 be 35 7f a6 3c
       0.20556736 0.27005848 -0.22183824 0.020324329
000020 42 93 34 3e 26 55 7a 3d 50 b2 04 3e 09 a8 91 3e
       0.176343 0.06111636 0.12958646 0.28448513
000030 d8 1c 69 3d ce c2 11 3e 31 33 d5 bd e1 59 77 3d
       0.056912273 0.14234468 -0.104101546 0.06038845
000040 03 1d 2b bf d2 ff 8d 3e fc d5 18 3e e6 8d fb 3e
       -0.66841143 0.27734238 0.14925379 0.49131697
000050 57 a2 1b 3e 65 55 ca be 6f 62 d5 3c bf 90 49 3e
       0.15198646 -0.39518276 0.026047913 0.19684123
000060 a1 d5 b6 be 71 b9 4d be 0a 7e 82 bd f5 0f a1 be
       -0.3570986 -0.20090272 -0.06371696 -0.31457487
000070 df 08 93 3e cc 30 01 be be bb fc be ba cc 9b be
       0.28717706 -0.12616271 -0.49361986 -0.3042963
000080 56 f5 43 3e 10 60 da 3e 1e 3b 25 3f 4d 67 17 bf
       0.19136557 0.42651415 0.6454333 -0.59142
000090 14 dc d2 3b df 87 97 3e c0 ad e9 3c f6 35 49 be
       0.0064349268 0.2959585 0.028525233 -0.1964949
0000a0 48 26 dd be aa 74 37 3e 4e 32 4d be ec 20 f7 3e
       -0.4319327 0.17915598 -0.20038721 0.48267305
0000b0 58 93 1b 3e 0a f4 02 be 04 6d 1d 3e 44 2b d0 3e
       0.15192926 -0.12788406 0.15373617 0.4065801
0000c0 cb 1d ce 3e e8 52 97 3e a3 e8 fa bc 6e d1 04 be
       0.40257105 0.2955544 -0.030628508 -0.12970516
0000d0 23 3c 15 3e cf 48 3f be 0f 2b f1 3e dc 1c 4d 3e
       0.14573722 -0.18680118 0.47103164 0.2003054
0000e0 ac bb 51 3c 0c 65 3f bd 5c 97 08 be 63 ba 90 bd
       0.012801092 -0.046727225 -0.13338989 -0.070668004
0000f0 4d bc 42 bc cc 7c 46 3b 66 bf 0e 3e a5 7c b5 be
       -0.011885715 0.0030286787 0.139402 -0.3544666

fc2.weight f4 [64, 64]
000000 c2 1c c9 3d 46 14 2e bd 6c 0f 41 bd cd 93 f8 bd
       0.09819938 -0.042499803 -0.047133848 -0.12137566
000010 51 33 42 be 5a 7d 9e bc ae 20 09 bd 30 9e f6 3d
       -0.18964888 -0.019346882 -0.03347843 0.120418906
000020 1f 57 26 3e 9d 95 0a be 23 bb 05 3d 2c 0d 10 be
       0.16244172 -0.13533635 0.03264917 -0.14067525
000030 9e ee c9 bd 2d a1 ef 3c 1a 6e 9c be 36 e9 a4 3d
       -0.09859966 0.02925166 -0.3055275 0.08052294
000040 7f 1d 2e 3d 6a 0d 41 3d 61 c4 4b bc 4a 01 ac be
       0.0425086 0.047131933 -0.012436957 -0.33594733
000050 d8 e2 b7 bd 71 10 3e bd a6 c6 6b 3d d6 2f 55 3c
       -0.08978814 -0.0464024 0.057562493 0.013011893
000060 49 ca e3 3d e1 aa e7 3c 6f d2 af 3c 69 b5 c1 be
       0.11122567 0.028279724 0.021462647 -0.37833717
000070 05 41 c5 bd 57 9f 0d 3e 98 9e 5b 3e e0 95 50 3e
       -0.09631542 0.13830315 0.21447217 0.20369673
000080 0a 98 7d bd 29 f2 41 be cc 11 22 be 83 89 ba bd
       -0.061912574 -0.18940033 -0.15827101 -0.091082595
000090 1d c9 92 be a4 ec 58 bb 58 b9 35 be 21 c7 b9 3d
       -0.28669062 -0.0033100033 -0.17746484 0.09071184
0000a0 75 32 41 3e 3c a9 e0 bd 8d 4a ea 3d 5e 54 67 3d
       0.18866904 -0.10969779 0.11440001 0.056476943
0000b0 98 22 13 be 93 12 8f bd dc fb ca bc eb 16 06 be
       -0.14368665 -0.069859646 -0.024778299 -0.1309468
0000c0 24 67 50 be fe 6a 1a 3e 18 89 36 be f3 77 23 be
       -0.20351845 0.15079877 -0.17825735 -0.15963726
0000d0 1b 85 b1 3d 5b 3a 1b 3e 61 d1 85 3e ea b0 bc 3c
       0.08667966 0.1515898 0.26136306 0.023033578
0000e0 ed c1 dd 3d 20 3f 3d 3e 14 0e 1a 3e a0 1e 84 be
       0.10828004 0.18481112 0.15044433 -0.25804615
0000f0 d0 8c 13 bc 04 0a ca bc f8 4d 61 be 9f 86 57 ba
       -0.00900574 -0.024662979 -0.22002399 -0.0008221659
000100 a6 58 00 3f 0f 3b a9 3d e2 12 9d 3e 3c 5f 95 be
       0.50135267 0.08263218 0.3067847 -0.2917422
000110 a6 bf 6b be 05 c3 81 bc 13 b5 5c 3e 29 89 76 3e
       -0.23022327 -0.015840063 0.2155345 0.2407576
000120 7b 1d 83 3d f0 12 28 be 35 66 96 3e 6c 25 93 be
       0.06402107 -0.16413474 0.29374853 -0.28739488
000130 a3 2b ec 3d ae a6 f1 3d 94 00 39 bd 9e 05 97 bc
       0.115317605 0.1179937 -0.045166567 -0.018435296
000140 6b 1d aa 3e f9 06 3d 3d aa 21 ad bd aa 41 ec bc
       0.3322557 0.046149228 -0.084536865 -0.028839905
000150 2f 52 05 be e8 87 ac 3e 87 89 26 bd 3d 42 97 3d
       -0.13019632 0.33697438 -0.0406585 0.07385681
000160 35 02 ed 3b e6 fa a4 3e 35 9f 90 bc 22 c3 8b bc
       0.007232929 0.3222267 -0.01765404 -0.01706082
000170 a6 d6 c8 3d 74 21 53 3d 8f d9 9b 3e a0 2a c4 3d
       0.09806566 0.051545575 0.30439422 0.095784426
000180 11 1c 34 3d 20 39 81 be 55 f2 3e 3e b3 be d5 be
       0.04397208 -0.25238895 0.1864713 -0.41747054
000190 55 16 2d bd a8 00 02 3e 85 4d 9c 3d d8 0d cf 3e
       -0.042257626 0.12695563 0.07631973 0.4044025
0001a0 b8 55 07 bc a9 4a aa 3c 34 7b 3f 3e 30 86 c5 bb
       -0.008260183 0.020787554 0.18699342 -0.0060279593
0001b0 58 bc b3 bd e1 5e 8d 3e 74 19 74 bc 79 cf 83 3e
       -0.08776158 0.2761145 -0.014898647 0.25744227
0001c0 e2 fc 2b 3e bd 52 87 3d ff b5 58 bd 96 cf c3 bd
       0.16795686 0.06607578 -0.05290794 -0.09561078
0001d0 8e 0e 08 3f b0 bb 80 3f c5 42 82 bd dd 2f 10 be
       0.5314721 1.0057278 -0.063603915 -0.14080758
0001e0 48 3a 28 3f 9f 98 89 3f 41 8d 71 3e 16 11 ad bd
       0.6571393 1.0749701 0.2358904 -0.084505245
0001f0 d2 0f 13 3e 15 38 c3 3c 16 38 cf 3c 0e be 1a 3f
       0.14361504 0.023830453 0.025295299 0.6044625
000200 9b 6e 03 3d 10 dd 2b be c5 8e c2 be c7 cd cb be
       0.032087903 -0.16783547 -0.3799955 -0.39805433
000210 89 fe c3 be 13 26 5d 3d 8a 66 fd 3d 5d 2a 93 3d
       -0.38280132 0.05399139 0.123730734 0.071858145
000220 d0 99 a9 bd 35 b1 33 be 34 5c b5 bd c7 6b ac bd
       -0.082812905 -0.17548068 -0.08855477 -0.084189944
000230 62 51 b6 be 8e 3a 51 3c 02 db 3c 3e 1b 75 11 3e
       -0.35608965 0.012770308 0.1844292 0.14204828
000240 6e c2 82 be 94 c3 01 3e 5c 24 e7 be 77 e7 e9 3d
       -0.25538963 0.12672263 -0.45144928 0.114211015
000250 07 3d 5a be 0d 18 a2 3d 90 0c 1c bf c8 af d0 bd
       -0.21312343 0.079147436 -0.6095667 -0.101897776
000260 47 c0 d2 3d e5 14 b6 3a 2e 28 eb bd 8f e6 62 3d
       0.1029058 0.0013891725 -0.11482273 0.05539566
000270 0a 97 06 3d 42 e0 8f be 89 16 1a bf 06 43 a7 be
       0.032858886 -0.28100783 -0.60190636 -0.32668322
000280 7e 75 13 3d 2c fd 89 3e 7c 16 65 3d c6 6b 1a be
       0.03600072 0.26950967 0.055929646 -0.15080175
000290 cf e0 87 bd 97 c5 51 3e 7e df ab be fa 99 18 be
       -0.06634676 0.20485531 -0.33568949 -0.14902487
0002a0 d5 36 16 be c5 60 b2 be b8 ed e8 bd ca c4 22 3e
       -0.14669354 -0.34839454 -0.11373466 0.15895382
0002b0 3f 65 75 be 45 be 42 3e 8e c9 dc 3c ff d1 75 be
       -0.23964404 0.19017895 0.026951578 -0.24005888
0002c0 a9 79 92 be e6 26 b4 bd 3c 66 e5 bc ef 11 82 bd
       -0.28608444 -0.08796482 -0.02800285 -0.06351077
0002d0 50 32 03 3e b0 57 b0 bd 75 2a 6b bf 56 5d d3 be
       0.12812161 -0.08610475 -0.9186166 -0.41282147
0002e0 2e 94 d3 3d 9f fc ea 3d 84 24 5c 3e 7d 3e 6a be
       0.103309974 0.11473965 0.21498305 -0.228754
0002f0 2a 3c 70 bd 38 b5 6e 3e 19 41 84 bd 94 74 24 3c
       -0.058651127 0.23311317 -0.06457729 0.01003756
000300 e4 11 45 bb 64 da a5 3d 52 90 6f bd 23 a6 45 be
       -0.0030070478 0.08098295 -0.058487244 -0.19301657
000310 02 24 f4 3c 8d 50 ac 3d ef 3f d2 3d d0 ea a9 be
       0.029802326 0.08413801 0.102661006 -0.3318696
000320 97 8b 3d bd 2d f9 be 3d fa 68 47 be 53 7e dc 3d
       -0.0462757 0.0932487 -0.19473639 0.10766282
000330 4d 88 6a bc 7e f6 2e 3c 51 d8 77 3e 60 36 02 be
       -0.014314723 0.0106788855 0.24203612 -0.12716055
000340 08 4b 83 be 92 6d 66 be 3f 3c 1b bd e7 f3 1a 3e
       -0.25643182 -0.22502735 -0.037899252 0.15132104
000350 89 3f 0a bd d0 26 d2 3d 7c d3 ff 3d 34 29 50 3e
       -0.033751998 0.10261309 0.12491509 0.20328218
000360 a3 ba d6 be ac 72 0b bd 24 87 94 bd 16 06 9e 3e
       -0.41939268 -0.034044906 -0.072523385 0.30864018
000370 1a 2a 56 3d 87 c6 a4 bd 5a c6 39 be 3d 69 99 be
       0.052286245 -0.080456786 -0.18142071 -0.29963103
000380 ad 9a 68 bd 8b 03 7d 3e 20 64 25 3d 5c 89 68 3e
       -0.056788135 0.24708383 0.04037869 0.22708648
000390 6f 93 35 3e 75 f1 71 be 54 e1 90 3b f1 3f bc bd
       0.17732023 -0.23627265 0.0044213925 -0.09191883
0003a0 4d 49 de bd d1 a9 73 3d 1f bc 49 be c2 39 7d be
       -0.10853825 0.05948812 -0.19700669 -0.24729064
0003b0 81 b8 ff 3c c7 6a 0f 3e 77 1f b5 be 49 5f a2 3e
       0.031215908 0.14005576 -0.35375568 0.31713322
0003c0 3b 1f 2e bc 69 0b d1 be 84 b9 1e bc 6b e9 5d 3e
       -0.010627563 -0.40829018 -0.009687785 0.21671073
0003d0 4d da 91 be ca 85 60 be f2 36 ac be 39 23 e3 3c
       -0.28486863 -0.21926036 -0.3363567 0.027726756
0003e0 c4 2b e5 bd 29 40 2c be ba d8 ec 3b 53 fc 2d 3e
       -0.11189988 -0.1682135 0.0072279843 0.16990785
0003f0 8a 0e 0a be 2e 28 b3 3d 06 62 35 bd 70 88 fc bd
       -0.13482109 0.08747898 -0.044282936 -0.12330711

fc2.bias f4 [64]
000000 a4 86 8e bd 79 d4 6c 3d 04 22 0c be 93 8a dd bd
       -0.069592744 0.057819817 -0.13684851 -0.108174466
000010 6d fd 93 bd 32 4d 39 be 33 da 8c 3c 8d 72 bb bd
       -0.072260715 -0.18095854 0.01719389 -0.09152708
000020 58 96 a4 bd 4b d8 34 be c1 90 b6 3c 12 31 c5 bc
       -0.08036488 -0.17660634 0.02228582 -0.02407125
000030 e3 f9 35 be 1f a4 bd 3c 6e 3f a4 3d 50 b8 2c bb
       -0.17771105 0.023149548 0.08019911 -0.0026354976
000040 3c 3b bb 3d 0c 40 ae 3b 56 06 90 bd 50 ed f4 bc
       0.091421574 0.0053176936 -0.070324585 -0.029898316
000050 e0 89 a6 bd 7e 01 0a 3d 35 1d a2 bd 14 db 31 bd
       -0.08131766 0.03369283 -0.07915727 -0.04342182
000060 51 d1 aa 3d ff f3 52 bd 0b 68 04 be c5 e2 9e be
       0.08340705 -0.051502224 -0.12930314 -0.31032386
000070 1f 8d 1e bb b2 d8 e4 bd 4c f1 52 3d 3b 5d b7 3d
       -0.0024193001 -0.11174144 0.05149965 0.08953329
000080 44 31 7b be b6 ee 15 3e 24 02 1e bc c4 05 ba 3b
       -0.24530512 0.14641842 -0.009644065 0.005676957
000090 ea 85 b7 bd b6 00 d0 3c 55 08 58 3d 8c de 29 be
       -0.08961089 0.025390964 0.05274232 -0.16588801
0000a0 1d 3d da bd b1 4c 0a be ae 5b dc 3b aa 1d c6 bc
       -0.10656188 -0.13505818 0.0067247963 -0.024184067
0000b0 dc 47 36 3e 65 9e 1d be 26 56 b0 bd 66 45 cb bd
       0.1780085 -0.15392454 -0.086101815 -0.09925346
0000c0 be 0c 04 3d 80 66 c4 bd 4f 8a da 3d 2b f2 a6 bd
       0.032238714 -0.09589863 0.106709115 -0.081516586
0000d0 87 cb b9 bd d2 10 e0 3d 62 10 b9 3d f4 c5 a1 bc
       -0.09072023 0.10940708 0.09036328 -0.019747712
0000e0 45 af a1 3d 2f 22 df bd 0e 3e 25 be 74 a0 57 bd
       0.07894758 -0.10895192 -0.16136953 -0.052643254
0000f0 58 07 36 bd bd a6 01 3c 69 65 aa bb 40 19 dd bd
       -0.044440597 0.007913289 -0.0052000773 -0.10795832

fc3.weight f4 [24, 64]
000000 6f 22 5d be 0d 98 cb bd ed cc df 3b b9 de 30 be
       -0.21595167 -0.09941111 0.006829849 -0.17272462
000010 25 03 0a 3e d1 d0 60 be 38 ea 3d be 25 e8 a4 3c
       0.13477762 -0.21954657 -0.18546379 0.020130226
000020 87 fc 33 be 72 27 e6 be 4c 02 40 be 4a 6f 8f 3e
       -0.175768 -0.4495197 -0.18750876 0.28014594
000030 4c 64 a8 3e 09 ef a9 3d a3 b3 e6 bc 1a 58 69 bd
       0.3288902 0.082975455 -0.02816183 -0.056968786
000040 68 a2 63 3e 6e c6 db 3e 43 dd 18 3e 1f c7 2a be
       0.22229922 0.42924827 0.14928155 -0.16677521
000050 fc 89 8d 3c 80 ca 2a bd 56 75 24 bf 37 fb a1 be
       0.01727771 -0.041697025 -0.6424154 -0.31636974
000060 95 62 95 3e a9 06 59 be 91 4a 40 be ac c8 01 3f
       0.29176775 -0.21193947 -0.18778445 0.50696826
000070 73 88 d3 be a6 7c 5f be 69 98 8f bc 0c 4a 3d be
       -0.4131504 -0.21824893 -0.01752873 -0.18485278
000080 07 30 bd 3e c7 0f 23 3e 59 4b 07 bc 4d fb 8f bd
       0.36950704 0.15923987 -0.00825771 -0.07030354
000090 c0 cc 4d be a1 e4 2e bd d3 9e d8 39 ff 0c 70 be
       -0.20097637 -0.042698506 0.00041317064 -0.23442458
0000a0 dc f4 f5 3c f9 cb 06 3f 6e 2a 84 3d 77 85 29 3e
       0.030023985 0.5265499 0.06453405 0.16554819
0000b0 71 81 02 be 22 43 23 3e dc 67 7a bd 62 17 35 be
       -0.1274469 0.15943578 -0.061134204 -0.17684701
0000c0 32 87 a2 bc 50 6c 6e 3e 6b 8c 1b be 9d 14 22 be
       -0.019839857 0.23283505 -0.15190284 -0.15828176
0000d0 c1 27 41 3c aa d5 40 3e 67 77 61 3e 9a c2 ca 3e
       0.011789263 0.18831506 0.22018205 0.39601594
0000e0 74 c5 61 bd 53 f0 49 be 98 04 a6 3e ad 2a 90 3e
       -0.055119947 -0.19720583 0.3242538 0.2815756
0000f0 e7 a2 ee 39 64 2a e7 bd e5 73 9f bc 65 8c 54 be
       0.0004551627 -0.11287382 -0.019464443 -0.20756681
000100 11 5e 95 bd e8 ad 76 3d 0c 10 1e 3b ab e3 46 be
       -0.07293332 0.060224444 0.0024118451 -0.19422786
000110 33 7a e2 3d 23 82 2b be 51 a1 e4 bc f1 55 2a 3d
       0.11058464 -0.16748862 -0.027908953 0.041585866
000120 f9 92 31 3d 72 6d e7 be 6c 8f 79 be 4f bf 54 3e
       0.043353055 -0.45200688 -0.24371117 0.20776103
000130 79 03 26 3f ee de 9b 3c c4 23 ef 3d 37 ca 07 3d
       0.6484905 0.0190272 0.116767436 0.03315183
000140 f3 50 24 3e 94 5d be 3e 33 bc ec 3d ff 03 11 bd
       0.16046505 0.3718077 0.11559334 -0.0354042
000150 e9 30 39 3d 1e 9a c6 bc 4a 04 16 bf 09 d7 f7 be
       0.04521266 -0.02424341 -0.58600295 -0.48406246
000160 a4 26 73 3e 7e 37 c0 be 77 0a 3f be ce 24 12 3f
       0.23745209 -0.37542337 -0.18656336 0.5708741
000170 64 b9 92 be 8b 2e 66 be 11 37 9c 3d 2f 6b 66 be
       -0.28657067 -0.22478692 0.076276906 -0.22501825
000180 d4 43 c8 3e b8 ea 79 3e 95 5d f8 bd 6c dc 01 3e
       0.3911425 0.24405944 -0.12127224 0.1268174
000190 e3 99 77 be 11 ad 90 bb ee d2 18 bd 43 1b 48 be
       -0.24179797 -0.0044151624 -0.037310533 -0.1954165
0001a0 80 7c 8c 3d 80 80 da 3e 00 a2 24 bd 7a f9 37 3e
       0.06859684 0.42676163 -0.040193558 0.17966262
0001b0 34 ce 15 be 88 4d 9f bc 37 dd 41 be dd e2 de bd
       -0.14629441 -0.01944615 -0.18932043 -0.108831145
0001c0 77 7e 08 be f5 7f c6 3c 69 46 b2 bd ff 63 4c be
       -0.13329493 0.024230937 -0.08704836 -0.1996002
0001d0 24 e3 fe bd ed b0 09 3c fc b2 66 3e 5c a9 a4 3e
       -0.124456674 0.008403999 0.22529215 0.3216046
0001e0 a0 fb 4f bd f7 81 64 be 1d 67 bc 3e 3f d4 12 3e
       -0.050777078 -0.22315203 0.3679742 0.14338778
0001f0 1a a7 78 3c 93 3c 28 bd d4 30 d3 bc b9 02 94 be
       0.015176559 -0.041073393 -0.025780119 -0.28908327
000200 4e 9e 39 be 06 2d 49 bd 4a 52 09 bd a5 9b 83 bd
       -0.18126795 -0.049115203 -0.033525743 -0.06426171
000210 83 fb 8b bd 73 a2 78 bd 01 2a 01 3e 21 62 c7 bd
       -0.068350814 -0.0607018 0.1261368 -0.097355135
000220 4f 11 33 3d 9b 9f c2 be a2 66 65 be aa 0a 6e 3e
       0.04371768 -0.38012394 -0.22402433 0.23246256
000230 2e 04 55 3f 99 91 65 3d 39 97 31 bd e4 59 05 bd
       0.832095 0.056047056 -0.043357108 -0.03255643
000240 97 bb 30 3e 11 cf c2 3e 11 a6 16 3d 23 a0 5f bd
       0.1725906 0.38048604 0.036779467 -0.054596078
000250 a1 54 81 bd 5d 57 e6 bc 81 e6 ab be 60 74 e5 be
       -0.0631497 -0.02811783 -0.33574298 -0.4481535
000260 d2 a9 1e 3e db 08 d9 be 9e e0 5c be 5c e9 0e 3f
       0.15494469 -0.4238957 -0.2157006 0.5582483
000270 3c 2f 9f 3c dd 60 7b be 96 ca 51 3c 00 0f 53 be
       0.019431703 -0.24548669 0.012804648 -0.20611191
000280 3c 1f c1 3e 07 93 4a 3e ec 6a 34 bd 35 42 99 3d
       0.37719142 0.19782649 -0.04404728 0.07483331
000290 36 7d 88 be e8 a3 73 bd 5b 83 7c bb af 53 96 bd
       -0.26658028 -0.059482485 -0.0038530442 -0.0734018
0002a0 98 3f c9 3d f8 9b cb 3e ce cb a5 3d de bd 8b 3d
       0.09826583 0.39767432 0.08095513 0.06823324
0002b0 fb d2 22 be 5c 31 9c bd 66 2d 81 be 98 9f 5f be
       -0.15900795 -0.07626602 -0.2522995 -0.21838224
0002c0 66 26 44 be e3 0e 3f bd 1f e8 d2 bc 66 42 a8 bd
       -0.19155273 -0.046645056 -0.02574545 -0.082157895
0002d0 ec 4b 59 be f4 6d 2b 3d f5 94 59 3e eb d3 6e 3e
       -0.21220368 0.041852906 0.21248229 0.23323028
0002e0 ad 89 be ba a0 bd 26 bd 07 86 cd 3e 00 84 2b 3e
       -0.001453688 -0.040708184 0.40141317 0.16749573
0002f0 cf 18 57 3d 4f 70 0c be 65 73 c2 3d 66 20 d5 be
       0.052513894 -0.13714717 0.09494666 -0.4162628
000300 ee 72 07 be e4 fe 95 bd 1e 8c a0 3c 13 fe c3 bd
       -0.13227436 -0.07324007 0.019598063 -0.09569945
000310 43 e2 60 bd ff c9 cd 3d b3 d5 b5 b9 41 b3 89 be
       -0.05490328 0.10048293 -0.0003468223 -0.26894572
000320 45 de 48 3e c0 5e bf be f9 7c 17 be d1 92 3f 3e
       0.19616039 -0.37376976 -0.14793767 0.1870835
000330 12 15 35 3f 4d dc b4 3d b8 df e3 bc 21 b8 1a 3d
       0.70735276 0.088310815 -0.027816638 0.037773255
000340 c5 3c 0e 3e d8 33 8d 3e 6f d3 0f 3e f0 3b 3c bb
       0.13890369 0.27578616 0.140455 -0.002872225
000350 24 8a 83 bc 9d 7d 67 bd 6c 23 b2 be 95 81 ca be
       -0.016057082 -0.05651628 -0.3479265 -0.39551988
000360 45 e9 45 3e 34 55 af be b1 a0 73 be 8b 92 03 3f
       0.19327267 -0.34244692 -0.23791768 0.5139548
000370 c2 4f e5 3e 74 29 f4 bd 30 40 48 3d ff 93 35 be
       0.44787413 -0.11921969 0.04888934 -0.17732237
000380 37 89 4c 3e 38 6c 22 3e 89 3f 0a bd 66 ff 3c 3e
       0.19974218 0.15861595 -0.033751998 0.18456802
000390 f5 71 77 be c7 71 ba bd 1e 0d 33 bd b3 74 b8 bd
       -0.24164565 -0.091037326 -0.04371368 -0.090066336
0003a0 23 35 5d 3e bc 31 b0 3e 62 94 f4 3b a8 fe e4 3d
       0.21602301 0.34412944 0.0074639777 0.11181384
0003b0 1a 11 d3 bd 22 fb 28 be 40 26 54 be 4b 4a 88 be
       -0.10305996 -0.1650205 -0.20717716 -0.2661918
0003c0 6b ca 92 be 6f 82 a2 be 18 f3 38 bc d8 aa 3a be
       -0.28670058 -0.31740138 -0.011288427 -0.18229234
0003d0 95 70 7e be 9f 64 02 3e 00 a2 21 3e 49 c3 32 3e
       -0.24847634 0.12733696 0.15784454 0.17457308
0003e0 29 af 9a 3c 55 c9 00 be f9 ad ec 3e dc d1 0e 3e
       0.018882351 -0.12576802 0.4622648 0.13947242
0003f0 9c 32 0b bd 33 26 ad bd bb ad 60 3d 3a ad ed be
       -0.03398381 -0.084545515 0.054853182 -0.46421224

fc3.bias f4 [24]
000000 ea 7e de 3a d2 1b 33 3d bb ef 42 3d 0b 4c 49 3b
       0.0016975079 0.043727703 0.047591906 0.003071549
000010 c4 11 a0 bd 94 d6 bd bd 91 55 f5 bd 62 96 ea bd
       -0.078158885 -0.09269443 -0.11979211 -0.114544645
000020 a0 e2 cb bc 7d 02 e8 3d bb 3b 97 bd fb 6e c8 bd
       -0.024888337 0.113285996 -0.073844396 -0.09786793
000030 e0 6d 11 3d 09 54 e5 bb 11 04 e0 3d a8 83 f4 3d
       0.035505176 -0.006998543 0.109382756 0.11939174
000040 fb 88 c4 bc b2 6d 23 bd 6a cf 15 bd 32 84 d0 bd
       -0.023991099 -0.039899535 -0.03657476 -0.10181464
000050 87 53 c9 3d 09 05 c8 3d 10 fc a5 3d d0 18 f3 bc
       0.09830385 0.097665854 0.08104718 -0.029674917
