model_weights/weather_weights/model_weather_SDTW_gamma_1.pt (torch, 142790 bytes, 6 tensors)

fc1.weight f4 [64, 456]
0	0xbd542a60	-0.051798224
1	0x3c058306	0.008148914
2	0xbd4ef567	-0.050527003
3	0xbb8371d2	-0.004011371
4	0x3dec63c8	0.11542469
5	0xbdac84ac	-0.08423743
6	0xbced82a6	-0.028992962
7	0xbda2e733	-0.07954254
8	0xbb513472	-0.003192213
9	0xbc87f252	-0.01659504
10	0x3cff19a2	0.031140152
11	0x3e046804	0.12930304
12	0x3d9630ff	0.07333564
13	0x3d08e9ec	0.03342621
14	0x3d42f025	0.0475923
15	0x3bb2bfd8	0.0054549985
16	0x3d0fdded	0.035123754
17	0xbd330995	-0.04371031
18	0xbc068c20	-0.008212119
19	0xbb85ba18	-0.004081022
20	0x3c53ffbf	0.012939393
21	0xbd2c77bb	-0.04210637
22	0x3d07030d	0.032961894
23	0x3dbc7d67	0.09203606
24	0xbdb970b1	-0.09054697
25	0xbd4e7aa0	-0.050409913
26	0xbdf174ff	-0.11789893
27	0xbcf69629	-0.030100899
28	0xbd2ac491	-0.041691367
29	0x3ce9a152	0.028519306
30	0x3de970e1	0.11398483
31	0x3c1893d2	0.009312587
32	0x3d38f025	0.045150895
33	0x3d1fd655	0.039022762
34	0xbbd32127	-0.006443161
35	0x3c34457a	0.011002893
36	0xbbf7725e	-0.0075514754
37	0x3c0e6c0f	0.008692755
38	0xbc02a6a2	-0.007974299
39	0x3c9e3947	0.019314421
40	0xbd14dd43	-0.036343824
41	0x3ccc35c9	0.02492799
42	0xbb78076a	-0.0037846216
43	0xba8b330c	-0.0010620072
44	0xbc8050c8	-0.01566352
45	0xbd3d3ddd	-0.046201576
46	0x3c994b20	0.01871258
47	0xbd038431	-0.03210849
48	0xbc9fa590	-0.019488126
49	0x3dbe36ed	0.0928782
50	0xbd5b6626	-0.053564213
51	0xbb734aa0	-0.0037123337
52	0xbbc53784	-0.006018581
53	0xbd5bab6a	-0.05363027
54	0x3ce4b90a	0.027920265
55	0xbb9cf0de	-0.004789456
56	0x3d0a5745	0.033774633
57	0xbc0bf1dd	-0.008541551
58	0xbd1ce5a5	-0.038304944
59	0x3c8b6868	0.017017558
60	0xbcea17f2	-0.028575871
61	0x3b8cf52d	0.004301688
62	0xbd796941	-0.060891394
63	0xbd48c9c8	-0.04902056
64	0xbc2377d5	-0.009977301
65	0xbd0d3f74	-0.03448434
66	0x3b855de8	0.0040700324
67	0x3cce96bb	0.025218358
68	0x3e273a51	0.1633084
69	0xbd27b1e4	-0.040941134
70	0x39ebdb9e	0.0004498632
71	0x3c967734	0.018367387
72	0x3bee1702	0.0072659263
73	0x3d484f18	0.048903555
74	0x3c8b6af3	0.01701877
75	0x3cef0c60	0.029180706
76	0xbcbf69fe	-0.02336597
77	0x3cdcc75a	0.026950527
78	0xbc8edbd5	-0.017438808
79	0x3d24ab69	0.040202532
80	0xbc47a30f	-0.012184872
81	0x3c6d2e7c	0.014476415
82	0xbce075a4	-0.027399845
83	0xbc66686d	-0.014062983
84	0xbce43445	-0.027856955
85	0xbce4f6d7	-0.027949734
86	0x3ccd237b	0.025041332
87	0x3d9f35fa	0.07773967
88	0xbdb70266	-0.08936004
89	0x3bdb731e	0.0066970726
90	0x3d2368b8	0.03989479
91	0xbc33b4d5	-0.010968407
92	0x3d3b6762	0.04575289
93	0xbd170836	-0.036873065
94	0x3c14c9f7	0.009081355
95	0xbd0c8302	-0.034304626
96	0x3c6bb956	0.014387449
97	0x3d326477	0.043552842
98	0xbc9ab155	-0.018883387
99	0x3c831adc	0.016004018
100	0xbc1e5de7	-0.009665943
101	0xbc7763dc	-0.015099492
102	0xbaa2b826	-0.00124145
103	0x3cda1fa8	0.026626423
104	0xbd5bd02c	-0.053665325
105	0xbd272116	-0.040803038
106	0x3d8976a7	0.06712084
107	0xbe009891	-0.125582
108	0x3c61494f	0.013750388
109	0x3bc97098	0.0061474554
110	0xbc8ef6bd	-0.017451638
111	0x3caccd5c	0.021094017
112	0xbc279f7e	-0.010230897
113	0xbd2efac4	-0.042719617
114	0x3c16f2cc	0.009213161
115	0x3d741d9a	0.059598543
116	0xbbd32ffc	-0.006444929
117	0x3a8fdd6e	0.0010976025
118	0xbd6fb731	-0.058524314
119	0xbb8f9189	-0.004381363
120	0xbd2a4131	-0.041566078
121	0xbca0f1ef	-0.019646613
122	0x3bffd8ed	0.007807842
123	0x3b7d2992	0.0038629514
124	0xbd2eae2d	-0.042646576
125	0x3d039468	0.032123953
126	0xbda60ed7	-0.08108299
127	0x3ccd1a93	0.025037086
128	0x3d36c3cc	0.04462032
129	0x3c8d1a34	0.017224409
130	0xbcbf67cd	-0.023364926
131	0x3bec4db1	0.00721141
132	0x3d38f9fe	0.045160286
133	0x3d063e28	0.03277412
134	0x3d56f2d1	0.05247766
135	0x3d02e59f	0.031957265
136	0x3d539f65	0.051665682
137	0xbc56d08d	-0.013111246
138	0xbcc660ca	-0.024216074
139	0xbcd3ac81	-0.025839092
140	0xbcf0c95c	-0.02939289
141	0xbd1e3944	-0.03862883
142	0x3c8bf36f	0.017083852
143	0xbd9d9f4b	-0.07696398
144	0xbc72af57	-0.014812312
145	0xbdc3eb86	-0.09566407
146	0x3c3f23de	0.011666266
147	0x3d40c1bf	0.04705977
148	0x3ac43333	0.0014968872
149	0xbd09b699	-0.033621404
150	0xbc81cd7e	-0.015845057
151	0xbbef27a1	-0.0072984253
152	0xbcbf3e8f	-0.02334526
153	0xbc92fac7	-0.017941846
154	0x3cd080da	0.025452066
155	0xbd014987	-0.03156426
156	0xbd943efe	-0.07238577
157	0x3d1b977b	0.03798626
158	0xbd23188c	-0.03981833
159	0xbb601de5	-0.0034197506
160	0x3d0e27f3	0.034706067
161	0x3ccfe41c	0.025377326
162	0xbcade9f4	-0.021229722
163	0xbd5ed04d	-0.05439787
164	0xbe2a670c	-0.16640872
165	0x3d257bbc	0.040401205
166	0xbc775394	-0.01509561
167	0x3d2f022d	0.042726684
168	0xbc802a90	-0.015645295
169	0xbcee74e4	-0.029108472
170	0x3d16f70c	0.036856696
171	0xbd01a4de	-0.03165137
172	0x3d61b42e	0.055103473
173	0x3cdf0325	0.02722318
174	0xbc2056a0	-0.009786278
175	0xbdaf4727	-0.08558493
176	0xbc1f3e2c	-0.009719413
177	0xbc25d728	-0.010122098
178	0x3d21fadb	0.039545875
179	0xbb018bc4	-0.0019767145
180	0x3d0d4c60	0.034496665
181	0xbcb7a592	-0.022417817
182	0xbd0d2127	-0.034455445
183	0xbe0f3a2f	-0.13987039
184	0xbc8b89ad	-0.017033422
185	0xbd090040	-0.033447504
186	0x3d016e8a	0.03159956
187	0xbca4f1e7	-0.02013488
188	0x3b8d3a3d	0.004309921
189	0xbb30eb05	-0.0026995551
190	0x3c902a8e	0.017598417
191	0xbcb55e6e	-0.022139754
192	0x3ae35783	0.0017344806
193	0xbb25043b	-0.0025179524
194	0xbc86b308	-0.01644279
195	0xbc93e469	-0.01805325
196	0x3c9f06a3	0.019412344
197	0x3d29e5d1	0.041478936
198	0xbc5d0db1	-0.013492034
199	0xbd141067	-0.036148455
200	0xbd661a2e	-0.05617731
201	0xbdafb8e1	-0.08580185
202	0xbddeebb9	-0.10884804
203	0x3d30aa59	0.043131206
204	0xbd1d85c0	-0.038457632
205	0xbc59c030	-0.01329045
206	0x399cd910	0.00029916363
207	0x3bb5d109	0.0055486006
208	0x3c4b2757	0.012399516
209	0xbcc0f4d5	-0.023554245
210	0x3d0873fc	0.033313736
211	0x3ce62b69	0.028096871
212	0xbbfa72b3	-0.0076430677
213	0xbbb3ab1f	-0.0054830457
214	0x3d022678	0.031774968
215	0xbd15f747	-0.036612775
216	0xbb312de3	-0.0027035407
217	0xbcbc7f43	-0.023009902
218	0x3c665ba4	0.014059935
219	0xbd8617b4	-0.0654749
220	0xbda456d0	-0.08024371
221	0xbdbbcd37	-0.09170001
222	0xbc6b0c37	-0.014346174
223	0x3c9ae9c7	0.018910302
224	0x3cb7d205	0.022439012
225	0xbc42c918	-0.011888765
226	0x3cdec864	0.027195163
227	0x3ca57b6b	0.020200452
228	0x3d849768	0.06474191
229	0xbbc6ed66	-0.0060707806
230	0x3d5ff1d7	0.054673996
231	0x3abc18cc	0.0014350652
232	0xbda7d87c	-0.08195588
233	0x3cb943a6	0.022615265
234	0x3c72f6fe	0.014829395
235	0xbc722b9e	-0.014780907
236	0xbbddcbc5	-0.006768676
237	0x3c5bbc08	0.013411529
238	0xbd2877e9	-0.04112998
239	0xbde95192	-0.113925114
240	0xbca106db	-0.01965659
241	0x3c037ca3	0.008025321
242	0xbc2a71ef	-0.01040314
243	0xbd934bc4	-0.071921855
244	0xbdadf418	-0.08493823
245	0xbd696aea	-0.056986727
246	0xbd1e9a62	-0.03872145
247	0x3cbe60f0	0.023239583
248	0xbaecb56f	-0.0018059443
249	0xbcfc5b49	-0.030805247
250	0xbc305169	-0.010761597
251	0xbd961863	-0.0732887
252	0x3c138f9b	0.009006406
253	0xbd32e0a0	-0.04367125
254	0xbd16140c	-0.036640212
255	0xbd18d178	-0.03730914

fc1.bias f4 [64]
0	0x3d8c467e	0.06849383
1	0xbdcab8cf	-0.09898531
2	0x3de8ee27	0.11373549
3	0x3d98f8c7	0.074693255
4	0xbccdf430	-0.025140852
5	0xbd5a6c13	-0.053325724
6	0x3e16e459	0.14735545
7	0x3dc0fc93	0.09423175
8	0x3db70af4	0.08937636
9	0x3da1cc93	0.079003476
10	0xbc5aea0c	-0.013361465
11	0xbe0d8d42	-0.13823417
12	0x3dcae82b	0.09907564
13	0xbd59030c	-0.05298142
14	0xbd8a598a	-0.067553595
15	0x3cc5e3c2	0.024156455
16	0xbda7acf3	-0.08187284
17	0x3e7c5350	0.24641156
18	0x3d870369	0.06592447
19	0xbda8fc0d	-0.082512
20	0xbda3236c	-0.079657406
21	0x3df5cd1c	0.12002012
22	0x3d77e4d8	0.060520977
23	0xbafa01c3	-0.0019074011
24	0xbc94c2a7	-0.018159224
25	0x3cc059bc	0.023480289
26	0x3cd5998e	0.026074197
27	0xbcd3955a	-0.025828052
28	0xbcb9f0c9	-0.022697823
29	0x3e17eb75	0.14835913
30	0xbe2be145	-0.16785152
31	0x3c579be5	0.013159727
32	0xbe0744a5	-0.1320978
33	0xbc2cc57d	-0.010545132
34	0x3dbc996f	0.09208953
35	0x3e51f8d6	0.2050508
36	0xbc3526c1	-0.011056603
37	0xbda61e7f	-0.081112854
38	0x3d3cad81	0.046063904
39	0x3dfabf4c	0.12243518
40	0xbd70b7c0	-0.058768988
41	0xbd8c02f2	-0.06836499
42	0xbdc9b343	-0.098486446
43	0xbe84d355	-0.25942484
44	0xbd905588	-0.07047564
45	0xbe34c68a	-0.17653862
46	0xbdd77206	-0.10519795
47	0x3df1a927	0.117998414
48	0xbdcc09e9	-0.09962828
49	0xbd9f2145	-0.077700175
50	0x3d5999e3	0.053125273
51	0xbc3eb987	-0.011640913
52	0x3b0f3c38	0.0021855962
53	0x3d89d5db	0.06730243
54	0x3e2e701d	0.17034955
55	0x3ce671dc	0.028130464
56	0xbdc7d4e2	-0.09757401
57	0x3cbc4e33	0.022986507
58	0xbb3e65e1	-0.0029052424
59	0x3e05d380	0.13068962
60	0x3d8a7856	0.067612335
61	0x3c840ed6	0.016120356
62	0x3ccec954	0.025242485
63	0x3d3e321c	0.046434507

fc2.weight f4 [64, 64]
0	0xbe7f374a	-0.24923435
1	0x3e201bbd	0.15635581
2	0xbcce62f1	-0.025193663
3	0xbd3e4a71	-0.04645771
4	0x3de96e01	0.11397935
5	0xbe544e20	-0.20732927
6	0xbe3dbec7	-0.18529807
7	0xbe58e4f0	-0.21181083
8	0xbd4f0c25	-0.05054869
9	0xbde24708	-0.110487044
10	0x3de190f6	0.11013977
11	0x3e568363	0.20948558
12	0xbe3761d5	-0.17908414
13	0x3ddd0f35	0.10793916
14	0x3e106aca	0.14103237
15	0x3d0239bc	0.03179334
16	0xbe3d5c53	-0.1849225
17	0xbe737d0c	-0.2377817
18	0xbd8c9137	-0.06863635
19	0xbe121649	-0.14266314
20	0xbd642576	-0.055699788
21	0xbe5ed0e2	-0.2175937
22	0xbcab4a75	-0.020909527
23	0xbc6a3229	-0.014294186
24	0x3ca15e73	0.019698357
25	0xbe616d69	-0.22014393
26	0xbe58d9a6	-0.21176776
27	0xbe668232	-0.22510603
28	0x3df81884	0.12114051
29	0x3c182dda	0.009288276
30	0xbdfb0e04	-0.12258533
31	0xbc7a73a6	-0.015286362
32	0x3d971460	0.07376933
33	0x3dca0c59	0.098656364
34	0x3d3f94b7	0.046772685
35	0xbe865c37	-0.2624223
36	0xbbfa3e5f	-0.0076368297
37	0x3dfdbd39	0.12389607
38	0xbc8eb20c	-0.017418884
39	0xbe6655a8	-0.22493613
40	0xbc73d96a	-0.0148833785
41	0x3e31dda1	0.17369701
42	0x3d93628d	0.071965314
43	0x3e00d8b0	0.1258266
44	0x3d375eaf	0.04476803
45	0xbdbc098e	-0.0918151
46	0xbddf3a78	-0.10899824
47	0xbb283ace	-0.0025669816
48	0x3e1ea96d	0.15494318
49	0x3e25bac9	0.16184534
50	0xbd059c7b	-0.032619935
51	0xbd99eabc	-0.07515475
52	0xbd4ca76b	-0.04996435
53	0xbe5edeb7	-0.21764646
54	0xbe563d06	-0.20921716
55	0x3e02639f	0.12733315
56	0x3d19f407	0.03758624
57	0xbe1d0f53	-0.15337877
58	0xbe12111c	-0.14264339
59	0xbe7f4cb7	-0.24931608
60	0xbe0f796f	-0.14011167
61	0xbd34e6a6	-0.044165276
62	0xbe79a160	-0.24377966
63	0xbd89f750	-0.06736624
64	0xbd0b31d7	-0.033983078
65	0x3e4b49e8	0.19852412
66	0xbdc1b92c	-0.09459147
67	0x3c1eefed	0.009700757
68	0x3bb1c5c8	0.0054251887
69	0x3cad1ff8	0.021133408
70	0xbe6222d1	-0.22083594
71	0xbd3deb1f	-0.046366807
72	0xbe188dc5	-0.14897831
73	0xbe48689a	-0.19571152
74	0x3dca7cb4	0.098870665
75	0xbd6ed2ab	-0.058306377
76	0xbe2c71b7	-0.16840254
77	0x3da0bc25	0.07848386
78	0x3cccd0e8	0.025001958
79	0x3e435aa4	0.19077545
80	0xbd4eaaf8	-0.050456017
81	0xbe1a4abe	-0.15067574
82	0xbe4068b7	-0.18789946
83	0xbd0f5dae	-0.03500145
84	0xbd3818d7	-0.044945564
85	0xbc23fcd7	-0.010009012
86	0x3e358de6	0.17729911
87	0xbdb45e3b	-0.088070355
88	0x3e3dc3d0	0.18531728
89	0xbbff6a50	-0.007794656
90	0xbda59bd1	-0.0808636
91	0xbd62bda6	-0.055356644
92	0x3ca476d3	0.020076191
93	0x3df90db6	0.12160818
94	0xbde4c33b	-0.1117005
95	0xbd627158	-0.055283874
96	0xbc717492	-0.014737265
97	0x3df1ddb3	0.11809864
98	0x3da6f0f8	0.0815143
99	0xbdd4acd0	-0.10384524
100	0x3e54bf05	0.20775993
101	0x3d6818cd	0.056664277
102	0xbdeb7ea9	-0.11498768
103	0xbe46821f	-0.19385575
104	0x3d7c82ac	0.061648056
105	0x3e4052a4	0.18781525
106	0x3de2eff3	0.11080923
107	0x3e2a6559	0.16640224
108	0xbd933e55	-0.07189623
109	0xbe1b8f20	-0.15191317
110	0xbd9ec9ad	-0.0775331
111	0xbb6975aa	-0.0035623112
112	0x3da9e37c	0.08295342
113	0x3e6dec43	0.23234658
114	0x3c355104	0.011066679
115	0xbddc950f	-0.10770618
116	0xbe167a07	-0.14694987
117	0xbe1eb188	-0.1549741
118	0xbd81c2a9	-0.063359566
119	0xbbfec2ac	-0.0077746715
120	0x3c1e23e1	0.009652109
121	0xbe0e5a42	-0.13901618
122	0xbdf1de18	-0.11809939
123	0xbde00f24	-0.10940388
124	0xbdc9e3f4	-0.09857932
125	0xbc583b35	-0.01319771
126	0xbe639ae5	-0.22227056
127	0xbd858d15	-0.0652105
128	0x3e008e57	0.12554298
129	0xbe5e5729	-0.21712936
130	0x3d494bb4	0.04914446
131	0xbe7fad59	-0.2496847
132	0x3db10c33	0.08644905
133	0xbc531261	-0.0128828
134	0x3d0f6ff9	0.035018895
135	0xbe943780	-0.28948593
136	0xbe01204f	-0.12609981
137	0x3e773998	0.24143064
138	0xbdac896c	-0.08424649
139	0x3e8c4e4d	0.2740349
140	0xbe8a23ef	-0.2698054
141	0xbde0cf3f	-0.10977029
142	0xbe012807	-0.12612925
143	0xbdc72f8c	-0.09725866
144	0x3e6ac639	0.22927178
145	0xbee674dd	-0.45011035
146	0xbcf3ed56	-0.029776257
147	0x3e09878d	0.13430615
148	0x3ac8e6d6	0.0015327584
149	0xbdfb9f69	-0.122862644
150	0xbe5f2e1a	-0.2179493
151	0x3e0b5ea1	0.13610317
152	0xbeb4f7d8	-0.3534534
153	0xbe33e183	-0.17566495
154	0x3d8ee23e	0.06976746
155	0x3d475886	0.048668407
156	0xbd190272	-0.037355848
157	0xbec076b2	-0.37590557
158	0xbcdc7118	-0.026909396
159	0x3bacf88e	0.0052786535
160	0xbd80040d	-0.062507726
161	0xbe72073c	-0.23635572
162	0x3e4bfebc	0.19921392
163	0xbe666da3	-0.2250276
164	0xbe3f2e15	-0.18669923
165	0xbe59b3ea	-0.21260038
166	0xbba006b2	-0.0048836106
167	0x3e8ac79e	0.2710542
168	0xbe865f29	-0.26244476
169	0x3db64fef	0.08901965
170	0x3d4809db	0.048837524
171	0xbdce9fda	-0.10089083
172	0xbe06a91d	-0.13150449
173	0x3d8daf8a	0.06918247
174	0xbd0b2ea3	-0.033980023
175	0xbea3cf56	-0.31994122
176	0x3a2ae953	0.00065197534
177	0xbe25b424	-0.16182
178	0xbe76d4f0	-0.24104667
179	0x3dd40acd	0.103536226
180	0xbe4318b2	-0.1905239
181	0xbe50d5d6	-0.20394072
182	0xbd9d02f5	-0.0766658
183	0xbea752d5	-0.32680383
184	0xbe8f6090	-0.2800336
185	0x3e2b67f2	0.1673887
186	0x3d11a277	0.03555533
187	0x3c145160	0.009052604
188	0xbe0ad078	-0.13556087
189	0xbe6b1433	-0.22956924
190	0x3d035308	0.032061607
191	0x3ce26606	0.02763654
192	0xbde0ce77	-0.1097688
193	0x3de7a768	0.11311227
194	0xbe891fc5	-0.2678205
195	0xbd1d9e93	-0.038481306
196	0x3bfc69ea	0.0077030556
197	0xbdd20dec	-0.10256562
198	0xbe4b928f	-0.19880126
199	0xbe067fd0	-0.13134694
200	0xbe8f5b64	-0.27999413
201	0xbd98e9ff	-0.07466506
202	0xbd7def02	-0.061995514
203	0x3da79667	0.08182984
204	0x3d373fb4	0.044738486
205	0x3dccdb1f	0.100027315
206	0xbc806089	-0.015671032
207	0xbd2061d0	-0.03915578
208	0xbe431671	-0.1905153
209	0xbce23356	-0.02761237
210	0xbdda0cd3	-0.10646977
211	0xbe34e1e1	-0.17664291
212	0x3e353b44	0.1769839
213	0xbe7ea9f7	-0.24869524
214	0xbd086678	-0.033300847
215	0xbe83b011	-0.25720266
216	0x3e4e099e	0.20120856
217	0xbceee532	-0.029162023
218	0xbc9e7ddc	-0.019347124
219	0xbe79b153	-0.2438405
220	0x3d5fd446	0.0546458
221	0x3d7fb8ec	0.062432215
222	0xbc02540f	-0.007954611
223	0x3e1f5138	0.15558326
224	0x3ca10d95	0.019659797
225	0x3e2c6445	0.16835125
226	0x3bae644e	0.005322016
227	0xbe756165	-0.23962934
228	0x3e530c1e	0.20610091
229	0x3ba897c0	0.005145043
230	0xbe8234c3	-0.2543088
231	0xbe8b7d7c	-0.27244174
232	0x3e311f79	0.17297162
233	0x3d952052	0.07281555
234	0xbd635004	-0.05549623
235	0x3e2262a7	0.15857945
236	0x3d39c4f6	0.045353852
237	0x3c879740	0.016551614
238	0x3d0369ea	0.03208343
239	0x3e08d90a	0.13364044
240	0x3dcd8acb	0.10036238
241	0x3d09f806	0.0336838
242	0x3ca4b06d	0.020103658
243	0xbe473db4	-0.19457132
244	0x3daf1b17	0.08550089
245	0xbe87914a	-0.26478034
246	0xbdcc75ea	-0.09983428
247	0x3c549f82	0.012977483
248	0x3d09c446	0.033634447
249	0xbe68a2ce	-0.22718355
250	0xbe68c9d3	-0.2273324
251	0xbe0c43dc	-0.13697761
252	0x3c71fda4	0.014769945
253	0x3d76bd2b	0.060239
254	0xbdd2b35d	-0.10288117
255	0xbe41cdd2	-0.1892617

fc2.bias f4 [64]
0	0xbdc18314	-0.09448829
1	0x3cda84b4	0.026674606
2	0x3c4ac808	0.012376793
3	0x3dde5f43	0.108580135
4	0xbe044f00	-0.12920761
5	0xbe359b23	-0.17734961
6	0xbdfda263	-0.123844884
7	0xbe1b79bb	-0.15183155
8	0x3d0dcc08	0.034618407
9	0xbdcb590d	-0.099290945
10	0xbdc6db54	-0.09709802
11	0x3e0b3e5c	0.13598007
12	0x3d300de8	0.042982012
13	0x3d8af374	0.06784716
14	0x3d289016	0.041153036
15	0x3d76db28	0.060267597
16	0xbe0c3db0	-0.13695407
17	0x3cbe94c8	0.023264304
18	0xbdb768ed	-0.0895556
19	0xbd3a3c3b	-0.045467597
20	0xbd9a792c	-0.07542643
21	0xbd863bd0	-0.06554377
22	0x3e0535da	0.13008824
23	0x3d787995	0.060662825
24	0xbce1d9d5	-0.02756969
25	0xbde0e5f0	-0.10981357
26	0xbc91ec20	-0.017812788
27	0xbdc7d3da	-0.09757204
28	0x3cbdccb8	0.023168907
29	0xbb6c20f0	-0.0036030374
30	0x3dfd8eb1	0.12380732
31	0xbdaafad8	-0.08348626
32	0xbcab4e86	-0.020911466
33	0xbcf0b8a3	-0.029384917
34	0x3c69e2f6	0.014275303
35	0x3d12ecc9	0.035870347
36	0xbc101c55	-0.008795817
37	0x3ca24c0b	0.01981165
38	0x3ccbf99d	0.024899298
39	0x3d04e834	0.03244801
40	0x3c258e33	0.010104704
41	0xbd3a1370	-0.045428693
42	0x3dcffbc8	0.10155445
43	0xbe48765f	-0.19576405
44	0xbe15b527	-0.14619885
45	0xbd8c6e68	-0.06856996
46	0xbd0a4f88	-0.033767253
47	0x3d3d4aba	0.046213843
48	0x3d3c267a	0.04593513
49	0xbd9a8368	-0.07544595
50	0x3d999e08	0.07500845
51	0xbe2a6920	-0.16641665
52	0xbc3523ee	-0.01105593
53	0x3d629662	0.055319197
54	0x3ac04f83	0.0014672134
55	0xbd262571	-0.04056305
56	0xbe1ce09b	-0.15320055
57	0x3c35c948	0.0110953525
58	0xbd8140b7	-0.063111715
59	0x3d48df0c	0.04904084
60	0x3e1b6c7c	0.15178102
61	0x3d33ba8c	0.043879077
62	0x3d818fc2	0.06326248
63	0xbd14e9bd	-0.036355723

fc3.weight f4 [24, 64]
0	0xbd1a97e7	-0.03774252
1	0xbd2b713b	-0.041856032
2	0xbe0922ed	-0.1339223
3	0xbe238b38	-0.15971076
4	0xbd8130ca	-0.06308134
5	0x3cba9690	0.022776872
6	0xbe1742a7	-0.1477152
7	0xbe303f4c	-0.17211646
8	0x3e0b5271	0.13605668
9	0xbe5344e7	-0.20631753
10	0x3d5aae61	0.053388957
11	0xbd20b680	-0.039236546
12	0x3becce48	0.007226739
13	0xbe22fa68	-0.15915835
14	0x3aa4f96d	0.0012586542
15	0x3e11b96f	0.14230894
16	0xbe148add	-0.14506097
17	0xbe405a2f	-0.18784402
18	0xbd7e52b0	-0.062090576
19	0xbd41ef5e	-0.04734742
20	0x3e43a01f	0.1910405
21	0xbdc93c46	-0.09825949
22	0x3c4a65d6	0.012353381
23	0xbe398be3	-0.18119769
24	0xbe36e0b1	-0.1785915
25	0xbe15c500	-0.14625931
26	0x3e09e7e5	0.13467367
27	0x3e0b3f3b	0.1359834
28	0x3e048f93	0.12945394
29	0xbd75a886	-0.05997517
30	0xbe0a343e	-0.13496491
31	0xbe3e8006	-0.18603525
32	0x3e33a579	0.17543592
33	0x3e81c64f	0.2534661
34	0x3e15185a	0.1456007
35	0xbd8e31d1	-0.069430955
36	0x3e31fe28	0.17382109
37	0x3cc47197	0.023979945
38	0x3e2c6fa9	0.1683947
39	0xbd23ff7d	-0.040038574
40	0xbd5cbe49	-0.053892408
41	0xbe0e2f51	-0.13885237
42	0xbe20fecc	-0.15722197
43	0xbd982c81	-0.074303634
44	0xbdc18d8a	-0.094508246
45	0x3cc12c89	0.023580806
46	0x3d9d2ca3	0.076745294
47	0xbcbecb80	-0.023290396
48	0x3b30d6c8	0.0026983488
49	0x3e4d7952	0.20065811
50	0xbc9ee718	-0.019397303
51	0x3c3902c7	0.011292166
52	0x3d9c4ce7	0.076318555
53	0x3dd6ba20	0.10484719
54	0x3d926b25	0.071493424
55	0x3dd013da	0.101600364
56	0x3dffff35	0.12499849
57	0x3da388f0	0.07985103
58	0x38fc9b6c	0.00012045246
59	0xbe10b5cd	-0.14131851
60	0x3e4fb610	0.20284295
61	0x3c71bc14	0.014754314
62	0xbe53040e	-0.20607015
63	0x3e379497	0.17927776
64	0xbde277d9	-0.110580154
65	0xbd6e9817	-0.058250513
66	0xbd971386	-0.07376771
67	0xbdf780f9	-0.120851465
68	0xbba89d6e	-0.00514572
69	0xbce2cba8	-0.027685001
70	0xbe50dd20	-0.20396852
71	0xbd3820fa	-0.044953324
72	0x3e3d85e4	0.18508106
73	0xbc95792e	-0.01824626
74	0x3deb82cb	0.11499556
75	0xbdb6bc61	-0.08922649
76	0xbd76857c	-0.060185894
77	0xbd8b8849	-0.06813104
78	0xbe1e5077	-0.15460382
79	0x3d979743	0.07401898
80	0xbe1a6731	-0.15078427
81	0xbde3bb53	-0.11119714
82	0xbdf347b8	-0.11878914
83	0xbe30ebfb	-0.1727752
84	0x3e412aab	0.18863933
85	0xbdab7dcb	-0.083736025
86	0xbe2faea8	-0.1715647
87	0xbdb598b5	-0.08867017
88	0x3cb01b3b	0.02149736
89	0xbe57cb2a	-0.21073595
90	0x3d1ed9cf	0.038781937
91	0x3e27bbe1	0.16380264
92	0xbd8deff6	-0.069305345
93	0x3c61ede5	0.013789629
94	0xbe497269	-0.1967255
95	0xbe132f85	-0.14373596
96	0x3e226aab	0.15861003
97	0x3e2e4e7a	0.17022124
98	0x3dee06ea	0.116224125
99	0xbe3d43ed	-0.18482943
100	0x3c9597a4	0.018260784
101	0x3c808f31	0.015693279
102	0x3e24a6f9	0.1607932
103	0x3d6f8fcc	0.058486745
104	0xbe46a554	-0.19399005
105	0xbe037326	-0.12836894
106	0xbe05bc46	-0.13060102
107	0x3c02abef	0.0079755625
108	0xbe00911e	-0.12555358
109	0xbd17a12c	-0.03701894
110	0x3bb0ed47	0.0053993794
111	0xbdf2feef	-0.11865031
112	0x3e0af00d	0.13568135
113	0x3de2bcc7	0.11071163
114	0x3e33b0b2	0.17547873
115	0x3d19ad78	0.03751895
116	0x3dadf51f	0.08494019
117	0x3e2d3ed7	0.16918503
118	0xbcc07859	-0.023494886
119	0x3e44f9ae	0.1923587
120	0x3e523071	0.20526291
121	0x3dcf989e	0.10136531
122	0x3c2b8621	0.010468991
123	0xbd3de2cd	-0.046358872
124	0x3bce242e	0.006290934
125	0x3d7d31ae	0.061814956
126	0xbd511ec0	-0.051054716
127	0x3e5b5f95	0.2142318
128	0xbdc1903f	-0.09451341
129	0xbe2a9be8	-0.16661036
130	0xbdf5613a	-0.11981435
131	0xbdb5837c	-0.08862969
132	0xbe4ae1f2	-0.19812754
133	0x3d384e97	0.044996824
134	0xbdabd493	-0.08390155
135	0xbcd41a53	-0.025891459
136	0x3dd60152	0.104494706
137	0xbdaa2200	-0.08307266
138	0x3db65215	0.08902375
139	0xbdc5660f	-0.09638607
140	0x3d06041c	0.032718763
141	0xbe1fbbd0	-0.15598989
142	0x3cfd2192	0.030899797
143	0x3e1d5789	0.15365423
144	0xbe471c77	-0.19444452
145	0xbdee78dc	-0.11644146
146	0xbe68a0f5	-0.2271765
147	0xbd99a23d	-0.075016476
148	0xbb76fdce	-0.00376879
149	0xbe2bff88	-0.16796696
150	0xbe2ad7fa	-0.16683951
151	0xbe179ab7	-0.14805113
152	0x3d865d3a	0.0656075
153	0xbe4ce986	-0.20010957
154	0x3e154b4d	0.14579506
155	0x3e31df35	0.17370303
156	0x3e20d2d6	0.15705428
157	0x3d4f40aa	0.050598778
158	0xbe65b60b	-0.22432725
159	0xbe1ed978	-0.15512645
160	0x3de9a088	0.11407572
161	0x3db52180	0.0884428
162	0x3e28fe23	0.16503195
163	0xbe07f777	-0.13277994
164	0x3c5374f1	0.012906299
165	0xbc86dcbf	-0.016462682
166	0x3caa5903	0.020794397
167	0x3cd801c9	0.026368039
168	0x3c7326da	0.014840806
169	0xbe2e8f91	-0.17046954
170	0xbe20c43f	-0.15699862
171	0x3d892582	0.06696607
172	0xbe0500c7	-0.12988578
173	0x3cb135d5	0.021632114
174	0x3ca77286	0.020440351
175	0xbe484ee2	-0.19561341
176	0x3e560ffb	0.20904534
177	0x3d986ea0	0.07442975
178	0x3dc95a67	0.09831696
179	0x3e37ab0c	0.17936343
180	0x3d5e85af	0.05432671
181	0x3e1fe267	0.1561371
182	0x3df26e1a	0.118374065
183	0x3e0464dc	0.129291
184	0x3e60aa20	0.21939898
185	0xbc8a207c	-0.016861193
186	0xbab541bf	-0.0013828798
187	0xbd9b9637	-0.075970106
188	0x3e4ef6e8	0.20211375
189	0x3e7b0411	0.2451327
190	0xbe311329	-0.17292465
191	0x3dcb915e	0.09939836
192	0xbc9f8562	-0.019472782
193	0xbc937759	-0.018001245
194	0xbdc9ecf4	-0.09859648
195	0xbd90e4c9	-0.07074887
196	0xbe0bc747	-0.13650237
197	0xbdadee78	-0.0849275
198	0xbe15af1e	-0.14617583
199	0xbe5dafc4	-0.2164908
200	0x3e638a9a	0.22220841
201	0xbe0ab618	-0.13546026
202	0x3d4eb6c8	0.050467283
203	0xbe1a341f	-0.15058945
204	0xbe2a4c76	-0.1663073
205	0xbe067b09	-0.13132872
206	0xbc805b4c	-0.015668534
207	0x3e3cb5c8	0.18428719
208	0xbd65b8dc	-0.0560845
209	0xbe0fc9b3	-0.14041786
210	0x3bba64d5	0.0056882896
211	0xbe1a66f3	-0.15078335
212	0x3c902bcf	0.017599015
213	0xbe3fca57	-0.1872953
214	0xbd07ffec	-0.03320305
215	0xbe45fd23	-0.19334845
216	0xbc59c96c	-0.013292652
217	0xbc52c76b	-0.012864928
218	0x3e3f76ef	0.18697713
219	0xbcec26b0	-0.028827041
220	0x3e6c7235	0.23090442
221	0xbc1ddd90	-0.009635344
222	0xbdbd20ca	-0.0923477
223	0xbe08afbc	-0.13348287
224	0x3db510a5	0.08841065
225	0x3dc4335c	0.095801085
226	0x3e017ca9	0.1264521
227	0xbe499068	-0.19683993
228	0x3db7c671	0.089733966
229	0x3d92e8b8	0.07173294
230	0x3cd34236	0.025788408
231	0xbccac3be	-0.02475154
232	0xbe0d3e21	-0.13793232
233	0xbdfae5da	-0.12250872
234	0xbcb3cd59	-0.021948503
235	0xbb08e90b	-0.0020890858
236	0xbe3976e7	-0.18111764
237	0xbe597d3e	-0.21239182
238	0x3d8b7fed	0.06811509
239	0xbdf668c4	-0.12031701
240	0x3d3bd728	0.045859486
241	0x3d6e4808	0.058174163
242	0x3e031ba9	0.1280352
243	0x3e68437d	0.22681995
244	0xbc44b86f	-0.012006863
245	0x3e5a3efb	0.21313088
246	0x3e35d888	0.17758381
247	0x3e0743f0	0.1320951
248	0x3e0499fb	0.12949364
249	0x3db5dc10	0.08879864
250	0x3d055c5a	0.032558776
251	0xbd9972ab	-0.07492574
252	0x3e3c4425	0.1838537
253	0x3e36ca94	0.17850715
254	0xbc2d2c4a	-0.010569641
255	0x3e14aaeb	0.14518325

fc3.bias f4 [24]
0	0x3cf11ebc	0.0294336
1	0x3d726de6	0.05918684
2	0x3da4cfab	0.08047422
3	0xbd8ae615	-0.06782166
4	0x3dee6e07	0.1164208
5	0x3d93ea40	0.07222414
6	0x3e0d6847	0.1380931
7	0x3c572dd2	0.013133483
8	0x3d370cd8	0.044689983
9	0xbd106fca	-0.03526286
10	0x3b8fdec1	0.004390568
11	0x3d961637	0.07328456
12	0x3c4b1cce	0.012397004
13	0x3d8ac5c2	0.067760006
14	0xbd202869	-0.039101038
15	0x3db3ba1f	0.08775734
16	0xbd0bfa9d	-0.03417455
17	0xbc1565e7	-0.009118534
18	0x3dae636f	0.08515059
19	0xbd5089dc	-0.050912723
20	0x3db04fca	0.086089686
21	0xbde9752b	-0.11399301
22	0x3dba9399	0.09110183
23	0x3dba10ed	0.090852596
