model_weights/weather_weights/model_weather_SDTW_gamma_1.pt (torch, 142790 bytes, 6 tensors)

fc1.weight f4 [64, 456]
0	0xbd17dd6f	-0.03707641
1	0xbd456c61	-0.04819906
2	0xbd9643a9	-0.07337124
3	0xbd26d328	-0.040728718
4	0xbcbfd0fd	-0.023415083
5	0x3cbe4713	0.02322725
6	0x3bc61692	0.006045171
7	0xbc1251d0	-0.008930638
8	0x3ca92efa	0.020652283
9	0x3cac7341	0.021051051
10	0x3d63054f	0.055424985
11	0x3c2b64bc	0.010461029
12	0x3d442e0d	0.04789548
13	0xbcdea383	-0.027177578
14	0x3d611ba1	0.05495799
15	0x3d321830	0.0434801
16	0x3db29de7	0.08721524
17	0x3dd57459	0.10422582
18	0xbddcd91c	-0.10783598
19	0x3d07a589	0.03311685
20	0xbda72002	-0.08160402
21	0xbce64ebd	-0.028113717
22	0x3d1bfaa0	0.03808081
23	0x3c9ac010	0.01889041
24	0xbc2a0c5b	-0.010378922
25	0x3d80740d	0.06272135
26	0xbd45c720	-0.048285604
27	0x3d82f7e4	0.06394938
28	0x3d9b323c	0.07577941
29	0x3da27cab	0.07933935
30	0x3d513c01	0.051082615
31	0x3d637bd9	0.055538032
32	0x3ca0d793	0.019634044
33	0x3d9fe854	0.07807985
34	0x3d889e3a	0.06670804
35	0x3d6b9cbf	0.05752253
36	0x3da1dc9b	0.07903405
37	0xbd906f13	-0.07052436
38	0x3d81f95f	0.06346392
39	0xbd803e67	-0.06261902
40	0xbca564f8	-0.020189747
41	0x3c9fc027	0.019500805
42	0x3d713158	0.05888495
43	0x3d5fcc01	0.054637913
44	0xbc16dfc0	-0.00920862
45	0xbc451ed5	-0.012031277
46	0x3bd0355e	0.006354018
47	0x3d859d27	0.06524115
48	0x3d43d27f	0.047808167
49	0x3dc191b1	0.094516166
50	0x3d943d46	0.072382495
51	0x3c792b27	0.015208042
52	0x3dc9e6ee	0.098584995
53	0x3d2b8679	0.04187629
54	0x3df53d19	0.11974544
55	0x3d94f40c	0.07273111
56	0xbe0b72d9	-0.1361803
57	0x3db99dc7	0.09063297
58	0xbd43f615	-0.047842104
59	0xbc7fd89c	-0.015615609
60	0x3d19fa5e	0.037592284
61	0x3d4580b7	0.048218455
62	0xbd01ad7a	-0.03165958
63	0x3cc5779f	0.024104891
64	0x3cefa189	0.02925183
65	0x3d5be4c1	0.053684954
66	0x3b882081	0.0041542654
67	0x3c797a60	0.01522693
68	0x3cc881b0	0.024475902
69	0x3d93c22e	0.07214771
70	0xbc46d1e2	-0.012135001
71	0x3e018cb8	0.12651336
72	0x3c472f45	0.012157266
73	0x3d8ab358	0.06772488
74	0x3d206987	0.03916314
75	0xbe49f2d7	-0.19721542
76	0x3da244af	0.079232566
77	0xbd873c20	-0.06603265
78	0xbbdfc0f8	-0.0068284236
79	0x3d279247	0.040910985
80	0x3d9722e0	0.07379699
81	0x3d26a5b4	0.04068537
82	0x3cc6faf9	0.024289595
83	0x3d0f2d76	0.034955464
84	0x3ca4e61c	0.020129256
85	0x3d924ff1	0.07144154
86	0x3d1682ac	0.036745712
87	0x3ddb0054	0.10693422
88	0x3d987515	0.074442066
89	0xbb72465d	-0.003696821
90	0x3deeafd4	0.1165463
91	0xbc8c03b2	-0.017091606
92	0x3c5046df	0.0127122095
93	0xbc5450f8	-0.012958758
94	0xbe2d4dc6	-0.169242
95	0x3cb3e3b9	0.021959173
96	0xbd10b71c	-0.035330877
97	0xbcffa0af	-0.03120455
98	0x3c83390a	0.01601841
99	0x3e1be0d5	0.15222485
100	0x3aa3c9c1	0.001249604
101	0xbbf9c53f	-0.0076223905
102	0x3d0f3938	0.034966677
103	0x3b8bbe49	0.004264627
104	0xbcba37ec	-0.022731744
105	0x3d9be09c	0.076112
106	0x3d39d525	0.045369286
107	0x3d515d10	0.051114142
108	0x3c71cdb0	0.014758512
109	0x3dcc1e06	0.09966664
110	0x3c1d37b6	0.009595802
111	0x3c893282	0.016747717
112	0x3d9de897	0.077103786
113	0xbe2f5b6a	-0.17124715
114	0x3d75f4ca	0.060047902
115	0xbd615594	-0.055013254
116	0xbd9ff9d2	-0.07811321
117	0xbd41ccea	-0.047314562
118	0x3e111d27	0.14171277
119	0xbd59c445	-0.053165693
120	0x3bd80184	0.0065919776
121	0xbd80849c	-0.06275293
122	0xbc9ad4b4	-0.018900253
123	0xbcb1997b	-0.02167963
124	0x3ba6cb52	0.0050901556
125	0x3d1f7501	0.038929943
126	0x3cf594ea	0.029978234
127	0x3c125715	0.008931895
128	0x3d4f6d61	0.05064142
129	0x3ccff2a4	0.025384255
130	0x3e06a822	0.13150075
131	0x3cc8d4bf	0.024515508
132	0xbdd07106	-0.101778075
133	0x3dab5cf2	0.08367337
134	0xbd769a09	-0.060205493
135	0xbd62a7d8	-0.05533585
136	0xbcf9bd9d	-0.030485922
137	0x3d71a3f7	0.05899426
138	0xbd7906d0	-0.060797513
139	0xbcfdcb65	-0.030980775
140	0xbc3e4831	-0.011613891
141	0x3b955b3c	0.004557995
142	0xbd0dbad8	-0.034602016
143	0x3c4fe7e3	0.012689563
144	0x3defe85b	0.1171424
145	0xbd9816a5	-0.07426194
146	0xbbe7bee2	-0.0070723156
147	0x3db1fdce	0.086909875
148	0xbd6ac653	-0.057318043
149	0x3dfbd119	0.122957416
150	0xbd22078c	-0.03955798
151	0xbbfacffc	-0.007654188
152	0x3d82807e	0.06372164
153	0xbd1b9d7a	-0.03799198
154	0xbc71d6f8	-0.014760725
155	0xbdb69184	-0.08914474
156	0x3d8d5b30	0.06902158
157	0xbd971b23	-0.07378223
158	0xbdaac58d	-0.08338461
159	0xbd7f648e	-0.062351756
160	0xbc288f6f	-0.0102881035
161	0xbda9618f	-0.08270561
162	0x3d621c63	0.055202853
163	0x3dd650dd	0.10464642
164	0xbd3a02a0	-0.04541266
165	0xbd3858d5	-0.04500659
166	0x3d9d9904	0.07695201
167	0xbb6c089b	-0.0036015871
168	0x3e13657e	0.14394185
169	0xbc45f0af	-0.012081309
170	0xbdd50bf1	-0.10402668
171	0x3de8a04c	0.11358699
172	0xbd610182	-0.05493308
173	0xbc3e9234	-0.011631537
174	0xbd68964b	-0.056783956
175	0xbd5a8158	-0.053346008
176	0xbd21b7c7	-0.039481904
177	0xbc8922a8	-0.016740158
178	0x3b6f2b1f	0.0036494208
179	0xbcdb1444	-0.026743062
180	0xbd9a4fad	-0.07534728
181	0x3c3c5d68	0.011496879
182	0x3cfde8e1	0.030994834
183	0xbd942a2c	-0.07234606
184	0xbcb01ff0	-0.021499604
185	0x3da37eeb	0.07983192
186	0x3bdc2f35	0.0067194947
187	0x3d110b6c	0.035411283
188	0xbc154ee9	-0.009113052
189	0xbe01af90	-0.12664628
190	0x3dc4c0c6	0.09607081
191	0x3c067d5d	0.0082086
192	0xbd03f415	-0.032215197
193	0xbd0cffae	-0.034423523
194	0xbd9f865b	-0.07789298
195	0xbd73fa2d	-0.059564758
196	0xbdb6ca7d	-0.0892534
197	0xbd19b6cd	-0.037527848
198	0xbcbc7e53	-0.023009455
199	0xbdcfed53	-0.10152688
200	0x3d48ead6	0.049052082
201	0x3d1232da	0.035693027
202	0xbd92cc51	-0.071678765
203	0xbd81cf43	-0.0633836
204	0x3d8725a8	0.06598979
205	0x3bef07cf	0.007294632
206	0x3dbb2102	0.09137155
207	0xbc8756cd	-0.016520882
208	0xbe4e7b32	-0.20164183
209	0x3e324806	0.17410287
210	0xbd4cb07c	-0.049972996
211	0x3cbaf5f0	0.02282235
212	0xbca92fff	-0.02065277
213	0xbcdefadb	-0.027219227
214	0xbd55199c	-0.052026376
215	0xbd6c27fd	-0.057655323
216	0x3d158e90	0.03651291
217	0xbdd5e3b7	-0.10443824
218	0xbd2a0505	-0.041508693
219	0xbc50edeb	-0.012752037
220	0x3c4a2b09	0.012339362
221	0xbd8e54e6	-0.06949787
222	0xbc96c1d3	-0.01840297
223	0x3dd13aa2	0.102162614
224	0xbb56044f	-0.0032656377
225	0x3d62aa5f	0.05533826
226	0x3d89e079	0.06732268
227	0xbddeb820	-0.10874963
228	0x3e1c6453	0.15272646
229	0xbbaa34b2	-0.00519427
230	0x3c330611	0.010926739
231	0xbd6fc1cc	-0.05853443
232	0xbd328c83	-0.043591034
233	0x3caa40cb	0.020782849
234	0xbdb373f4	-0.08762351
235	0x3c35558d	0.01106776
236	0xbcb70e07	-0.022345556
237	0xbdb68ebd	-0.08913944
238	0xbb0741fb	-0.0020638693
239	0xbd22c735	-0.03974076
240	0xbdb7bb0b	-0.089712225
241	0xbd24c663	-0.04022826
242	0x3d732ef8	0.059370965
243	0x3dc6464c	0.09681377
244	0xb9a27a7f	-0.00030990315
245	0x3e27d807	0.16391002
246	0xbe2f2a20	-0.17105913
247	0x3e4a0625	0.19728906
248	0xbb0ade45	-0.0021189612
249	0xbce19f2a	-0.027541716
250	0xbd260379	-0.040530656
251	0xbc63ab73	-0.013895857
252	0xbd0dba0b	-0.034601253
253	0xbc54fec4	-0.013000194
254	0x3c86b9a5	0.016445944
255	0xbbc08071	-0.0058746864

fc1.bias f4 [64]
0	0x3e12bb62	0.14329293
1	0x3f29f929	0.66395813
2	0x3e8df644	0.27726948
3	0x3e8af445	0.27139488
4	0x3e8094dc	0.2511357
5	0xbe8e0750	-0.27739954
6	0xbeb4a736	-0.35283822
7	0x3ec93856	0.39300793
8	0xbe4dc05a	-0.20092908
9	0x3e2d7d19	0.16942252
10	0x3dac64a5	0.08417634
11	0xbf2e41c5	-0.68069106
12	0x3cda015f	0.026611982
13	0xbf023481	-0.50861365
14	0xbe86d230	-0.26332235
15	0x3f1d2de4	0.6139815
16	0xbe9aebe6	-0.302581
17	0xbdcbc712	-0.09950079
18	0x3db6733b	0.08908697
19	0x3e29c502	0.16579059
20	0x3d3990c3	0.04530407
21	0x3e1feeec	0.15618485
22	0xbe18938f	-0.14900039
23	0x3eeddb7c	0.46456516
24	0x3ee6da8d	0.45088616
25	0x3e240585	0.1601773
26	0x3eb4d487	0.35318395
27	0x3d7caaa7	0.061686184
28	0x3e9873ea	0.29775935
29	0x3d5b1f10	0.05349642
30	0xbec069a4	-0.37580597
31	0x3e4db531	0.2008865
32	0xbea83966	-0.32856292
33	0xbe25a550	-0.16176343
34	0x3e038d6c	0.12846917
35	0xbdfa83e1	-0.12232185
36	0x3ec32e0c	0.38121068
37	0xbdd3a8c5	-0.103349246
38	0x3e63165e	0.22176501
39	0xbe43490d	-0.19070835
40	0x3e5adfd0	0.2137444
41	0xbc53ba8e	-0.012922896
42	0xbe061cd9	-0.13096942
43	0xbe5eee49	-0.21770586
44	0x3ed045d6	0.4067828
45	0x3f117d73	0.56832045
46	0xbf10318b	-0.56325597
47	0x3d7f978c	0.062400386
48	0xbccd8767	-0.025088979
49	0x3df41883	0.11918738
50	0x3edce2d6	0.43141812
51	0xbcb47c9f	-0.02203208
52	0x3e0da4d5	0.1383241
53	0x3e43eefa	0.19134131
54	0xbd102a34	-0.035196498
55	0xbeb4a240	-0.35280037
56	0x3e5160c4	0.2044707
57	0x3e8c0e13	0.27354488
58	0x3e461486	0.19343767
59	0x3ec00498	0.37503505
60	0x3e62f387	0.22163211
61	0xbdd8927a	-0.10574813
62	0x3d1cdeaf	0.038298305
63	0x3ce9586e	0.02848455

fc2.weight f4 [64, 64]
0	0x3d4b2e60	0.049604774
1	0x3db98f23	0.09060504
2	0x3dcb3de5	0.09923915
3	0xbc86fe23	-0.016478604
4	0x3d844553	0.06458535
5	0x3e322674	0.17397481
6	0xbe1aff9d	-0.15136571
7	0xbe3be542	-0.18349174
8	0xbdf93514	-0.12168327
9	0xbc8d1183	-0.017220264
10	0xbcad6d1b	-0.02117019
11	0xbd5202b4	-0.05127211
12	0x3e4217ae	0.18954346
13	0x3e1a065d	0.1504149
14	0xbbe2aa2b	-0.0069172583
15	0x3daee154	0.08539072
16	0x3b8c5d87	0.0042836103
17	0xbdf10990	-0.11769402
18	0xbe604b49	-0.21903719
19	0xbdfb6360	-0.12274814
20	0xbe3b4f14	-0.18291885
21	0x3dc54019	0.09631366
22	0x3c62250a	0.013802776
23	0xbd5ab375	-0.0533938
24	0x3d84889f	0.06471371
25	0x3cf39b67	0.029737188
26	0x3daa96c7	0.0832954
27	0xbe47076c	-0.19436425
28	0xbe11cd04	-0.14238364
29	0x3b7f15b8	0.0038922857
30	0x3e69755e	0.22798678
31	0x3e32f908	0.1747781
32	0xbe2af88a	-0.16696373
33	0xbe23f28f	-0.16010498
34	0xbe761cd9	-0.24034442
35	0xbe6c68c3	-0.23086838
36	0xbe327def	-0.17430852
37	0xbe30ce99	-0.17266311
38	0x3c064bba	0.008196766
39	0xbe43edbd	-0.19133659
40	0xbe26ef04	-0.16302115
41	0x3dcf6874	0.10127345
42	0xbe8b3a1f	-0.2719278
43	0x3d97e1ef	0.0741614
44	0x3cea864e	0.028628495
45	0xbe5edd83	-0.21764188
46	0xbded044e	-0.11573087
47	0x3df15c7a	0.11785217
48	0xbd72c3a8	-0.059268624
49	0xbe3a8612	-0.18215206
50	0xbdc02d10	-0.09383595
51	0x3daff668	0.0859192
52	0xbe021ca0	-0.12706232
53	0xbe3648a6	-0.1780115
54	0xbe42e603	-0.19033055
55	0xbddf21f3	-0.10895147
56	0xbe1b5656	-0.15169653
57	0xbd921a21	-0.0713389
58	0xbd82ea24	-0.06392315
59	0xbe759b06	-0.23984918
60	0x3cf6b0ae	0.030113544
61	0xbd30794e	-0.043084435
62	0xbc36ffb7	-0.011169366
63	0xbc196572	-0.009362565
64	0xbea42e98	-0.32066798
65	0xbe53411e	-0.20630309
66	0xbe9547d2	-0.29156357
67	0xbf0cd5aa	-0.55013525
68	0xbea410d5	-0.32044092
69	0xbecfae00	-0.4056244
70	0x3d4be8c9	0.049782548
71	0xbe00c032	-0.12573317
72	0x3bb92c54	0.0056510363
73	0xbe9cabe2	-0.30599886
74	0xbe038b6d	-0.12846155
75	0xbef1b752	-0.47210175
76	0xbe8b22f8	-0.27175117
77	0x3d6eae2e	0.05827158
78	0xbec8dcea	-0.39231044
79	0xbc3777d9	-0.0111980075
80	0xbe081f04	-0.13293082
81	0xbec6cbe8	-0.38827443
82	0x3a2b0568	0.0006523938
83	0x3ca4d925	0.020123074
84	0x3c85c612	0.016329799
85	0xbe9c47a3	-0.30523404
86	0xbe865147	-0.26233885
87	0xbe4e947d	-0.20173831
88	0xbe24233f	-0.1602907
89	0xbde4a479	-0.11164183
90	0xbd822062	-0.06353833
91	0xbd62a075	-0.055328805
92	0xbb05f461	-0.002043985
93	0xbeb8b1a9	-0.36073044
94	0x3bcfd876	0.006342943
95	0xbe2e2fbd	-0.17010398
96	0xbe20b821	-0.1569524
97	0xbc94518c	-0.01810529
98	0xbdb0cbd9	-0.08632631
99	0xbbc1d733	-0.0059155463
100	0x3d89740f	0.067115895
101	0xbd1ba604	-0.03800012
102	0xbe677f42	-0.22607139
103	0xbd479f3b	-0.04873584
104	0xbd89b11d	-0.06723235
105	0xbe7cd596	-0.24690852
106	0xbc29635a	-0.010338629
107	0xbf010cb7	-0.50410026
108	0xbe54c932	-0.20779875
109	0xbd8635e5	-0.06553248
110	0x3e047e68	0.12938845
111	0x3b01c1db	0.0019799385
112	0x3ddc2a1e	0.10750221
113	0x3d49a95d	0.049233783
114	0xbd01385a	-0.03154788
115	0x3c037b41	0.0080249915
116	0x3d23ac18	0.039959043
117	0x3e656d98	0.22405088
118	0x3e89c817	0.2691047
119	0x3e6a8819	0.2290348
120	0xbc8913d1	-0.016733082
121	0xbec37bf8	-0.38180518
122	0xbf06b48f	-0.5261926
123	0x3d49c9b0	0.04926461
124	0x3e21311e	0.15741393
125	0xbdbcb81f	-0.09214806
126	0x3e4c9195	0.1997741
127	0xbe24903d	-0.16070648
128	0x3e0bc82f	0.13650583
129	0xbe21c9ba	-0.15799609
130	0x3c289a2d	0.010290665
131	0xbe28d386	-0.1648694
132	0x3e3b79b3	0.18308143
133	0xbe42f10d	-0.19037266
134	0xbe0a8d5f	-0.13530491
135	0xbe93de21	-0.28880408
136	0xbd14be39	-0.036314223
137	0x3d2431df	0.040086623
138	0x3e89a8c5	0.26886573
139	0xbdfa9b88	-0.122366965
140	0x3dd95149	0.10611207
141	0x3e895b33	0.26827392
142	0xbe4f3451	-0.20234801
143	0x3df5e3fd	0.12006376
144	0x3dac9457	0.08426731
145	0x3d3541c6	0.04425218
146	0xbebe9eb4	-0.37230456
147	0xbe5844e7	-0.21120034
148	0xbe68605a	-0.22693005
149	0x3dd3beb5	0.10339109
150	0xbd38062e	-0.04492777
151	0x3d923063	0.07138135
152	0x3dd194fe	0.10233496
153	0xbe95d210	-0.29261827
154	0x3e174ab2	0.14774588
155	0xbdb5fdc8	-0.088862956
156	0xbe0967b6	-0.13418469
157	0x3dcc4dfc	0.09975812
158	0x3e0d800d	0.13818379
159	0xbd8c5f95	-0.06854168
160	0xbce36068	-0.027755931
161	0x3e1c4491	0.15260531
162	0xbe70e143	-0.2352343
163	0xbe2c44b6	-0.16823086
164	0x3debcdb9	0.11513848
165	0xbc2cf30b	-0.010555993
166	0x3dc41ac6	0.09575419
167	0xbdac72f2	-0.084203616
168	0xbed9a3ed	-0.42507878
169	0x3e541258	0.20710123
170	0xbe37f920	-0.17966127
171	0x3ca1c0e0	0.01974529
172	0x3dcbc05f	0.09948801
173	0xbe808b71	-0.25106385
174	0x3de6c7e8	0.11268598
175	0x3dadc37d	0.08484552
176	0x3bf66af4	0.007520074
177	0xbe4bc1d6	-0.19898161
178	0xbe204653	-0.15651827
179	0xbdf3b6e6	-0.119001195
180	0x3c66454c	0.014054608
181	0x3c5d428b	0.013504635
182	0xbe65968d	-0.22420712
183	0x3bb9256c	0.005650213
184	0xbe84ecd1	-0.25961927
185	0xbdeebe1f	-0.116573565
186	0x3e0fca52	0.14042023
187	0x3e15c60c	0.1462633
188	0xbd2f34e9	-0.04277507
189	0x3d9f1908	0.07768446
190	0xbe9087b4	-0.28228533
191	0xbcd1db49	-0.025617259
192	0xbec6ef37	-0.3885438
193	0xbd97e125	-0.0741599
194	0xbed9488e	-0.42438167
195	0xbf04c631	-0.51864916
196	0xbe558590	-0.20851731
197	0xbeb9a24d	-0.36256638
198	0xbe547030	-0.20745921
199	0xbe21e6d2	-0.15810707
200	0x3e0df4f5	0.13862975
201	0xbe868f2d	-0.2628111
202	0xbdb16a84	-0.08662894
203	0xbef030d4	-0.46912253
204	0xbeabcc53	-0.33554325
205	0xbdc76c04	-0.09737399
206	0xbe1e7ef1	-0.15478112
207	0xbe2a9ce0	-0.16661406
208	0xbd3db712	-0.046317168
209	0xbe8217b9	-0.25408724
210	0xbe2059e8	-0.15659297
211	0x3db76449	0.08954675
212	0x3d8f0ccf	0.06984865
213	0xbe9e5ccd	-0.30930176
214	0xbe30795b	-0.17233793
215	0xbe5e6560	-0.21718359
216	0xbe77f251	-0.2421353
217	0xbeb176e9	-0.34661034
218	0x3d706afb	0.058695775
219	0xbe02d614	-0.12776977
220	0x3e4c15f7	0.19930254
221	0xbeff2b5d	-0.4983777
222	0xbd486b4f	-0.048930462
223	0xbec8d02b	-0.3922132
224	0xbd985cd4	-0.074395806
225	0x3dcdb004	0.10043338
226	0xbd487fc8	-0.048949987
227	0x3e80e468	0.2517426
228	0x3e108be9	0.14115871
229	0x3e4b0d9c	0.1982941
230	0xbea64f25	-0.32482257
231	0xbc8a7472	-0.016901229
232	0x3cece757	0.028918905
233	0xbeb73475	-0.3578221
234	0xbdb13532	-0.08652724
235	0xbe933025	-0.2874767
236	0xbe675f23	-0.22594886
237	0xbb3600a3	-0.0027771376
238	0x3d4f8fc4	0.050674215
239	0xbed02687	-0.40654394
240	0x3e9c4c43	0.30526933
241	0x3ce4f3ed	0.027948344
242	0xbd5f4b0a	-0.054514922
243	0xbe5c2f36	-0.21502385
244	0x3d93c117	0.07214563
245	0x3d3b5013	0.04573066
246	0x3d07ef4b	0.033187192
247	0x3e9506be	0.29106706
248	0xbe0bbe61	-0.13646843
249	0xbf179a82	-0.59220135
250	0xbebc204b	-0.36743388
251	0xbd980ed0	-0.074247
252	0x3d8e54e6	0.06949787
253	0xbe863272	-0.26210362
254	0x3d220557	0.039555874
255	0xbe8ec5e9	-0.27885368

fc2.bias f4 [64]
0	0xbe022847	-0.12710677
1	0xbda81fc7	-0.08209186
2	0xbdb69c20	-0.08916497
3	0xbdb5c6e8	-0.08875829
4	0xbe364fea	-0.17803922
5	0x3e1e7ce3	0.15477328
6	0xbe2c2e54	-0.16814548
7	0xbe00f618	-0.12593877
8	0x3d33dea9	0.043913517
9	0x3d244ab4	0.040110305
10	0xbe61553a	-0.22005168
11	0xbbad6e94	-0.005292723
12	0x3d623382	0.055224903
13	0x3cdf3bf0	0.02725026
14	0xbc9f4304	-0.019441135
15	0xbd7fb14d	-0.062424947
16	0xbd997ab2	-0.074941054
17	0x3d78886b	0.060676973
18	0x3dd98b1f	0.10622238
19	0x3d03e097	0.032196607
20	0xbc349ccc	-0.011023711
21	0xbd81ae0c	-0.06332025
22	0xbe14815d	-0.14502473
23	0x3e223a2a	0.158425
24	0xbdcf8d22	-0.10134341
25	0x3df14968	0.11781579
26	0xbdb43e0a	-0.088008955
27	0xbcc045e0	-0.023470819
28	0x3dc20c81	0.09475041
29	0xbe018f0a	-0.12652221
30	0x3d03706c	0.032089636
31	0xbe27d9bc	-0.16391653
32	0x3ded0f70	0.1157521
33	0x3d247e67	0.04015961
34	0xbe37abd4	-0.17936641
35	0x3c0ded49	0.00866253
36	0xbe0c35d9	-0.13692416
37	0xbd5336d3	-0.051565956
38	0xbe2b6c0d	-0.16740437
39	0xba14303f	-0.0005652941
40	0xbc709696	-0.01468434
41	0xbd4cad20	-0.049969792
42	0x3b9aa6a0	0.0047195703
43	0xbc7bfaf6	-0.015379658
44	0xbd11b91b	-0.03557692
45	0xbe852ee9	-0.26012352
46	0x3b3445e3	0.0027507476
47	0xbda4cce6	-0.08046894
48	0xbdc1167e	-0.09428118
49	0xbda48fde	-0.08035253
50	0xbdfb6136	-0.12274401
51	0x3e5299d2	0.2056649
52	0xbe31cc5d	-0.17363115
53	0xbcdfbeae	-0.027312603
54	0xbdadbe24	-0.08483532
55	0xbd89b808	-0.06724554
56	0x3e40c482	0.18824962
57	0xbc30b4ac	-0.010785263
58	0x3d865626	0.065594
59	0xbd5c9313	-0.0538512
60	0xbcf586d3	-0.029971516
61	0xbdb62ed3	-0.0889565
62	0x3dc5289d	0.09626887
63	0xbe1f7e1b	-0.15575449

fc3.weight f4 [24, 64]
0	0x3c98a351	0.018632563
1	0x3daab0b6	0.08334486
2	0x3e523832	0.2052925
3	0xbe21c149	-0.15796389
4	0xbcd916c4	-0.026500113
5	0x3e588aca	0.21146694
6	0x3d837311	0.064184316
7	0xbe11f351	-0.14252974
8	0xbe728b58	-0.23685968
9	0x3d89b3fd	0.06723783
10	0xbd9a51d2	-0.07535137
11	0x3ca91869	0.020641522
12	0x3ea678c1	0.32514003
13	0xbe1fbfe2	-0.15600541
14	0xba004f41	-0.0004894622
15	0xbcce0a56	-0.025151413
16	0xbd911fb7	-0.07086127
17	0xbe8abdda	-0.2709797
18	0xbe0c3ebe	-0.13695809
19	0x3cc26850	0.02373138
20	0x3e190699	0.14943923
21	0x3e3ff3f6	0.18745407
22	0xbe83d3b6	-0.2574746
23	0x3c361fe7	0.011116005
24	0x3e6fb58b	0.23409097
25	0xbe9a4438	-0.30130172
26	0x3e0e6971	0.1390741
27	0x3d85f4bb	0.06540819
28	0x3e647389	0.22309698
29	0x3e86672a	0.26250583
30	0xbd0ceb17	-0.034403887
31	0xbe4b1f1f	-0.1983609
32	0xbea0b93c	-0.31391323
33	0x3a0d3903	0.00053872186
34	0xbea06ac8	-0.31331468
35	0xbc8a2884	-0.016865022
36	0x3e08f8ca	0.13376155
37	0xbd5f44d7	-0.05450901
38	0xbe46cf4a	-0.19415012
39	0xbebdaa00	-0.37043762
40	0xbe1624f8	-0.1466254
41	0xbda2ce59	-0.07949514
42	0x3ee40846	0.44537562
43	0xbe3c61aa	-0.18396631
44	0x3def1eb2	0.116757765
45	0x3eafd72c	0.3434385
46	0xbd455b42	-0.048182733
47	0xbe26e1cb	-0.1629707
48	0xbe0c8a24	-0.13724571
49	0xbe92c36d	-0.28664723
50	0x3e4e13ba	0.20124713
51	0xbdadc895	-0.084855236
52	0x3cf41a03	0.02979756
53	0xbed75838	-0.42059493
54	0x3e52ca41	0.20584966
55	0x3dca2d57	0.09871929
56	0x3d0ccd23	0.03437532
57	0x3ba4a324	0.0050243307
58	0x3dc43ba9	0.09581692
59	0xbf0a6ada	-0.5406929
60	0x3d0091ff	0.031389233
61	0x3e6cb22a	0.23114839
62	0x3e7bc853	0.24588136
63	0xbd2bfba2	-0.041988023
64	0x3dc39fea	0.095519856
65	0x3d60d423	0.05488981
66	0x3def8b5e	0.11696504
67	0xbe737ea9	-0.23778786
68	0x3c818e10	0.015814811
69	0x3dbca1ee	0.09210573
70	0xbc386e05	-0.011256699
71	0xbd389022	-0.04505933
72	0xbe7c096f	-0.24612974
73	0x3e28f764	0.16500622
74	0xbd6ecf0f	-0.058302935
75	0x3db1091a	0.08644314
76	0x3e829ab0	0.25508642
77	0xbdd818cf	-0.10551607
78	0x3de62dad	0.11239181
79	0xbde35d15	-0.11101738
80	0xbe4c178b	-0.19930856
81	0xbe57e754	-0.21084338
82	0xbd42b4e5	-0.047535796
83	0x3d321cff	0.043484684
84	0x3da0d2fc	0.07852742
85	0x3db3eaa5	0.08784989
86	0xbe9715f4	-0.29508936
87	0xbd845a95	-0.0646259
88	0x3eba0116	0.36328954
89	0xbe954559	-0.2915447
90	0x3e4f14ee	0.20222828
91	0xbcd5427a	-0.026032675
92	0x3cf473da	0.029840399
93	0x3e96f4ad	0.29483548
94	0xbde52e8d	-0.111905195
95	0xbe1ff0c8	-0.15619195
96	0xbe9d8ae4	-0.30770028
97	0x3df03cac	0.11730322
98	0xbeaa9ecc	-0.33324277
99	0xbdb39ec5	-0.08770517
100	0x3e9e4c0f	0.30917403
101	0x3bcc394d	0.0062324167
102	0xbe60a8bd	-0.21939369
103	0xbe94c2e1	-0.2905493
104	0xbda25bfa	-0.079276994
105	0xbdafe0ba	-0.08587785
106	0x3eb2927a	0.34877378
107	0xbe75a684	-0.23989302
108	0x3e63a0c4	0.22229296
109	0x3e83184a	0.2560447
110	0xbe1fdaf8	-0.15610874
111	0xbd956416	-0.072944805
112	0xbe0859bf	-0.13315485
113	0xbe1a6184	-0.15076262
114	0x3e839c51	0.25705197
115	0x3bff0d82	0.0077835927
116	0xbd9ef609	-0.07761771
117	0xbedd3b0f	-0.4320912
118	0x3e82f340	0.2557621
119	0x3d06e742	0.03293539
120	0x3d1d8808	0.038459808
121	0xbda98c6a	-0.08278735
122	0x3dee0a4b	0.11623057
123	0xbef8a596	-0.48563832
124	0x3e17ad2d	0.14812155
125	0x3e7f962b	0.24959628
126	0x3e448d1c	0.19194454
127	0xbdbd23be	-0.09235333
128	0x3e02d200	0.12775421
129	0xbd0e6c44	-0.03477122
130	0x3e46e848	0.19424546
131	0xbe796743	-0.24355797
132	0x3dfcf9ae	0.1235231
133	0xbdaa0869	-0.08302385
134	0xbd9f260d	-0.077709295
135	0x3d5fb6b0	0.054617584
136	0xbe6fc20d	-0.23413868
137	0x3dbcb25e	0.09213708
138	0xbe23fafd	-0.16013713
139	0x3daaee69	0.083462544
140	0x3e6ccf73	0.2312601
141	0xbe653fd7	-0.22387634
142	0x3dbf22db	0.0933282
143	0x3be39562	0.006945298
144	0xbe17adf4	-0.14812452
145	0xbe7bd1bc	-0.24591726
146	0xbd6fbd01	-0.058529858
147	0x3d8ba356	0.06818263
148	0x3de91e4c	0.11382732
149	0x3d39b5a5	0.045339245
150	0xbe6ddf2e	-0.23229668
151	0xbcb2487f	-0.021763084
152	0x3ef326ea	0.47490627
153	0xbe8e9b03	-0.2785264
154	0x3e90ff10	0.28319597
155	0x3d818bd8	0.06325501
156	0x3dbad024	0.09121731
157	0x3ea3ef84	0.32018673
158	0xbdccd662	-0.10001828
159	0xbdb34786	-0.087538764
160	0xbe9881e6	-0.29786605
161	0x3d4779dd	0.048700202
162	0xbe8745b4	-0.26420367
163	0xbe37a698	-0.17934644
164	0x3e8f0529	0.27933624
165	0xbdccca65	-0.09999541
166	0xbe865149	-0.2623389
167	0xbe5551a7	-0.20831929
168	0xbd393151	-0.045213047
169	0xbd20719c	-0.039170846
170	0x3e90f34a	0.28310615
171	0xbe9f8f0d	-0.31163827
172	0x3e6b2405	0.22962959
173	0x3e181a41	0.14853765
174	0xbabbe93e	-0.0014336479
175	0xbe006d95	-0.12541802
176	0xbe36c625	-0.17849024
177	0xbe85319d	-0.26014414
178	0x3e27afe6	0.16375694
179	0xbd114b93	-0.035472464
180	0x3c0fc7e6	0.008775687
181	0xbeafa3ed	-0.34304753
182	0x3e736a19	0.23770942
183	0xbbea24f2	-0.0071455175
184	0x3dd8f566	0.10593681
185	0xbd7fa9e5	-0.062417883
186	0x3d2a8c8c	0.041637942
187	0xbed3f309	-0.4139636
188	0x3e1d1ba5	0.15342577
189	0x3e52410f	0.2053263
190	0x3e642b56	0.22282156
191	0xbdd93fe3	-0.106078885
192	0x3e0daf3b	0.13836376
193	0xbdee77cc	-0.11643943
194	0x3dec1547	0.11527496
195	0xbe3a1e57	-0.18175636
196	0x3d645014	0.05574043
197	0xbe63db37	-0.22251593
198	0x3ce94f95	0.02848033
199	0x3d50c21a	0.05096636
200	0xbe5b1cf3	-0.21397762
201	0x3e35126a	0.17682806
202	0xbe8430f3	-0.25818595
203	0xbddac9f9	-0.106830545
204	0x3e41fde2	0.18944505
205	0xbe8a1989	-0.26972607
206	0x3e14e95a	0.14542142
207	0x3c651f88	0.013984568
208	0xbdb6a805	-0.08918766
209	0xbe1daeeb	-0.15398757
210	0xbdd3b850	-0.10337889
211	0x3da202b4	0.07910672
212	0x3e10ba27	0.14133511
213	0x3cdc97a4	0.026927777
214	0xbe4cc8f8	-0.19998538
215	0x3cf1015c	0.029419594
216	0x3f06e452	0.5269214
217	0xbe6d4989	-0.23172583
218	0x3ee8df0a	0.45482665
219	0x3d989e80	0.074521065
220	0x3e12bf97	0.14330898
221	0x3eb36361	0.35036758
222	0xbe3d872d	-0.18508597
223	0xbd8782a0	-0.066167116
224	0xbe6aea21	-0.22940876
225	0x3c7c5823	0.015401873
226	0xbe9945c9	-0.29936054
227	0x3cf559ec	0.029950105
228	0x3e923fb7	0.28564236
229	0x3c832b7f	0.016011951
230	0xbe77b5cc	-0.24190444
231	0xbe27df30	-0.16393733
232	0xbce7aaea	-0.02827974
233	0xbdfeec04	-0.1244736
234	0x3e38c0ae	0.18042251
235	0xbebb7702	-0.36614233
236	0x3e4b10b6	0.19830593
237	0x3e6b219e	0.22962043
238	0xbe12f9e2	-0.14353135
239	0xbdb22f29	-0.08700401
240	0xbe5ca6aa	-0.21547952
241	0xbe05b66e	-0.13057873
242	0x3e7d9ca0	0.24766779
243	0x3c8d79bc	0.017269962
244	0xbdffe466	-0.124947354
245	0xbeac4b4c	-0.33651197
246	0x3e1bc957	0.15213524
247	0x3c98d15e	0.018654522
248	0x3d969fc4	0.073546916
249	0x3d3d1cb9	0.04616997
250	0x3dbfe27c	0.0936937
251	0xbebe4b0d	-0.37166634
252	0x3e37149b	0.17878954
253	0x3e0dd806	0.13851938
254	0x3e82ba50	0.2553277
255	0xbe1e9048	-0.15484726

fc3.bias f4 [24]
0	0x3dfbc0b5	0.12292615
1	0x3daa1c5e	0.08306192
2	0x3dd33a41	0.103138454
3	0xbd367ba2	-0.0445515
4	0xbd0610c4	-0.032730833
5	0x3d4610ba	0.048355795
6	0xbdc27124	-0.09494236
7	0xbd83cf51	-0.06436027
8	0x3be3448c	0.0069356617
9	0x3d255e5e	0.0403732
10	0xbdd9abf7	-0.10628503
11	0xbda3689c	-0.07978937
12	0x3c81649c	0.015795045
13	0x3dbb6314	0.09149757
14	0xbdd6667d	-0.10468767
15	0xbde82852	-0.113358155
16	0x3d66b250	0.056322396
17	0xbdb34dbc	-0.08755061
18	0x3d867ce4	0.0656679
19	0x3d960255	0.073246635
20	0xbd8a2c5c	-0.06746742
21	0xbb17d6b7	-0.0023168752
22	0xbdd6c935	-0.10487596
23	0x3da80fd8	0.08206147
