model_weights/weather_weights/model_weather_SDTW_gamma_1.pt (torch, 142790 bytes, 6 tensors)

fc1.weight f4 [64, 456]
0	0xbc8711e5	-0.016488025
1	0xbd258c98	-0.040417284
2	0x3b81d346	0.0039619533
3	0xbc6a452e	-0.01429872
4	0x3da19a28	0.07890731
5	0xbcaec1f5	-0.02133272
6	0x3c9a9bab	0.018873056
7	0x3d181080	0.03712511
8	0x3d3f47a1	0.04669917
9	0x3c9ff0b5	0.019523958
10	0x3cc1e6f7	0.023669703
11	0x3bdd0cf4	0.006745929
12	0x3cbc2caa	0.022970516
13	0xbd99f0ee	-0.07516657
14	0x3db9d1cf	0.09073221
15	0x3cab9768	0.02094622
16	0x3dc7003f	0.09716844
17	0xbd2d3d6e	-0.042294912
18	0x3d1dbdd1	0.0385111
19	0x3cb82468	0.022478297
20	0xbd9c81c5	-0.07641939
21	0xbd92f0ac	-0.07174811
22	0x3b996da5	0.00468226
23	0x3dbb1ca9	0.09136326
24	0xb80b796e	-3.3253273e-05
25	0xbbae50d0	-0.005319692
26	0x3c1a4fd8	0.00941845
27	0x3c358bee	0.011080725
28	0xbd479b6a	-0.0487322
29	0x3d963682	0.07334615
30	0x3da99e80	0.082821846
31	0xb941ad60	-0.00018470502
32	0xbc3a7c0b	-0.011382113
33	0x3d8583a6	0.065192506
34	0xbd45e6de	-0.048315875
35	0x3cfc29d2	0.03078166
36	0xbc8e5da5	-0.017378638
37	0x3dc0be24	0.094112664
38	0x3cda58ae	0.026653614
39	0xbd161625	-0.036642212
40	0xbd872cec	-0.06600365
41	0xbc799b24	-0.015234742
42	0x3d988e0f	0.074489705
43	0xbce01e83	-0.0273583
44	0x3b2b9c3b	0.002618565
45	0x3d29b05e	0.041427962
46	0x3b69cee0	0.0035676286
47	0xbb469175	-0.0030299101
48	0x3d9a23ab	0.075263344
49	0x3c7a2b93	0.015269178
50	0x3d568c3d	0.052379835
51	0xbcbe33d6	-0.023218077
52	0x3d176846	0.036964677
53	0xbb5415ce	-0.003236163
54	0x3d8ed245	0.069736995
55	0x3b85088c	0.0040598568
56	0x3cbe22fd	0.023210043
57	0x3c3cac73	0.0115157245
58	0xbd8f3ef1	-0.06994427
59	0xbd7d129d	-0.06178533
60	0x3cd2dcbe	0.025740024
61	0x3d7fa228	0.062410504
62	0x3c8d3660	0.017237842
63	0xbd1229ae	-0.03568428
64	0xbd37ab69	-0.044841204
65	0x3ce092b2	0.0274137
66	0x3cf4da93	0.02988938
67	0x3d28fd29	0.041257057
68	0x3d9e9f1a	0.0774519
69	0x3a00a31d	0.0004907118
70	0xbcfe3621	-0.03103167
71	0x3dacaf6c	0.084318966
72	0x3cb32470	0.02186796
73	0x3c2f9459	0.010716521
74	0xbc135f2e	-0.008994861
75	0x3c49377b	0.012281294
76	0x3cafe446	0.021471154
77	0xbd20a938	-0.03922388
78	0xbc9ee718	-0.019397303
79	0xbd2206ee	-0.03955739
80	0x3d59e3cc	0.05319576
81	0x3ca5e529	0.020250874
82	0x3c3b4681	0.011430384
83	0xbcc17dd0	-0.023619562
84	0x3ce627a2	0.02809507
85	0x3bf4b43e	0.0074677756
86	0x3d92b8ee	0.07164179
87	0x3d9b96ff	0.075971596
88	0xbce282cc	-0.02765026
89	0xbca42a56	-0.020039719
90	0x3d8a2c12	0.06746687
91	0xbd5f7ac5	-0.05456044
92	0x3c291012	0.010318773
93	0xbced376f	-0.028957097
94	0x3d873499	0.06601829
95	0xbcbaa903	-0.02278567
96	0x3ca79db5	0.020460943
97	0xbd02f110	-0.031968176
98	0x3c1b189e	0.009466318
99	0x3d449f94	0.048003748
100	0x3d1d5e04	0.03841974
101	0xbca4c80b	-0.02011492
102	0xbd310188	-0.04321435
103	0x3d2c75e6	0.042104624
104	0xbc1746c8	-0.009233184
105	0xbc735cea	-0.014853695
106	0x3b85af79	0.004079756
107	0x3b89d6dd	0.004206522
108	0xbd3e17c9	-0.046409402
109	0x3dea95d1	0.114543565
110	0xbc2f18af	-0.010687037
111	0x3cebaf5f	0.028770147
112	0xba85c7a8	-0.0010206597
113	0x3ce4a9d2	0.027913008
114	0x3c9c5495	0.0190833
115	0xbb207597	-0.0024484152
116	0x3c528d7a	0.012851113
117	0xbd186c05	-0.03721239
118	0x3c9ba2ef	0.018998591
119	0xbd0d8de9	-0.034559164
120	0xbc644b21	-0.013933928
121	0xbd1a6dc5	-0.03770234
122	0xbc7c6b7e	-0.0154064875
123	0xbcc92ba2	-0.024556939
124	0x3d08b5b8	0.033376426
125	0x3bdb7099	0.0066967723
126	0xbd932fd6	-0.07186858
127	0xbcb222b7	-0.021745069
128	0x3dbb3415	0.09140793
129	0xbad405c7	-0.0016176038
130	0x3d5cbf21	0.053893212
131	0x3bdde963	0.0067722066
132	0x3cb0b71b	0.021571686
133	0xbd598ede	-0.053114764
134	0xbcbfd50c	-0.023417018
135	0x3c886945	0.016651759
136	0x3ca91d43	0.020643836
137	0x3d008de6	0.031385325
138	0xbd163a34	-0.0366766
139	0xbc7b7395	-0.015347381
140	0x3d3cc6bd	0.04608797
141	0x3cdfe997	0.027333064
142	0x3c9a047e	0.01880097
143	0x3b2710ee	0.0025492269
144	0x3c0c0195	0.008545299
145	0xbd495af4	-0.049159005
146	0xbcee5b97	-0.029096408
147	0x3d813af1	0.0631007
148	0xbc5f8b3c	-0.013644036
149	0xbc9be838	-0.019031629
150	0x3c3853b4	0.011250425
151	0x3d650241	0.055910353
152	0xbc63bfc7	-0.013900704
153	0xbd086a81	-0.033304695
154	0x3b5a1183	0.0033274598
155	0xbd2233a7	-0.03960004
156	0xbca711a3	-0.020394152
157	0x3cd5a815	0.026081124
158	0x3c9ed688	0.019389406
159	0x3cff9f77	0.031203968
160	0x3c35a709	0.011087188
161	0xbcb24f48	-0.02176632
162	0xbc0a094a	-0.008425066
163	0x3ad1d620	0.0016009249
164	0xbd7445b2	-0.05963678
165	0xbd963fdd	-0.073364
166	0x3dad0250	0.08447707
167	0xbcd52e77	-0.026023133
168	0x3cebd35e	0.028787311
169	0x3c212691	0.009835855
170	0xbcfaac59	-0.03059976
171	0xbc8cd27a	-0.017190207
172	0x3b6e5e48	0.0036372114
173	0x3cca86fa	0.024722565
174	0xbc085404	-0.008320812
175	0xbcab1adb	-0.02088683
176	0x3b17671d	0.0023102232
177	0x3cc3752c	0.023859583
178	0xba177fd9	-0.00057792437
179	0x3d17ba3f	0.037042852
180	0x3d009d45	0.031399984
181	0xbc0a7502	-0.008450748
182	0xbb509fb5	-0.0031833474
183	0xbda56fc9	-0.08077962
184	0xbd2eda7b	-0.042688828
185	0x3d797885	0.060905952
186	0x3c183be9	0.009291627
187	0xbb00f207	-0.001967551
188	0xbc279dda	-0.010230506
189	0xbbd7aa50	-0.006581582
190	0xbd1e6b05	-0.03867628
191	0xb9ba5f4f	-0.00035547695
192	0x3c90c3e5	0.017671535
193	0xbbb25187	-0.0054418477
194	0x3ca274b6	0.019831043
195	0xbb35b278	-0.0027724784
196	0x39ad2941	0.00033027868
197	0x3caaac20	0.020834029
198	0x3d09046f	0.033451494
199	0xbce6ff66	-0.028197955
200	0x3d4a17e1	0.04933918
201	0xbd61514b	-0.055009168
202	0xbda5729c	-0.08078501
203	0xbbbecebe	-0.0058229854
204	0x3def196b	0.1167477
205	0xbd0121fd	-0.031526554
206	0x3d2e195e	0.04250466
207	0xbced4b81	-0.028966667
208	0xb8c365bb	-9.317273e-05
209	0xbc387c91	-0.011260168
210	0x3c8a6148	0.01689209
211	0xbb276b36	-0.002554608
212	0x3c9c76fc	0.019099705
213	0xbcb2aae5	-0.021810004
214	0x3c6f50e0	0.014606684
215	0xbbb93c08	-0.0056529082
216	0x3cd093ea	0.025461156
217	0x3a701913	0.000915901
218	0x3bc11498	0.0058923475
219	0x3cb290dd	0.021797592
220	0xbd71e3d2	-0.059055157
221	0xbd41fa27	-0.047357704
222	0xbcda5198	-0.026650235
223	0x3db9e5ef	0.090770595
224	0xbd2f51d4	-0.042802647
225	0x3c8e69ce	0.017384436
226	0xbcaac5d6	-0.020846289
227	0x3ccf4cd9	0.025305199
228	0xbd8628ee	-0.065507755
229	0xbd2a51d1	-0.041581932
230	0x3ccc08e2	0.02490658
231	0xbd72b936	-0.059258662
232	0xbced028d	-0.02893188
233	0xbcead8e2	-0.02866787
234	0xbcfc0651	-0.03076473
235	0xbd359cda	-0.04433904
236	0xbd172024	-0.036895886
237	0x3d057d98	0.03259048
238	0x3aa4c2d7	0.0012570274
239	0xbd6ec78d	-0.058295775
240	0xbd2b3c11	-0.04180533
241	0xbcb36aae	-0.021901455
242	0x3cf189a1	0.029484572
243	0xbc8f8bff	-0.01752281
244	0x3caa2f60	0.020774543
245	0xbd309040	-0.043106318
246	0xbc833cd7	-0.016020222
247	0xbde8cd98	-0.11367339
248	0xbd03006d	-0.031982828
249	0xbd3e6848	-0.04648617
250	0xbc3e39de	-0.011610476
251	0x3d5279a6	0.051385544
252	0x3c6dd5d2	0.014516311
253	0x3c47533c	0.012165841
254	0xbc83912f	-0.01606044
255	0xbba9dde2	-0.005183921

fc1.bias f4 [64]
0	0xbd007d99	-0.03136978
1	0xbd52dc74	-0.05147977
2	0xbd694dc4	-0.05695893
3	0x3dd71eca	0.105039194
4	0xbd2dabdf	-0.042400237
5	0x3d80f201	0.062961586
6	0x39924fcb	0.0002790674
7	0x3d6dfcfe	0.0581026
8	0x3d3d79ce	0.04625874
9	0xbe695a08	-0.2278825
10	0xbd10ba03	-0.035333645
11	0xbd2a97e2	-0.041648753
12	0x3e041b15	0.12900956
13	0x3c2e9cff	0.010657548
14	0x3e1126b5	0.14174922
15	0x3c4768cd	0.012170983
16	0xbd96a970	-0.073565364
17	0x3d07c486	0.033146404
18	0x3bf1bca3	0.0073772236
19	0x3e16c1c2	0.1472235
20	0x3d04079d	0.032233823
21	0x3c3a7af2	0.0113818515
22	0x3d350082	0.044189937
23	0x3c6a3bd1	0.014296488
24	0xbea63ff1	-0.32470658
25	0x3d8b570f	0.068037145
26	0x3d224f18	0.03962621
27	0xbd8406b4	-0.06446591
28	0xbd60f109	-0.05491737
29	0x3d90939d	0.07059405
30	0x3d524459	0.051334713
31	0x3dd28cc9	0.10280759
32	0x3da4b523	0.080423616
33	0xbd88aec5	-0.0667396
34	0x3d345877	0.04402968
35	0x3cbc00c1	0.022949578
36	0xbcc72178	-0.024307951
37	0xbcdc0385	-0.026857147
38	0xbcc15e19	-0.02360444
39	0x3c17a9aa	0.00925676
40	0x3dd0f126	0.102022454
41	0x3e0fbcc1	0.14036848
42	0xbe5f396e	-0.21799251
43	0x3d40363f	0.046926733
44	0x3e04181a	0.12899819
45	0xbbd709f6	-0.0065624667
46	0x3cbc8bcf	0.023015885
47	0x3c32daa4	0.010916386
48	0xbd01624f	-0.031587895
49	0x3e0f45f3	0.13991527
50	0x3d9af3ae	0.075660095
51	0x3db7b95e	0.08970903
52	0x3d520f80	0.051284313
53	0xbb48686d	-0.003057982
54	0x3deebed2	0.1165749
55	0x3da1682f	0.078811996
56	0xbdbe5332	-0.09293212
57	0x3c9d8341	0.019227626
58	0x3c388698	0.011262558
59	0x3d60f0c4	0.054917112
60	0xbdf49dd3	-0.11944165
61	0x3dd19c96	0.102349445
62	0xbc58393d	-0.01319724
63	0xbdd5d2f3	-0.10440626

fc2.weight f4 [64, 64]
0	0x3cc5b417	0.024133725
1	0xbd99d728	-0.07511741
2	0xbe2e9593	-0.17049246
3	0x3de6843d	0.11255691
4	0x3dea4ce6	0.114404485
5	0xbb6a751c	-0.003577537
6	0x3d662757	0.05618986
7	0xbde12fdf	-0.10995459
8	0x3caa9e33	0.020827388
9	0xba89b044	-0.0010504802
10	0xbdec3c43	-0.115349315
11	0xbdb921bb	-0.09039637
12	0x3e368002	0.17822269
13	0xbc8f0712	-0.017459426
14	0x3e3198b1	0.17343403
15	0xbe0bfed4	-0.13671428
16	0xbdba723b	-0.09103819
17	0xbe054ead	-0.13018294
18	0x3dc018c4	0.09379724
19	0xbddb87ae	-0.10719238
20	0x3e6bebe0	0.23039198
21	0xbdb6318c	-0.08896169
22	0x3db77983	0.089587234
23	0xbbac27dc	-0.005253775
24	0xbe2b5393	-0.167311
25	0x3e6a38f0	0.22873282
26	0x3bb5655c	0.0055357646
27	0xbbd80985	-0.0065929317
28	0x3dc2909c	0.09500238
29	0x3dc6d0ae	0.09707771
30	0x3e34f8f4	0.17673093
31	0xbd64f637	-0.05589887
32	0xbe4b88fd	-0.19876476
33	0x3a8afcfb	0.0010603959
34	0xbdc78a62	-0.09743191
35	0x3d9cba01	0.07652665
36	0xbe165959	-0.14682521
37	0x3ce1ef13	0.02757982
38	0x3dab125d	0.08353112
39	0xbd107d6d	-0.035275865
40	0xbdb14e15	-0.08657471
41	0x3e55eace	0.20890352
42	0xbdf160f7	-0.11786073
43	0xbdcf0344	-0.10108045
44	0x3ddb6fa9	0.10714657
45	0x3e148174	0.14502507
46	0x3e159e26	0.1461111
47	0x3dcfc4f7	0.1014499
48	0x3e223ca0	0.15843439
49	0x3e07579f	0.13217019
50	0x3d9b6615	0.0758783
51	0x3e70f282	0.2353001
52	0x39ded042	0.00042498304
53	0xbdb08822	-0.08619715
54	0x3dc8d788	0.09806734
55	0x3d6386d8	0.05554852
56	0xbe1040e2	-0.14087251
57	0x3e8b0ad1	0.2715669
58	0xbd1ee4b8	-0.038792342
59	0x3ba41fd5	0.0050086775
60	0x3d9da9f3	0.07698431
61	0xbccdf52b	-0.02514132
62	0xbd012989	-0.03153375
63	0xbac9835a	-0.0015374229
64	0x3d925f5f	0.07147097
65	0x3de475ee	0.11155306
66	0x3d95610b	0.072939
67	0xbe099e9a	-0.13439408
68	0xbd9186b1	-0.071057685
69	0x3bd43e9a	0.0064771893
70	0xbe302771	-0.17202546
71	0x3c7bb899	0.015363836
72	0x3e22841c	0.15870708
73	0x3ddd10fc	0.10794255
74	0x3db6e23d	0.0892987
75	0x3d8e668f	0.06953155
76	0xbe3a80c6	-0.18213186
77	0x3d6fe435	0.058567245
78	0xbe426f26	-0.18987712
79	0x3e28d808	0.1648866
80	0x3d48835f	0.04895341
81	0x3deea7d9	0.11653108
82	0xbe45c02c	-0.19311589
83	0x3e1efcc6	0.15526113
84	0xbe3d7d91	-0.18504931
85	0x3e301ed2	0.17199257
86	0xbd8a80f8	-0.0676288
87	0x3e10a5d1	0.14125754
88	0x3d2e4a1a	0.042551138
89	0xbc007ca8	-0.00784222
90	0xbbebd566	-0.00719707
91	0xbe139e6f	-0.14415906
92	0xbe27266d	-0.16323252
93	0xbd06dd17	-0.03292569
94	0xbe4964f5	-0.19667418
95	0x3daf2c5f	0.08553385
96	0xbb8bb952	-0.0042640353
97	0x3d687480	0.056751728
98	0xbda40fdc	-0.080108374
99	0xbe728877	-0.2368487
100	0xbcbc118d	-0.022957588
101	0xbdf65a17	-0.12028902
102	0xbd2c504b	-0.04206876
103	0xbcb4d015	-0.022071877
104	0x3d92ec45	0.07173971
105	0xbe49d66b	-0.197107
106	0x3de07ad2	0.10960926
107	0xbd89ddd8	-0.067317665
108	0xbe2028b3	-0.15640526
109	0xbe4ab71e	-0.19796416
110	0xbd9a54a8	-0.07535678
111	0xbe249e20	-0.16075945
112	0xbe35d434	-0.1775673
113	0xbe5aa107	-0.2135049
114	0xbdc5ed42	-0.09664394
115	0xbe22b339	-0.1588868
116	0x3d8b58ae	0.06804024
117	0x3e1c67c5	0.1527396
118	0xbda80db1	-0.082057364
119	0xbe45ed4c	-0.19328803
120	0x3dbbb376	0.09165089
121	0xbdc808b3	-0.09767284
122	0xbdd79318	-0.10526103
123	0xbdfbd63a	-0.1229672
124	0x3c1b4009	0.009475716
125	0xbe77d650	-0.24202847
126	0x3d90cdd1	0.07070506
127	0xbe2cf916	-0.16891894
128	0x3d18ef1e	0.037337415
129	0x3d4f1f87	0.050567176
130	0x3e02b22f	0.12763284
131	0xbe426449	-0.18983568
132	0xbdff9d20	-0.12481141
133	0x3dff74b3	0.124734305
134	0xbe1c38c4	-0.1525603
135	0x3d3d05fd	0.04614829
136	0x3e0e25d5	0.1388162
137	0xbd8e0503	-0.0693455
138	0x3dd7fc13	0.10546126
139	0x3e12ecfa	0.14348212
140	0xbd8a80f7	-0.06762879
141	0x3df03f2e	0.117308006
142	0xbd8045da	-0.06263323
143	0x3e2c20be	0.16809365
144	0x3de1163f	0.10990571
145	0x3e320570	0.17384887
146	0xbd6e3629	-0.05815712
147	0xbca0a5ac	-0.019610249
148	0xbe0109f5	-0.12601455
149	0x3deac751	0.11463798
150	0xbe0abb25	-0.13547952
151	0xbc08a611	-0.008340375
152	0x3d218e93	0.03944261
153	0xbda6e38c	-0.0814887
154	0xbccfe465	-0.025377462
155	0xbd58a0c7	-0.052887704
156	0xbdfef88a	-0.12449749
157	0xbde8bc81	-0.11364079
158	0xbdc15147	-0.094393305
159	0x3d60127f	0.05470514
160	0x3da4c4ff	0.080453865
161	0x3de2cef8	0.110746324
162	0xbbc8fd19	-0.006133687
163	0xbce6b381	-0.028161766
164	0x3e0f429e	0.13990256
165	0xbd347919	-0.0440608
166	0xbe214544	-0.15749079
167	0xbc9b559d	-0.018961722
168	0xbcf4ed65	-0.029898355
169	0xbe3b602a	-0.18298402
170	0x3e1a93b1	0.15095402
171	0x3dfc8a4a	0.12331064
172	0xbe259ad7	-0.16172348
173	0xbe5b1486	-0.21394548
174	0xbe5162a4	-0.20447785
175	0xbe3f73fb	-0.18696587
176	0xbe29487e	-0.1653156
177	0xbe8022f7	-0.25026676
178	0xbdb83d88	-0.08996111
179	0xbe64f00a	-0.22357193
180	0x3df62409	0.12018592
181	0xbb1205c6	-0.0022281273
182	0xbe575b1f	-0.21030854
183	0xbdece3f3	-0.11566915
184	0x3dea3514	0.11435905
185	0xbd8a40d3	-0.067506455
186	0xbd67e2c8	-0.05661276
187	0xbe3170d2	-0.17328194
188	0xbca7f107	-0.020500673
189	0x3bfd2028	0.0077247806
190	0x3dd4ef61	0.103972204
191	0x3ba34af6	0.0049833013
192	0xbcdff8ae	-0.02734026
193	0x3d7748d1	0.060372178
194	0x3dafa9c4	0.08577302
195	0xbe101e1b	-0.14073984
196	0xbe013b44	-0.12620264
197	0x3e16d47a	0.14729491
198	0xbe3c7c7b	-0.1840686
199	0x3e2cb964	0.16867596
200	0x3e207770	0.15670562
201	0x3e12f07f	0.14349554
202	0x3cfaddcc	0.03062334
203	0x3a32590f	0.0006803432
204	0xbe1977d3	-0.14987116
205	0xbd4239fb	-0.047418576
206	0xbe21d374	-0.15803319
207	0x3e03072c	0.12795705
208	0x3c92665e	0.017871078
209	0x3d8a5228	0.06753951
210	0xbb9b4f83	-0.004739703
211	0xbd54766f	-0.05187076
212	0xbe1dfd12	-0.1542857
213	0x3e2078d0	0.15671086
214	0xbda3d960	-0.08000445
215	0x3e213116	0.15741381
216	0x3d02e2ae	0.03195446
217	0xbe076d80	-0.13225365
218	0xbe2878e2	-0.16452363
219	0xbdb4db67	-0.0883091
220	0xbe13e691	-0.14443423
221	0xbcfeb4b8	-0.031092033
222	0xbdd33c8d	-0.103142835
223	0x3a3a350b	0.0007103241
224	0x3d32aee6	0.043623827
225	0x3e371728	0.17879927
226	0x3cb3f3de	0.02196687
227	0xbe139ad5	-0.14414532
228	0x3e190eba	0.14947024
229	0xbdbe946a	-0.093056515
230	0xbe3f7763	-0.18697886
231	0x3d0ec538	0.03485605
232	0x3cb48e05	0.022040376
233	0xbdd716bf	-0.10502385
234	0xbb930827	-0.004487056
235	0x3d9e85b2	0.07740344
236	0xbdd495ba	-0.103801206
237	0xbe1a1cdd	-0.15050073
238	0xbdb34b92	-0.08754648
239	0xbd775a51	-0.060388867
240	0xbe62de23	-0.22155051
241	0xbe231046	-0.15924177
242	0xbe401d09	-0.18761076
243	0xbdf5b290	-0.11996949
244	0x3da13502	0.078714386
245	0x3ccd067d	0.025027508
246	0xbdee870b	-0.11646851
247	0xbe782e28	-0.24236357
248	0xbd2b60aa	-0.041840233
249	0xbe3e54bb	-0.1858701
250	0xbe391598	-0.18074644
251	0xbd59c93e	-0.053170435
252	0x3d9702f2	0.07373609
253	0xbd12635b	-0.035739284
254	0x3e1ec04f	0.15503047
255	0xbde9d423	-0.11417415

fc2.bias f4 [64]
0	0x3da5d5b0	0.08097398
1	0x3d77d4c4	0.060505643
2	0x3d28175f	0.041037913
3	0xbcc608d9	-0.02417414
4	0x3c91413b	0.0177313
5	0x3dec1399	0.115271755
6	0x3e02bbd4	0.12766963
7	0xbd9170e0	-0.07101607
8	0x3b53f494	0.0032341825
9	0xbd7ce303	-0.061739933
10	0xbdb5d95d	-0.088793494
11	0xbe2206b6	-0.15822873
12	0x3c57b9ce	0.013166858
13	0xbd8c4a21	-0.068500765
14	0xbdeec9fd	-0.1165962
15	0x3cced9d4	0.025250353
16	0x3dad6782	0.08467008
17	0xbdc83150	-0.097750306
18	0xbda4144d	-0.080116846
19	0x3cd12859	0.025531935
20	0xbdd2de4f	-0.10296308
21	0x3db4dd8c	0.08831319
22	0xbc9db03d	-0.019249076
23	0x3d309cd3	0.04311831
24	0x3dae9335	0.08524171
25	0xbd11c802	-0.035591133
26	0x3cbe22df	0.023209987
27	0xbd781c2e	-0.06057375
28	0x3d12b5e6	0.035818003
29	0x3d8def5a	0.06930418
30	0x3bd6e324	0.006557839
31	0x3de7183b	0.112839185
32	0x3dbe29af	0.09285294
33	0x3d48ef9f	0.049056645
34	0xbbe23b39	-0.0069040325
35	0x3d699119	0.05702314
36	0xbbe8d73c	-0.007105736
37	0xbdb6522a	-0.0890239
38	0xbe0274ee	-0.12739918
39	0x3dc93783	0.09825041
40	0xbd6a5a16	-0.05721482
41	0x3c936722	0.017993513
42	0x3d4c1df6	0.04983326
43	0x3d8f3fcc	0.0699459
44	0x3da6be66	0.08141784
45	0x3dd67c9a	0.104729846
46	0x3e124261	0.14283134
47	0xbe41d86f	-0.18930219
48	0x3d2cc5e7	0.042180922
49	0x3c5d6608	0.013513096
50	0xbdc536f7	-0.09629624
51	0xbcb7e78a	-0.022449274
52	0xbca13eba	-0.01968323
53	0x3e2e590c	0.17026156
54	0xbdca35b2	-0.09873523
55	0x3de3a5f0	0.111156344
56	0x3d912d84	0.070887595
57	0xbd844c96	-0.0645992
58	0x3db35315	0.08756081
59	0x3d276abf	0.040873285
60	0x3b6cdc01	0.0036141875
61	0xbe034c58	-0.12822092
62	0x3d046b70	0.032329023
63	0x3dce827c	0.10083482

fc3.weight f4 [24, 64]
0	0x3dad667a	0.084668115
1	0xbe4483a2	-0.19190839
2	0xbe0f030b	-0.13966005
3	0xbdec29de	-0.11531423
4	0x3e1da528	0.15395033
5	0xbc8b883a	-0.017032731
6	0x3e4fb466	0.2028366
7	0xbda343fe	-0.07971953
8	0xbd7f4c7b	-0.062328797
9	0xbcddb52b	-0.027063927
10	0x3e0494c0	0.12947369
11	0xbe3e282a	-0.18570009
12	0x3bce66e2	0.0062988857
13	0x3e810503	0.25199136
14	0xbd7839e3	-0.06060208
15	0x3de497c7	0.11161762
16	0x3dd751ec	0.10513672
17	0xbae4904f	-0.0017438027
18	0xbe03b7f7	-0.12863146
19	0x3d9a7312	0.07541479
20	0xbc3eeeb7	-0.011653594
21	0xbcaf16b6	-0.021373134
22	0xbd67f6e7	-0.05663195
23	0xbe6d7270	-0.23188186
24	0x3e09f0fa	0.13470832
25	0x3e0db082	0.13836864
26	0xbdd5e347	-0.1044374
27	0xbc58ec54	-0.013239939
28	0xbd939668	-0.07206422
29	0x3e59d170	0.212713
30	0x3dcdeef8	0.10055345
31	0x3e0cbc76	0.13743767
32	0xbe70757b	-0.23482315
33	0x3e30383d	0.17208953
34	0xbcd77b49	-0.026303904
35	0xbe5d94b1	-0.21638753
36	0xbd1d7d61	-0.03844965
37	0xbdbf1e77	-0.093319826
38	0xbdef65d5	-0.11689345
39	0x3ddcdb92	0.10784067
40	0xbe59aa62	-0.21256402
41	0x3dfee214	0.12445465
42	0x3e3ffece	0.18749544
43	0x3db10732	0.086439505
44	0x3da8d48e	0.082436666
45	0xbe3a7539	-0.1820878
46	0x3dd02e56	0.10165088
47	0x3cf2c24a	0.02963366
48	0xbe56fa57	-0.20993935
49	0x3d9dc8db	0.07704326
50	0x3e1fe487	0.1561452
51	0xbe4596e1	-0.19295837
52	0xbd2c46c9	-0.042059693
53	0x3d8f1fea	0.06988509
54	0x3d0a20f7	0.033722844
55	0xbe070f52	-0.13189438
56	0xbbf3d5cd	-0.0074412585
57	0xbd2a0eb1	-0.041517917
58	0x3e3a4a50	0.1819241
59	0xbd560694	-0.052252367
60	0x3d872426	0.06598692
61	0xbc3492f9	-0.011021369
62	0xbe30b5d2	-0.17256859
63	0xbe3f3393	-0.18672018
64	0x3e258975	0.16165717
65	0xbd77c5e4	-0.060491458
66	0x3d074c1e	0.033031575
67	0xbe5b231c	-0.21400112
68	0x3bbd299a	0.0057727816
69	0x3d698149	0.05700806
70	0x3d3057e4	0.04305257
71	0xbdcba321	-0.09943224
72	0x3e00e0b9	0.12585725
73	0xbdad1c8f	-0.08452713
74	0x3d3b519c	0.045732126
75	0xbe616c1a	-0.22013894
76	0xbcc23640	-0.023707509
77	0x3dad3e2d	0.08459125
78	0xbdeb4932	-0.1148857
79	0x3e03f6f7	0.12887178
80	0xbcc24e39	-0.02371894
81	0xbe2d3290	-0.1691382
82	0xbd6eaeb9	-0.058272097
83	0x3cb55e86	0.022139799
84	0x3df9c70f	0.121961705
85	0x3deea74e	0.116530046
86	0xbe59514a	-0.21222416
87	0xbe585b8f	-0.21128677
88	0x3d978d18	0.07399958
89	0x3e488d9b	0.19585268
90	0xbd7f07cc	-0.062263295
91	0x3c1e7fdb	0.009674038
92	0x3df37efd	0.118894555
93	0x3e74c504	0.2390328
94	0x3e42c4ff	0.1902046
95	0x3e39879f	0.18118142
96	0xbe3b2a96	-0.18277964
97	0x3e074e2e	0.13213417
98	0x3d45fe07	0.048337962
99	0xbe1147c3	-0.14187531
100	0x3d45810c	0.04821877
101	0xbdd3f54f	-0.10349523
102	0xbdef8f87	-0.116972975
103	0x3cf72831	0.030170532
104	0xbe42ad4c	-0.1901142
105	0x3e5a4c1d	0.21318097
106	0x3e140c17	0.14457737
107	0x3e07d42f	0.13264535
108	0xbd1e66b6	-0.03867217
109	0xbe38e0ee	-0.18054554
110	0x3d7bd9c8	0.06148699
111	0x3de5a329	0.11212761
112	0xbe2ef46b	-0.17085426
113	0xbd534216	-0.051576696
114	0x3e42a5e7	0.19008599
115	0xbd2c3b7d	-0.04204892
116	0xbe4ad3a4	-0.19807297
117	0x3dbdf803	0.0927582
118	0x3d2fa06d	0.042877603
119	0xbc0f0a27	-0.008730448
120	0xbe5317be	-0.20614526
121	0xbe54c24f	-0.20777248
122	0x3b64d188	0.003491493
123	0xbe231823	-0.15927176
124	0x3d55ff5d	0.052245487
125	0x3dd115e3	0.10209253
126	0xbda1b362	-0.07895543
127	0xbd8e1fa9	-0.069396324
128	0xbbdb5cf4	-0.0066944305
129	0xbe1388ca	-0.1440765
130	0xbdcd8190	-0.10034478
131	0xbe31fbc0	-0.17381191
132	0x3e22a19f	0.15881966
133	0xbdf3b979	-0.119006105
134	0x3e4c6d31	0.19963528
135	0xbe1b867c	-0.1518802
136	0x3dbb39ef	0.09141909
137	0xbcca09bd	-0.024662847
138	0x3e0fe470	0.14051986
139	0xbdfc40cd	-0.12317047
140	0x3dad99b9	0.08476586
141	0x3e111972	0.14169863
142	0xbdb67d49	-0.08910615
143	0x3e05aef8	0.13055027
144	0x3e151dff	0.14562224
145	0xbba43eef	-0.005012385
146	0xbe48abc4	-0.19596773
147	0xbce15cb1	-0.027510019
148	0x3e005777	0.12533365
149	0x3e406992	0.18790272
150	0xbdeb9dc0	-0.11504698
151	0xbe855512	-0.26041466
152	0x3c1ba46b	0.0094996495
153	0x3dbbe7dd	0.09175084
154	0xbdedcd9b	-0.11611482
155	0xbdf044d5	-0.11731879
156	0xbccd04dc	-0.025026731
157	0x3bc49f2e	0.006000421
158	0x3dd12926	0.102129266
159	0x3e424066	0.18969879
160	0x3b0410be	0.002015158
161	0x3dec05c7	0.115245394
162	0xbda374c4	-0.07981256
163	0xbe7ba425	-0.24574335
164	0xbba0f7f3	-0.0049123704
165	0xbde6de4e	-0.1127287
166	0xbe0733b7	-0.13203321
167	0x3e1d8023	0.15380912
168	0x3c368e87	0.01114238
169	0x3e4b4e11	0.19853999
170	0xbb5b8f89	-0.0033502302
171	0x3d8d5b8e	0.06902228
172	0x3e020cff	0.1270027
173	0xbe22d0b7	-0.15899931
174	0x3d1f9333	0.03895874
175	0x3e109996	0.14121088
176	0xbd839bc6	-0.06426196
177	0x3bc8f366	0.006132531
178	0x3e5dd387	0.21662723
179	0xbe476dc3	-0.19475465
180	0xbe8e12c4	-0.27748692
181	0x3e03e2f5	0.12879546
182	0x3c074f36	0.008258631
183	0xbc0e746c	-0.008694749
184	0xbe16d44c	-0.14729422
185	0xbe4c5b61	-0.19956733
186	0xbc4dec9b	-0.012568618
187	0xbe02a005	-0.12756355
188	0x3d3e2bb9	0.046428416
189	0x3d8c4725	0.06849507
190	0xbe29e26d	-0.16590281
191	0xbdfbcd33	-0.12294998
192	0x3e34d06c	0.17657632
193	0xbe5a1142	-0.21295646
194	0xbdda6997	-0.10664671
195	0xbe3dee83	-0.18548016
196	0xbc25f45e	-0.010129062
197	0xbd908ebe	-0.07058476
198	0x3cba4530	0.02273807
199	0xbe45a8df	-0.193027
200	0xbca69480	-0.020334482
201	0x3ceb5c14	0.02873043
202	0x3e044fcb	0.12921064
203	0xbd9e0146	-0.07715087
204	0x3deeb4e9	0.116555996
205	0x3dc82764	0.09773138
206	0xbe055065	-0.1301895
207	0x3e61d3a1	0.22053386
208	0x3e5f47fb	0.21804802
209	0xbdb3479b	-0.08753892
210	0xbe0bc8ac	-0.13650769
211	0xbaf0f612	-0.0018383882
212	0x3db774d2	0.089578286
213	0x3e3f8363	0.18702464
214	0xbe2ab6e9	-0.16671337
215	0xbc13ecaf	-0.009028598
216	0x3e28b902	0.16476825
217	0x3d2450d7	0.040116157
218	0xbe4e9c7a	-0.20176879
219	0xbdc56be6	-0.096397206
220	0x3e2f773d	0.1713533
221	0x3e02e779	0.12783612
222	0x3e086024	0.13317925
223	0x3d2d308e	0.042282633
224	0xbd45a321	-0.048251275
225	0x3c57cef2	0.013171898
226	0xbdc6bd55	-0.09704081
227	0xbcd66b92	-0.02617434
228	0xbd2bcd47	-0.041943815
229	0xbe51234f	-0.20423625
230	0xbc942ca8	-0.0180877
231	0x3e19fa8f	0.15036987
232	0xbe687b40	-0.22703266
233	0x3e409923	0.18808417
234	0xbcf9d048	-0.030494824
235	0x3e11360d	0.14180775
236	0x3e0b8ac4	0.13627154
237	0xbd2f4e59	-0.042799328
238	0x3d43785a	0.047722198
239	0x3e559b72	0.20860079
240	0x3bbd36fa	0.005774376
241	0xbe1855cb	-0.14876477
242	0x3d81a294	0.063298374
243	0xbe1d528e	-0.15363523
244	0xbe1d6893	-0.15371923
245	0x3d95fcf3	0.07323637
246	0xbd8675e1	-0.06565452
247	0xbe463d36	-0.19359288
248	0xbe765b07	-0.24058162
249	0xbe5afe9a	-0.21386185
250	0x3d71e51b	0.059056383
251	0xbda614df	-0.081094496
252	0x3e0d760d	0.13814564
253	0x3df2cdae	0.118556365
254	0xbdab59d2	-0.08366741
255	0xbd843e87	-0.06457239

fc3.bias f4 [24]
0	0xbdf02996	-0.11726682
1	0xbcbf5247	-0.023354663
2	0x3db88ba6	0.09011011
3	0xbda856e1	-0.08219696
4	0x3c8f3d38	0.017485246
5	0xbc9d07f9	-0.01916884
6	0xbdc28f29	-0.09499962
7	0xbdabcb59	-0.08388395
8	0x3ce84ef4	0.02835796
9	0x3dc9b67b	0.098492585
10	0xbbd73b9e	-0.006568386
11	0x3d5bd4fc	0.053669915
12	0x3d40ff13	0.047118258
13	0xbae8c4ed	-0.0017758884
14	0xbdaa763a	-0.08323331
15	0xbd99fdc5	-0.07519106
16	0x3d347be5	0.044063468
17	0xbbc38cd3	-0.0059677153
18	0xbd5c0ed3	-0.053725075
19	0x3cbc3f79	0.022979485
20	0xbd78d20e	-0.0607472
21	0xbe13371a	-0.14376488
22	0x3ca9b84c	0.020717762
23	0xbd910fd6	-0.070830986
