model_weights/weather_weights/model_weather_SDTW_gamma_1.pt (torch, 142790 bytes, 6 tensors)

fc1.weight f4 [64, 456]
0	0xbcdb267c	-0.02675175
1	0xbd292b5c	-0.041301116
2	0xbc8374d4	-0.016046919
3	0xbc8689de	-0.016423162
4	0xbc9bc037	-0.019012554
5	0xbb5e9ca0	-0.0033967867
6	0xbc7d3e0c	-0.015456688
7	0x3ca7d4c9	0.020487206
8	0x3bd242e6	0.0064166663
9	0x3d015d06	0.031582855
10	0xbcdaccf0	-0.02670905
11	0x3cec0722	0.028811995
12	0xbbec18b1	-0.007205092
13	0x3c7e8f08	0.015537031
14	0x3ca5f8fd	0.020260328
15	0xba158dc1	-0.0005705022
16	0x3c4254a1	0.011860997
17	0x3cd0917b	0.025459995
18	0xbc49b445	-0.012311046
19	0x3d327aaa	0.043574013
20	0xbd023628	-0.03178993
21	0xbd3f6af9	-0.046732876
22	0x3d2da8ab	0.042397182
23	0x3d227aa1	0.03966773
24	0xbd373c84	-0.044735447
25	0x3c8c8080	0.017151117
26	0x3d2a64fd	0.041600216
27	0xbab2bcb6	-0.0013636563
28	0xbcf85c8a	-0.030317564
29	0x3d013722	0.03154672
30	0xbd00b5db	-0.03142343
31	0xbbbd679c	-0.0057801735
32	0xbb0195c7	-0.0019773112
33	0x3d2731d2	0.040818997
34	0x3c9ce6bc	0.019152991
35	0xbd320fd6	-0.043472134
36	0xbc91b983	-0.017788654
37	0x3d1b958d	0.03798442
38	0xbcd4b4d7	-0.025965137
39	0xbb190304	-0.0023347745
40	0x3b8ff12c	0.0043927636
41	0x3d13d31e	0.03609001
42	0xbd338ced	-0.04383557
43	0x3cc81048	0.024421826
44	0x3c1be613	0.009515303
45	0x3ccb4312	0.024812255
46	0x3c11f08c	0.0089074485
47	0x3c967af2	0.018369172
48	0x3ccbba22	0.024869028
49	0xbd1874db	-0.037220817
50	0xbcdb45d3	-0.026766693
51	0xbcb4bf28	-0.022063807
52	0x3d09cb9f	0.033641454
53	0x3c96352b	0.0183359
54	0x3c6664dc	0.014062133
55	0x3d352007	0.044219997
56	0xbced1ace	-0.028943446
57	0xbc8a4d13	-0.016882455
58	0xbbb70e8a	-0.00558645
59	0xbcfb23aa	-0.030656654
60	0xbc3b2ab3	-0.0114237545
61	0x3c68e552	0.0142148305
62	0xbd1ab5b1	-0.03777093
63	0xbcb9e177	-0.022690518
64	0x3d0282f0	0.031863153
65	0xbcca7ce6	-0.02471776
66	0xbc68f035	-0.014217426
67	0xbc1ad89f	-0.009451061
68	0xbd33fc14	-0.043941572
69	0x3bea0851	0.0071421047
70	0xbd125082	-0.03572131
71	0xbcc3a7f4	-0.023883797
72	0xbcc0480c	-0.023471855
73	0xbccbf82b	-0.02489861
74	0x3d0539c1	0.03252578
75	0x3aeff0ab	0.0018305978
76	0xbd224a79	-0.039621804
77	0x3c789f00	0.015174627
78	0xbbf149c1	-0.0073635285
79	0xbc9ea63f	-0.019366382
80	0xbb03d268	-0.0020114426
81	0xbc6c739d	-0.014431861
82	0x3d04ed27	0.03245273
83	0x3cd47def	0.025938956
84	0x3d378355	0.044802982
85	0xbce7b5de	-0.028284963
86	0x3d357525	0.04430117
87	0xbcc1c2c4	-0.023652442
88	0x3b892290	0.0041850284
89	0x3c07d07a	0.008289451
90	0xbca30f5f	-0.01990479
91	0xbd30601e	-0.043060414
92	0xbcbc07ec	-0.022952996
93	0xbc51fa20	-0.012815982
94	0x3cd83f33	0.026397323
95	0x3cb55abf	0.022137998
96	0x3c212d3e	0.009837447
97	0xbd0ef10d	-0.034897853
98	0x3cae6b73	0.02129147
99	0x3ca5b085	0.020225773
100	0xbd2087ef	-0.039192136
101	0xbc1dc1f4	-0.009628762
102	0xbc7f44a9	-0.015580335
103	0x3cc84beb	0.024450263
104	0x3cab2d0c	0.020895503
105	0xbd205b81	-0.039149765
106	0xbbb19cc2	-0.0054202983
107	0xbbaa70c5	-0.0052014315
108	0xbd1654d7	-0.036702003
109	0x3bd4dbe0	0.0064959377
110	0xbcaf942b	-0.021432957
111	0x3d3a3cca	0.04546813
112	0x3d32eb9b	0.043681722
113	0x3c995eac	0.0187219
114	0xbce13b38	-0.027494058
115	0xbd1e9e0c	-0.038724944
116	0x3d2d54a5	0.04231705
117	0x3d3d7f09	0.04626373
118	0xbd141f1e	-0.03616249
119	0xbcc0f036	-0.023552042
120	0xbd2bda84	-0.04195644
121	0xbb485cc7	-0.0030572878
122	0x3c87daf8	0.016583905
123	0x3c8d35d9	0.01723759
124	0xbd197284	-0.037462726
125	0x3c8740b6	0.016510349
126	0xbc85527d	-0.016274685
127	0xbbc54a00	-0.0060207844
128	0xbb56dcf0	-0.0032785498
129	0xbc9676eb	-0.018367251
130	0xbcee2e1d	-0.029074723
131	0xbcd57f28	-0.02606161
132	0x3d3a7854	0.04552491
133	0x3d32c919	0.043648813
134	0xbd1867c1	-0.037208322
135	0x3c452357	0.012032351
136	0xbca39072	-0.019966338
137	0xbd2d22b5	-0.042269427
138	0xbd1c9759	-0.038230274
139	0x3c561d61	0.013068528
140	0xb9a07a66	-0.00030608772
141	0x3d14e8a1	0.036354665
142	0x3c60e9ed	0.013727647
143	0x3a904a02	0.0011008384
144	0xbd000e75	-0.031263787
145	0xbd210d33	-0.03931923
146	0x3d3fbaa5	0.046808857
147	0xbd38aba0	-0.04508555
148	0x3cfbdfe2	0.030746404
149	0x3bfe31c0	0.0077573955
150	0x3d22396d	0.039605547
151	0x3d21f437	0.039539542
152	0xbcdf497c	-0.02725672
153	0x3d32a7c6	0.043617032
154	0x3b56b35a	0.003276071
155	0xbcb36c29	-0.02190216
156	0xbd3c4f65	-0.045974154
157	0x3c387840	0.011259139
158	0xbcc47903	-0.023983484
159	0x3c83180f	0.016002683
160	0xbc84743c	-0.016168706
161	0xbca9dd72	-0.020735476
162	0x3c129497	0.008946559
163	0xba9d177f	-0.0011985152
164	0x3d1bb8ec	0.038018152
165	0xbd2ef1a9	-0.042710934
166	0xbd1ce219	-0.03830156
167	0x3c982d79	0.01857637
168	0x381e7e65	3.778785e-05
169	0xbd2e238e	-0.042514376
170	0xbd24ba55	-0.040216763
171	0xbc82c5d7	-0.015963478
172	0x3ce124d3	0.02748338
173	0xbd08ee0e	-0.03343015
174	0xbcc73734	-0.024318315
175	0x3cb29e31	0.021803947
176	0x3d06ca99	0.032908056
177	0x3be05b24	0.0068468023
178	0x3b7c688e	0.0038514468
179	0xbcfed7a7	-0.03110869
180	0x3bd59575	0.006518061
181	0xbc040d45	-0.008059804
182	0x3c403d3b	0.0117333485
183	0xbcb136ac	-0.021632515
184	0x3c88241d	0.016618783
185	0x3cb3cfa9	0.021949606
186	0xbc4a120c	-0.012333404
187	0xbc9dc93d	-0.019260997
188	0xbc62de5e	-0.013846962
189	0xbd0344dd	-0.032048095
190	0xbcdb7340	-0.026788354
191	0xbd014f75	-0.031569917
192	0x3d1e45e5	0.038640875
193	0xbcaaf537	-0.02086888
194	0x3c6dc510	0.014512315
195	0xbd11a92b	-0.03556172
196	0xbd173505	-0.036915798
197	0x3cc6c2be	0.024262782
198	0xbb9968af	-0.0046816687
199	0xbd2e3655	-0.042532284
200	0xbd11da6d	-0.035608698
201	0xbca29a76	-0.019849043
202	0xbcf4d9af	-0.029888956
203	0x3d16554b	0.036702435
204	0xbb03b1a0	-0.0020094886
205	0xbcb84935	-0.022495845
206	0xbcd57ee9	-0.026061492
207	0xbcbc1604	-0.022959717
208	0x3cf2e269	0.029648976
209	0xbd350d31	-0.044202033
210	0xbc69e688	-0.014276154
211	0x3d3f63ac	0.046725914
212	0x3c09b0ce	0.00840397
213	0x3c9872f8	0.018609509
214	0x3bfd26a2	0.0077255527
215	0x3c844b00	0.016149044
216	0xbc4738d8	-0.012159549
217	0xbc337ec6	-0.010955518
218	0xbd1bd583	-0.038045418
219	0xbd1d6b3a	-0.038432337
220	0x3d348c39	0.04407904
221	0x3cc75c06	0.024335872
222	0x3ce67220	0.02813059
223	0x3cd51cc7	0.026014699
224	0x3cded289	0.0272
225	0x3d26bbb7	0.040706363
226	0x3d315b04	0.04329969
227	0x3c8f428f	0.017487792
228	0x3cd49b0a	0.025952835
229	0xbd178f4a	-0.037001885
230	0xba44c914	-0.00075067696
231	0x3b3b8f1a	0.002861923
232	0x3c19fadc	0.009398188
233	0x3c3273b5	0.0108918445
234	0x3d25ec87	0.040508773
235	0xba03eb69	-0.0005032332
236	0x3d2caaad	0.042154957
237	0x39e260ef	0.000431783
238	0x3ceec95d	0.029148752
239	0x3cb55a80	0.02213788
240	0xbce71b66	-0.028211307
241	0xbd17456b	-0.036931437
242	0xbc2e18d1	-0.010626034
243	0xbcf060d9	-0.029343056
244	0xbd09c4b5	-0.03363486
245	0x3cbd2c47	0.023092402
246	0xbbaa3498	-0.005194258
247	0xbc007160	-0.007839531
248	0xba4a728a	-0.0007722756
249	0x3cdfa9df	0.02730268
250	0x3c982c9c	0.018575959
251	0xbce78880	-0.02826333
252	0xbbdfc412	-0.0068287933
253	0xbd3f15c4	-0.046651617
254	0x3c368cb5	0.011141946
255	0xbd36f422	-0.044666417

fc1.bias f4 [64]
0	0x3cde56b8	0.02714096
1	0xbd27330b	-0.040820163
2	0x3c8d8509	0.01727535
3	0x3d1f3521	0.038869027
4	0x3cced027	0.02524574
5	0xbce888dd	-0.028385574
6	0x3b679f10	0.0035342611
7	0x3c696cae	0.014247103
8	0xbd21307d	-0.039352883
9	0xbd25ae19	-0.040449236
10	0xbbb68fde	-0.0055713495
11	0x3cf5adcc	0.0299901
12	0xbce2b4e6	-0.02767415
13	0xbcd4c9ed	-0.025975192
14	0x3cf0d8b2	0.029400203
15	0xbc5be4a6	-0.013421213
16	0xbc422b35	-0.011851122
17	0x3d312d60	0.043256164
18	0xbc871185	-0.016487846
19	0xbcd839b2	-0.026394699
20	0xba402c9b	-0.00073308655
21	0x3d1541d4	0.03643973
22	0xbbf643de	-0.0075154146
23	0x3b932e61	0.004491613
24	0x3cd53132	0.026024435
25	0xbceef0ce	-0.029167559
26	0x3c9d318c	0.019188665
27	0x3bd7b71d	0.006583108
28	0x3b427072	0.0029669073
29	0xbbc952c4	-0.0061438996
30	0x3d302c11	0.043010775
31	0x3ce2ff89	0.02770974
32	0xbd2af125	-0.04173388
33	0x3cfb5368	0.03067942
34	0xbc0394cd	-0.008031082
35	0x3cf98471	0.03045866
36	0x3d2c899f	0.042123433
37	0x3d1d7047	0.038437154
38	0x3b268873	0.002541092
39	0x3c8f87c9	0.017520802
40	0xbd391754	-0.045188263
41	0xbbf00c34	-0.0073256735
42	0x3c8ca6ae	0.017169323
43	0xbbb26231	-0.0054438342
44	0xbcf90496	-0.030397695
45	0xbd06342b	-0.032764595
46	0x3bd6cb4e	0.0065549975
47	0xbc3134d2	-0.010815816
48	0x3cddc46d	0.027071202
49	0xbd0576f7	-0.032584157
50	0x3cd1111a	0.02552085
51	0x3cdf6e9e	0.027274426
52	0x3c3f5ad5	0.011679371
53	0xbc8d37a4	-0.017238446
54	0xbbfb05de	-0.0076606115
55	0xbc92559e	-0.017863091
56	0xbc46d68d	-0.012136114
57	0x3cc8bd9d	0.024504477
58	0xbd34a436	-0.044101916
59	0xbc1b3b32	-0.0094745625
60	0x3ccf33d2	0.025293265
61	0xbd252b16	-0.040324293
62	0x3cdc324d	0.026879454
63	0xbcb3ade1	-0.021933498

fc2.weight f4 [64, 64]
0	0xbdfc4748	-0.12318283
1	0x3e99225d	0.2990903
2	0x3dc59d5a	0.09649153
3	0xbd025b7c	-0.031825528
4	0xbddf53ee	-0.1090468
5	0xbd586439	-0.052829955
6	0x3db95992	0.09050287
7	0x3ca8fd90	0.02062872
8	0x3dc9e859	0.0985877
9	0x3cb0aa88	0.02156569
10	0x3cb25b00	0.021771908
11	0xbd40e59b	-0.04709397
12	0xbd6482e0	-0.055788875
13	0x3da070c9	0.07834012
14	0x3e72c61b	0.23708384
15	0x3e9083ac	0.28225458
16	0x3c2f8d80	0.010714889
17	0xbde03438	-0.1094746
18	0xbdbed46c	-0.0931786
19	0xbdc50eac	-0.09621939
20	0x3e8bb0bd	0.27283278
21	0x3e0f7a80	0.14011574
22	0x3d30ec2a	0.043193974
23	0xbd596354	-0.053073242
24	0x3cc12c20	0.02358061
25	0x3d92e4c2	0.07172538
26	0x3cce6c78	0.025198206
27	0x3d2d1cb0	0.042263687
28	0x3dd499a4	0.10380867
29	0xbdb8685b	-0.09004279
30	0x3dfe08c2	0.12404014
31	0xbdd693da	-0.10477419
32	0x3e35563c	0.17708677
33	0x3e2a9dd2	0.16661766
34	0x3e8a21e3	0.2697898
35	0x3daf8b22	0.08571459
36	0x3d2d3a74	0.042292073
37	0x3cda2490	0.026628762
38	0xbde4c8d2	-0.11171116
39	0xbd28464c	-0.041082665
40	0x3d12b8c8	0.035820752
41	0x3e9da38c	0.3078884
42	0x3e526f05	0.20550163
43	0x3d629a08	0.055322677
44	0x3bf7a299	0.007557225
45	0x3e9562c5	0.29176918
46	0x3e401a5c	0.18760055
47	0xbdf7e660	-0.121044874
48	0x3e9724ae	0.29520172
49	0x3e1b443e	0.15162751
50	0x3e802c02	0.25033575
51	0xbde74b90	-0.11293709
52	0x3d80f0be	0.06295918
53	0x3c7eb7b0	0.015546724
54	0x3e6dbbde	0.23216197
55	0xbdf5c566	-0.120005414
56	0x3e6dceda	0.23223439
57	0x3dfaad3b	0.12240072
58	0x3d71ab86	0.059001468
59	0xbd893000	-0.066986084
60	0x3dd352d4	0.103185326
61	0x3e9d7cf7	0.30759403
62	0x3dd1950a	0.10233505
63	0x3e278bdc	0.16361946
64	0x3d9cc8d4	0.076554924
65	0x3e750ad3	0.2392991
66	0x3e5b24ee	0.21400806
67	0xbdf143d6	-0.11780517
68	0xbdda4bca	-0.10658987
69	0xbd3a5428	-0.045490414
70	0xbdb78e3e	-0.089626774
71	0x3ca339c0	0.019924998
72	0x3e1fed93	0.15617971
73	0x3cee7610	0.029109031
74	0x3dcb0b12	0.09914221
75	0xbcb2d0cc	-0.021828078
76	0x3d8af5a6	0.06785135
77	0x3e257fdf	0.1616206
78	0x3e85e6b0	0.26152563
79	0x3e8b1eb0	0.2717185
80	0x3d4e1dc8	0.05032137
81	0xbd108068	-0.035278708
82	0x3dee1cf4	0.11626616
83	0x3d3e6c80	0.046490192
84	0x3e23b78a	0.15987983
85	0x3ea09149	0.31360844
86	0xbc603619	-0.013684773
87	0x3bf3a7c0	0.007435769
88	0xbc331510	-0.010930315
89	0xbdd3881a	-0.10328694
90	0xbd31e5f0	-0.043432176
91	0x3dce9f3c	0.10088965
92	0x3dd976ce	0.10618363
93	0x3b7a5dc2	0.0038202857
94	0xbca48fc0	-0.020088077
95	0x3bfd7d5f	0.0077358927
96	0x3e076375	0.13221534
97	0x3e84aa3d	0.25911132
98	0x3e8353b2	0.25649792
99	0x3dab1d80	0.08355236
100	0xbcc18fd0	-0.023628145
101	0xbcabe0b8	-0.020981178
102	0xbd8b07b6	-0.0678858
103	0xbddc9b8a	-0.10771854
104	0xbd7615cc	-0.06007938
105	0x3e63a803	0.2223206
106	0x3e35e875	0.17764457
107	0x3dd3c774	0.10340777
108	0x3deb9ef5	0.11504928
109	0x3e74075c	0.23830932
110	0x3e8c041a	0.2734688
111	0xbd103b44	-0.03521277
112	0x3dda2206	0.10651021
113	0x3e0427aa	0.12905756
114	0x3dbb35c1	0.09141112
115	0xbd8c74e0	-0.0685823
116	0x3d7bdc98	0.06148967
117	0xbdcaef3c	-0.099089116
118	0x3defefd1	0.11715663
119	0xbc8d0f80	-0.017219305
120	0x3e9df091	0.308476
121	0x3e4edcb8	0.20201385
122	0x3c94bc30	0.018156141
123	0x3dec208c	0.11529645
124	0x3e070d01	0.13188554
125	0x3e900643	0.28129777
126	0x3d5bade8	0.053632647
127	0x3dcc1ced	0.09966455
128	0xbc7ddd20	-0.015494615
129	0x3e6f9f1e	0.23400542
130	0x3e978405	0.2959291
131	0x3d93a786	0.07209687
132	0xbd219200	-0.039445877
133	0xbd1124d8	-0.035435528
134	0xbdc037d8	-0.09385651
135	0xbd8508da	-0.06495829
136	0x3e9caaac	0.30598962
137	0x3ccd2d60	0.02504605
138	0x3cfd2ed0	0.030906111
139	0x3dca043e	0.098640904
140	0xbcb2aa20	-0.021809638
141	0x3da11bf1	0.078666575
142	0x3dad920e	0.08475123
143	0x3ea16acc	0.31526792
144	0xbd1fa160	-0.03897226
145	0x3d946a3c	0.07246825
146	0x3c0d2c50	0.008616522
147	0x3deefe2c	0.11669573
148	0x3da3d5fc	0.07999799
149	0x3e6043cf	0.21900867
150	0x3d795a29	0.060877
151	0xbdc797ba	-0.097457364
152	0xbda2709a	-0.07931633
153	0x3d321048	0.04347256
154	0x3d9d9dea	0.07696135
155	0x3db43de8	0.0880087
156	0xbd372e8c	-0.044722125
157	0xbd0c1859	-0.034202907
158	0xbd9f544c	-0.0777975
159	0xbdd0a1ae	-0.10187088
160	0x3e28d84d	0.16488762
161	0x3df7e45e	0.121041045
162	0x3e11447d	0.14186282
163	0x3db0602c	0.08612093
164	0x3dbfa728	0.093580544
165	0x3d0af588	0.033925563
166	0x3dd179a0	0.10228276
167	0xbd9360f4	-0.07196227
168	0x3dd14412	0.102180615
169	0x3e173c3f	0.14769076
170	0x3ea0f560	0.31437206
171	0xbd09e000	-0.03366089
172	0xbcecd7d6	-0.028911512
173	0x3d9804df	0.07422804
174	0x3e7cd560	0.24690771
175	0x3de5538a	0.111975744
176	0x3e8994c7	0.2687132
177	0x3e8b9263	0.27260122
178	0x3e56a209	0.20960249
179	0x3d6a43e0	0.057193637
180	0xbd58857c	-0.052861676
181	0x3dbdd26a	0.09268649
182	0x3de585d5	0.11207167
183	0xbcf2f960	-0.029659927
184	0x3e9c835c	0.3056897
185	0x3e50876a	0.20364156
186	0xbcb05ea1	-0.021529498
187	0x3dc41c12	0.095756665
188	0x3e5bf9ae	0.21481964
189	0x3e56dfbf	0.2098379
190	0x3dbf3264	0.09335783
191	0x3e3a3669	0.18184818
192	0xbde8d04a	-0.11367853
193	0x3e93a883	0.28839502
194	0x3e5f2c7c	0.21794313
195	0x3cc7f478	0.024408564
196	0xbd7c5ed8	-0.061613888
197	0x3d036362	0.0320772
198	0xbd25ec58	-0.040508598
199	0x3d6e5768	0.058188826
200	0x3e82c5d2	0.2554155
201	0x3d9d1ec8	0.07671887
202	0xbbac9400	-0.0052666664
203	0x3d9c32a9	0.0762685
204	0x3dade7ac	0.084914535
205	0x3df53d57	0.1197459
206	0x3e8c142c	0.2735914
207	0x3e8caf99	0.2747772
208	0xbd4ab7d8	-0.049491733
209	0xbd32d764	-0.043662444
210	0x3cd1b828	0.025600508
211	0x3c00cc10	0.007861152
212	0x3d482b82	0.048869617
213	0x3e91bb02	0.28462988
214	0xbc0f87e2	-0.008760424
215	0x3df0b14a	0.11752565
216	0x3d4850f4	0.048905328
217	0x3dff8c96	0.124779865
218	0x3b7ccc80	0.003857404
219	0x3de3ff9a	0.111327365
220	0x3d87fc98	0.06639975
221	0xbaf7d838	-0.0018909043
222	0x3d149320	0.03627312
223	0xbd30cf8b	-0.04316668
224	0x3e3c967a	0.18416777
225	0x3e8271a8	0.25477338
226	0x3e8aeaff	0.27132413
227	0x3d8ae52e	0.06781994
228	0xbd749eb0	-0.05972165
229	0xbd9a9bb6	-0.07549231
230	0x3cc07608	0.023493782
231	0xbd2da168	-0.042390257
232	0xbd8b8ec2	-0.06814338
233	0x3e813335	0.2523438
234	0x3dab0146	0.08349852
235	0x3cc84118	0.024445102
236	0xbc331173	-0.010929453
237	0x3e92cbb0	0.28671026
238	0x3dd0a47c	0.10187623
239	0x3d79028c	0.060793445
240	0x3e7be7a1	0.24600078
241	0x3df4e503	0.11957743
242	0x3e898212	0.26857048
243	0xbd7528e8	-0.059853464
244	0xbdb6858a	-0.08912189
245	0xbd43d34c	-0.04780893
246	0x3e774513	0.24147443
247	0x3d60df4c	0.054900452
248	0x3e8d3e01	0.27586368
249	0x3e84d9d4	0.2594744
250	0xbd460071	-0.048340265
251	0x3dbed8b4	0.093186766
252	0x3e0b2c55	0.1359113
253	0x3dc1b65e	0.09458612
254	0xbce52230	-0.027970403
255	0x3e9252c1	0.2857876

fc2.bias f4 [64]
0	0x3e1176a9	0.14205422
1	0x3ea21d1d	0.31662837
2	0x3e157249	0.14594378
3	0x3d642c6d	0.05570643
4	0x3e786847	0.24258529
5	0x3e4127aa	0.18862787
6	0x3e3a2256	0.1817716
7	0x3e119d11	0.14220072
8	0x3e700c88	0.2344228
9	0x3e4d1708	0.20028317
10	0x3dc93e97	0.09826391
11	0x3e63a134	0.22229463
12	0x3e583223	0.21112876
13	0x3e8e323c	0.277727
14	0x3e3ecf99	0.1863388
15	0x3db21b62	0.08696629
16	0x3c0d45bf	0.008622586
17	0x3e94f9f1	0.2909694
18	0x3e4c4502	0.199482
19	0x3e35c941	0.17752554
20	0x3e2b8a2c	0.16751927
21	0x3e175171	0.14777161
22	0x3dd8b8f2	0.105821505
23	0x3e851201	0.25990298
24	0x3e861beb	0.26193175
25	0x3e1b1fad	0.15148802
26	0x3e565d88	0.20934117
27	0x3e9d729f	0.3075151
28	0x3e9e5237	0.309221
29	0x3db45bee	0.08806597
30	0x3e94e3a5	0.2907993
31	0x3e5a6da2	0.21330884
32	0x3e89b89e	0.26898664
33	0x3e9689f3	0.29402122
34	0x3e297ea5	0.16552217
35	0x3e818b0c	0.25301397
36	0x3de9d926	0.11418371
37	0x3df1f5e3	0.11814477
38	0x3dc43138	0.095797
39	0x3e87e53e	0.26542085
40	0xbc57e1cf	-0.013176396
41	0x3e8733c0	0.2640667
42	0x3e674f1d	0.22588773
43	0x3e6fccb9	0.23417939
44	0x3e9585e6	0.2920372
45	0x3e8eca4e	0.2788872
46	0x3ea60957	0.32429
47	0x3e1a94d9	0.15095843
48	0x3e4095b9	0.18807115
49	0x3d9659cd	0.07341347
50	0x3ddefef7	0.108884744
51	0x3da17ee7	0.07885533
52	0x3e5c6013	0.21521024
53	0x3db8ae12	0.09017576
54	0x3e552704	0.20815665
55	0x3dc024a0	0.09381986
56	0x3e6e781c	0.23288006
57	0x3e3b3568	0.18282092
58	0x3e2bc69f	0.16774987
59	0x3dd15e5c	0.10223076
60	0x3e87fe83	0.26561365
61	0x3e38b6a2	0.18038419
62	0x3e65182d	0.22372504
63	0x3df6c9a7	0.12050181

fc3.weight f4 [24, 64]
0	0x3e304ee0	0.17217588
1	0x3deb2315	0.11481301
2	0x3e7349fa	0.23758689
3	0x3e38c35c	0.18043274
4	0x3e3e7226	0.18598232
5	0x3db95114	0.090486676
6	0x3e880ffa	0.2657469
7	0x3e171119	0.14752616
8	0x3e15a237	0.14612661
9	0x3e8f5607	0.2799532
10	0x3d92cee0	0.071683645
11	0x3e883b23	0.26607618
12	0x3d98d786	0.07462983
13	0x3cd3a39e	0.025834855
14	0x3d26966b	0.040670794
15	0x3e06eb5c	0.1317572
16	0x3da51498	0.080605686
17	0x3bf9ecf9	0.0076271263
18	0x3e00677f	0.1253948
19	0x3e41088b	0.18850915
20	0x3e85ba53	0.26118717
21	0x3e151aaa	0.14560953
22	0x3dc10440	0.09424639
23	0x3e491166	0.19635543
24	0x3e36fad9	0.17869128
25	0x3e39b2a9	0.1813456
26	0x3e4a5f67	0.19762956
27	0x3e0c7fb7	0.13720594
28	0x3dd1cfb6	0.10244696
29	0x3ccf1fc0	0.025283694
30	0x3dfe83ae	0.1242746
31	0x3e1e2439	0.15443505
32	0x3e764c44	0.2405253
33	0x3d018da4	0.03162922
34	0x3d089117	0.033341493
35	0x3d3bf2ba	0.04588578
36	0x3e6904f2	0.22755793
37	0x3d8591a3	0.065219186
38	0x3e33c145	0.17554195
39	0x3e73679a	0.2376999
40	0x3d4d51ad	0.05012672
41	0x3daf8a04	0.08571246
42	0x3e46a889	0.19400229
43	0x3e77b5d3	0.24190454
44	0x3e1f2387	0.15540896
45	0x3e3efda2	0.1865144
46	0x3d3e11e6	0.046403788
47	0x3e70a7f1	0.23501565
48	0x3e0375c0	0.12837887
49	0x3d2ffda9	0.04296652
50	0x3e7d8963	0.2475944
51	0x3cc04e0b	0.023474714
52	0x3c940086	0.018066656
53	0x3e66e908	0.22549832
54	0x3e343926	0.17599925
55	0x3e2d789a	0.16940537
56	0x3e68ca64	0.22733456
57	0x3e87adfd	0.2649993
58	0x3e397b15	0.18113358
59	0x3dcb7122	0.09933688
60	0x3e3cd2d6	0.18439803
61	0x3d020686	0.031744502
62	0x3d6c4860	0.05768621
63	0x3d150561	0.036382083
64	0x3e585224	0.21125084
65	0x3e1a69e8	0.15079463
66	0x3e2d15e7	0.16902886
67	0x3c5a2b41	0.013315977
68	0x3e51ccc9	0.20488276
69	0x3c28a79b	0.0102938665
70	0x3d96e29c	0.07367441
71	0x3d3042d7	0.043032493
72	0x3e6b9638	0.23006523
73	0x3df700bf	0.12060689
74	0x3e544a66	0.20731506
75	0x3e5badc6	0.21453008
76	0x3b6bd215	0.0035983373
77	0xbbf4eda3	-0.0074746176
78	0x3e041a75	0.12900718
79	0x3d4284e4	0.047490016
80	0x3e54626e	0.20740673
81	0x3d4e5d6a	0.050382055
82	0x3e52bb0f	0.2057917
83	0x3e261002	0.16217044
84	0x3dabd167	0.0838955
85	0x3df1a157	0.11798351
86	0x3d7e968f	0.062155303
87	0x3d67c5e8	0.056585222
88	0x3dd72369	0.10504801
89	0x3d9a0f59	0.075224586
90	0x3e06a997	0.13150631
91	0x3e55a5f0	0.20864081
92	0x3e3818f3	0.17978267
93	0x3e4fc789	0.2029096
94	0x3e028266	0.12745056
95	0x3ba10256	0.0049136085
96	0xbb2c1434	-0.002625716
97	0x3e5d88ec	0.21634263
98	0x3dc413ee	0.09574114
99	0x3cbf6cfd	0.0233674
100	0x3dca79a3	0.098864816
101	0x3a4ad850	0.00077379216
102	0x3e23c801	0.15994264
103	0x3db31473	0.08744135
104	0x3e1e94df	0.15486477
105	0x3e4964cc	0.19667357
106	0x3c52bc21	0.012862236
107	0x3de7dfd5	0.113219894
108	0x3e6bcc5d	0.23027177
109	0x3dffd0bb	0.12490984
110	0x3d768dc3	0.06019379
111	0x3e633206	0.22187051
112	0x3e5fd72a	0.21859422
113	0x3db1f1d4	0.08688703
114	0x3ddf38ab	0.108994804
115	0x3e45bea7	0.1931101
116	0x3e3317fa	0.17489615
117	0x3da9668a	0.08271511
118	0x3e28057b	0.1640834
119	0x3d9b23aa	0.07575162
120	0x3c92d415	0.017923394
121	0x3e078ab6	0.13236508
122	0x3c430d06	0.0119049605
123	0x3c73ae84	0.014873151
124	0x3deaa25a	0.11456747
125	0x3e2cf0d1	0.16888739
126	0x3e1bc8c8	0.1521331
127	0x3e190c7c	0.14946169
128	0x3ea193a9	0.31557968
129	0x3e896620	0.26835728
130	0x3eaab27d	0.333393
131	0x3da9ce75	0.08291332
132	0x3e9a4969	0.30134133
133	0x3e4e1fc5	0.20129307
134	0x3ea75090	0.32678652
135	0x3e99a129	0.30005768
136	0x3df3b127	0.118990235
137	0x3e030ecb	0.12798612
138	0x3e8fd2c0	0.28090477
139	0x3e526d71	0.20549561
140	0x3e63d8ba	0.22250643
141	0x3e7ec6d0	0.24880528
142	0x3e899c16	0.26876897
143	0x3e13c15c	0.1442923
144	0x3e7c2d0b	0.24626558
145	0x3dd4397f	0.10362529
146	0x3e9a32d1	0.30116895
147	0x3e59f451	0.21284606
148	0x3ea4cff1	0.32189897
149	0x3e1d8143	0.1538134
150	0x3e11f766	0.14254531
151	0x3e6ae95d	0.22940584
152	0x3e830f03	0.2559739
153	0x3e449dc6	0.19200811
154	0x3da70529	0.08155281
155	0x3df43122	0.11923434
156	0x3e96925a	0.29408532
157	0x3e9f75e8	0.31144643
158	0x3eb21486	0.34781283
159	0x3ea4543c	0.32095516
160	0x3e64c9f0	0.22342658
161	0x3e72bc71	0.23704697
162	0x3e5d6170	0.216192
163	0x3e91a579	0.28446558
164	0x3e5dcec6	0.21660909
165	0x3e73060e	0.23732778
166	0x3e765789	0.2405683
167	0x3e9d2d60	0.3069868
168	0x3e0dd4c0	0.13850689
169	0x3e03415f	0.12817906
170	0x3e524c56	0.20536932
171	0x3dbc9094	0.092072636
172	0x3e9fa6a8	0.31181836
173	0x3e6712cb	0.22565763
174	0x3e4a9b01	0.19785692
175	0x3e3d99a5	0.18515642
176	0x3e94203e	0.2893085
177	0x3e591107	0.21197902
178	0x3e86f7fe	0.26361078
179	0x3ea9748a	0.33096725
180	0x3db54720	0.08851457
181	0x3e2f1ae5	0.17100103
182	0x3e44c66e	0.1921632
183	0x3e501cf1	0.2032354
184	0x3e891a65	0.2677795
185	0x3e4c1370	0.1992929
186	0x3e9bfc69	0.3046601
187	0x3e094b45	0.1340762
188	0x3e7636a1	0.24044277
189	0x3e0de327	0.13856183
190	0x3e72732c	0.23676747
191	0x3e698e7d	0.22808261
192	0x3dfee3d9	0.12445802
193	0xbda60337	-0.08106082
194	0xbbfe29a0	-0.007756427
195	0x3e06e78b	0.13174264
196	0xbd63ce6e	-0.05561679
197	0xbd9dda68	-0.07707673
198	0x3e0f3ee0	0.13988829
199	0xbdd4e571	-0.10395325
200	0x3d4c2fc4	0.04985024
201	0xbdd35020	-0.10318017
202	0x3e044912	0.12918499
203	0xbd216224	-0.039400235
204	0x3c697c66	0.01425085
205	0x3dac792d	0.0842155
206	0x3dd9f1fc	0.10641858
207	0xbd8c6173	-0.068545245
208	0xbb62e8f6	-0.0034623719
209	0x3e0f80b1	0.14013936
210	0xbdc9c2b4	-0.0985159
211	0x3dcc99a4	0.09990242
212	0xbd7bf993	-0.06151731
213	0xbda95975	-0.08269016
214	0xbbc9217b	-0.0061380244
215	0x3da7f60f	0.08201229
216	0xbced10d0	-0.02893868
217	0xbced2911	-0.028950246
218	0x3cc2d87d	0.02378487
219	0xbd84d24b	-0.06485423
220	0xbd0440c2	-0.03228832
221	0xbd9f6d24	-0.07784489
222	0xbdb4a61c	-0.08820745
223	0x3d0a85f7	0.033819165
224	0x3d9134fc	0.07090184
225	0xbd9e4f33	-0.0772995
226	0xbdcc4a1f	-0.09975075
227	0x3cd6d4ee	0.02622458
228	0xbdc3b98f	-0.09556877
229	0xbdaa32e7	-0.0831049
230	0x3dbb3e22	0.0914271
231	0xbd3ccf25	-0.046095986
232	0xbdd86d9d	-0.10567782
233	0xbdbd2dbb	-0.09237238
234	0x3de1c22e	0.11023365
235	0x3df19adb	0.117971145
236	0xbdada2ef	-0.08478343
237	0xbb227995	-0.0024791707
238	0x3d9036de	0.07041715
239	0xbdccc800	-0.099990845
240	0x3bf65932	0.007517957
241	0x3dac6e3e	0.084194645
242	0xbc4562a0	-0.01204744
243	0x3de5c024	0.112182885
244	0x3dbb19a3	0.09135749
245	0x3dc3915c	0.095492095
246	0x3d3a677f	0.045508858
247	0x3dbed23e	0.09317444
248	0x3d234c72	0.039867826
249	0x3df41ca0	0.11919522
250	0x3daca6be	0.08430241
251	0x3d02e922	0.031960614
252	0xbcb8f94e	-0.022579815
253	0xbc7a04b2	-0.0152599085
254	0xbdba0d01	-0.090845115
255	0x3d9b9c1e	0.07598136

fc3.bias f4 [24]
0	0x3d93da68	0.07219392
1	0x3e0e8729	0.13918747
2	0x3e45a3a4	0.19300705
3	0x3d967aa7	0.07347613
4	0x3a32b8ca	0.0006817697
5	0x3c0973ee	0.008389456
6	0x3d9452b7	0.07242339
7	0x3e332c88	0.17497456
8	0x3e0fdeda	0.14049855
9	0xbbc9b7ee	-0.0061559593
10	0x3e1e581d	0.154633
11	0x3db3bcab	0.0877622
12	0xbbf03faf	-0.0073318104
13	0x3e17f006	0.14837655
14	0x3d1d6cb7	0.038433757
15	0x3e3e4f15	0.18584855
16	0xbcbb039a	-0.022828866
17	0x3cb3bf51	0.021941813
18	0x3e56b32e	0.20966789
19	0xbceb31e7	-0.028710319
20	0x3e3c04e4	0.1836124
21	0x3c24279d	0.01001921
22	0x3df615bf	0.120158665
23	0x3de19015	0.110138096
