model_weights/weather_weights/model_weather_MSE.pt (torch, 142636 bytes, 6 tensors)

fc1.weight f4 [64, 456]
-0.11960454 -0.026963193 -0.052859884 -0.04390458 0.018612465 -0.060518604 0.03178092 -0.023445908
0.03349157 -0.02380477 -0.044767853 0.089266196 -0.048151914 -0.0090535795 -0.08309399 0.024704048
-0.031838134 0.022266217 -0.018959628 -0.08381334 -0.019677062 0.033287268 -0.032775156 -0.07267729
0.0057726246 -0.00012618372 0.0067165103 -0.04520175 -0.042989507 -0.058911957 0.017515125 0.0045419773
0.032200027 -0.0075969263 0.007174938 -0.009089141 -0.016316975 -0.02123207 -0.09961593 0.049866214
0.050717402 -0.010826411 -0.041049566 -0.04229106 0.00019552631 -0.010989037 -0.03608783 -0.032713987
-0.060221378 0.0840433 -0.08146882 -0.0088723665 -0.01939398 -0.025287107 -0.009866159 0.042006303
-0.029250173 -0.02877608 -0.009069643 0.028599063 -0.010942597 -0.10083759 -0.025825908 -0.042266026
0.0065740524 0.01806293 0.044978302 -0.025674859 0.0368596 -0.08837656 0.021866485 -0.052981827
-0.030212617 0.012815926 0.03049564 0.03529883 -0.012330384 0.03721102 0.0540828 -0.025500163
-0.10265535 0.024841607 0.043228697 0.0048703337 -0.028737541 -0.03414937 -0.026908856 -0.025991887
-0.09459962 0.03032227 -0.082988806 0.05181026 -0.020510044 -0.019276468 0.035942163 -0.008829248
0.058999624 0.026990177 -0.0022020957 -0.04264081 0.034638852 0.02321953 -0.031879775 -0.009160575
0.008333924 -0.03813371 -0.03158153 -0.08360475 0.038924806 -0.051315878 -0.00759696 0.018269543
-0.008180559 0.03103372 -0.01659333 0.07471996 0.031201925 -0.02641937 -0.035065413 -0.018910065
-0.034244407 0.023538781 -0.02455437 0.043240502 -0.002077412 0.030591425 -0.01045295 0.012299402
-0.07860987 0.014948776 -0.011312284 0.0090073915 -0.03390045 -0.02222723 0.042149108 -0.005834208
0.041199178 -0.030068358 0.03960868 -0.032016832 0.011050472 -0.0038674327 0.034584492 -0.03618008
-0.027305102 -0.014865571 0.017780082 -0.083086275 0.031524632 0.028251922 -0.012342994 -0.05883221
-0.06715343 0.04058533 -0.00045820492 0.019461919 0.006370405 -0.017232984 -0.0316985 -0.027310597
0.0043194313 0.014019733 -0.07235178 -0.036039036 -0.06853463 0.037006177 -0.03173709 -0.023748038
-0.028881125 -0.025245264 0.017945569 -0.044872794 0.058365315 0.01756398 -0.010421416 -0.050673675
0.034770343 0.014913651 -0.019342447 0.036325056 0.029159013 0.00034355163 -0.018982435 -0.030331336
0.023813784 -0.07723504 0.06510558 0.011990419 -0.015437723 -0.05894039 -0.0135520445 -0.0022344545
-0.014228936 -0.032084398 -0.04815441 0.041343033 0.030783756 0.030388813 -0.014639616 0.014139756
0.00042004284 -0.008281582 0.026714541 0.006261872 -0.05471189 0.023554835 -0.026705483 0.0048863064
-0.052229375 -0.0120974975 0.046093043 0.040858336 0.038465194 -0.015327004 -0.030291418 -0.03414913
-0.002413197 -0.041588545 0.005805328 -0.046459045 -0.03565008 0.045090314 0.026327327 -0.049769625
0.0069790944 0.03520549 0.0587292 -0.00402743 -0.008194816 0.002859811 -0.017606443 -0.018866327
-0.011604045 -0.0045835264 0.0062262937 -0.026644466 0.016196512 -0.037132103 -0.048513785 -0.08591175
-0.01547272 -0.033324767 -0.037026156 0.0394811 -0.0013941142 0.02663284 0.021881606 -0.031495422
-0.01763037 0.033301484 0.048258107 0.05504099 -0.007414681 0.006999494 -0.009176037 0.011907986
00000000: 3af3 f4bd eae1 dcbc 9b83 58bd 4ad5 33bd
00000010: 2b79 983c 5be2 77bd b62c 023d a211 c0bc
00000020: 752e 093d 3902 c3bc 7f5e 37bd 32d1 b63d
00000030: f13a 45bd 7755 14bc 2f2d aabd 2560 ca3c
00000040: b468 02bd a467 b63c 3951 9bbc 54a6 abbd
00000050: ca31 a1bc 3b58 083d 3e3f 06bd d5d7 94bd
00000060: 4928 bd3b 2f50 04b9 2c16 dc3b 7825 39bd
00000070: c415 30bd aa4d 71bd e17b 8f3c ded4 943b
00000080: 2de4 033d a3ef f8bb be1b eb3b 9fea 14bc
00000090: 2dab 85bc e1ee adbc 7003 ccbd 8440 4c3d
000000a0: 0dbd 4f3d 4261 31bc 9723 28bd 6439 2dbd
000000b0: 3206 4d39 5d0b 34bc d5d0 13bd 1aff 05bd
000000c0: b1aa 76bd e51e ac3d 20d9 a6bd 675d 11bc
000000d0: 20e0 9ebc e826 cfbc aca5 21bc cd0e 2c3d
000000e0: 0f9e efbc d0bb ebbc d798 14bc 9548 ea3c
000000f0: 9448 33bc f083 cebd db90 d3bc 241f 2dbd
00000100: 266b d73b b6f8 933c 2b3b 383d 1554 d2bc
00000110: 18fa 163d c5fe b4bd 5821 b33c 7903 59bd
00000120: 7380 f7bc e4f9 513c fed1 f93c 8295 103d
00000130: 6105 4abc 956a 183d ed85 5d3d b8e5 d0bc
00000140: f83c d2bd a080 cb3c 9310 313d 5297 9f3b
00000150: fe6a ebbc 36e0 0bbd f66f dcbc f0ec d4bc
00000160: 72bd c1bd 6966 f83c 09f6 a9bd ff36 543d
00000170: ae04 a8bc afe9 9dbc 1738 133d 8da8 10bc
00000180: 97a9 713d 811a dd3c 0951 10bb 21a8 2ebd
00000190: 78e1 0d3d e236 be3c 5e94 02bd 3d16 16bc
000001a0: 038b 083c 1832 1cbd a25b 01bd f838 abbd
000001b0: 9e6f 1f3d 9930 52bd ebef f8bb 02aa 953c
000001c0: c007 06bc 6e3a fe3c bcee 87bc c706 993d
000001d0: 2e9b ff3c 6f6d d8bc c0a0 0fbd 48e9 9abc
000001e0: dd43 0cbd 67d4 c03c 3f26 c9bc f41c 313d
000001f0: 3125 08bb de9a fa3c da42 2bbc 6e83 493c
00000200: 36fe a0bd b6eb 743c 2857 39bc bd93 133c
00000210: 33db 0abd e115 b6bc 8ba4 2c3d e22c bfbb
00000220: 78c0 283d eb51 f6bc b63c 223d 1524 03bd
00000230: 0a0d 353c c174 7dbb 78a8 0d3d 9031 14bd
00000240: f3ae dfbc b98e 73bc 89a7 913c 2329 aabd
00000250: f91f 013d 9370 e73c 453a 4abc 0bfa 70bd
00000260: bd87 89bd ce3c 263d 393b f0b9 9a6e 9f3c
00000270: d5be d03b 302c 8dbc 49d6 01bd 79ba dfbc
00000280: 048a 8d3b 06b3 653c 2c2d 94bd ab9d 13bd
00000290: e25b 8cbd ca93 173d c0fe 01bd 3f8b c2bc
000002a0: 1c98 ecbc 28cf cebc 9602 933c 89cc 37bd
000002b0: 7810 6f3d 56e2 8f3c 96be 2abc 338f 4fbd
000002c0: 596b 0e3d 6358 743c 0d74 9ebc 95c9 143d
000002d0: e2de ee3c b81e b439 0d81 9bbc 6c79 f8bc
000002e0: 2015 c33c 682d 9ebd 1356 853d 7673 443c
000002f0: 81ee 7cbc 7a6b 71bd 6509 5ebc ed6f 12bb
00000300: 7c20 69bc ee6a 03bd 8f3d 45bd 5057 293d
00000310: 372e fc3c f6f1 f83c 00db 6fbc 6faa 673c
00000320: 3239 dc39 79af 07bc 74d8 da3c 6430 cd3b
00000330: 9319 60bd 12f6 c03c 75c5 dabc 4f1d a03b
00000340: 78ee 55bd 9534 46bc 0fcc 3c3d 125b 273d
00000350: ae8d 1d3d 1d1e 7bbc b525 f8bc f5df 0bbd
00000360: ba26 1ebb c058 2abd 9f3a be3b d74b 3ebd
00000370: d105 12bd 9fb0 383d 68ac d73c 3cdb 4bbd
00000380: e3b0 e43b a233 103d 088e 703d 88f8 83bb
00000390: 8d43 06bc ab6b 3b3b 633b 90bc 8e8d 9abc
000003a0: e41e 3ebc 6831 96bb f005 cc3b 7f45 dabc
000003b0: 8cae 843c d517 18bd 64b6 46bd 80f2 afbd
000003c0: 4b81 7dbc 8d7f 08bd bda8 17bd efb6 213d
000003d0: b6ba b6ba 1d2d da3c 0e41 b33c 5801 01bd
000003e0: 916d 90bc 2367 083d 4baa 453d a972 613d
000003f0: daf6 f2bb 035c e53b 1757 16bc b719 433c

fc1.bias f4 [64]
0.15040977 -0.006163268 0.06336455 0.048896514 0.045606863 -0.18742763 -0.047983747 0.11256309
-0.28190964 0.047484294 0.24733843 0.027890097 0.039660927 -0.09363044 -0.02704102 0.09086001
0.067829065 0.08112794 0.13156733 -0.025949243 -0.13566422 -0.074502535 0.22063611 -0.16841596
0.074884795 0.009030733 0.0799601 -0.021318458 0.16511832 0.010030614 0.0750491 -0.07661612
0.06489313 0.08055986 -0.04458284 0.0052902317 -0.038747825 0.043606494 -0.13658215 -0.1327003
0.08214478 -0.08844874 -0.11329485 -0.1595544 -0.015587336 0.24640219 0.11359171 0.16255052
-0.035222445 0.025292812 -0.041691076 0.0902449 -0.057448883 0.027050734 0.00945658 -0.0720325
0.1789621 -0.0037089293 0.19542588 0.06806485 -0.0412129 -0.10969129 0.033415835 -0.14935613
00000000: 0505 1a3e 3df5 c9bb 46c5 813d b647 483d
00000010: 43ce 3a3d 07ed 3fbe 9b8a 44bd 7a87 e63d
00000020: 7656 90be e47e 423d 4946 7d3e c679 e43c
00000030: 7f73 223d 51c1 bfbd 2185 ddbc d014 ba3d
00000040: f7e9 8a3d 6826 a63d 96b9 063e 8293 d4bc
00000050: 90eb 0abe c994 98bd 6fee 613e 3c75 2cbe
00000060: 335d 993d a4f5 133c 1fc2 a33d 0ca4 aebc
00000070: c714 293e 7257 243c 58b3 993d eae8 9cbd
00000080: b0e6 843d 91fc a43d 7f9c 36bd ae59 ad3b
00000090: 0ab6 1ebd b99c 323d 31dc 0bbe 96e2 07be
000000a0: 863b a83d 9d24 b5bd 2107 e8bd 3b62 23be
000000b0: 0762 7fbc db50 7c3e c5a2 e83d a573 263e
000000c0: 6945 10bd df32 cf3c 43c4 2abd 51d2 b83d
000000d0: 854f 6bbd 8099 dd3c c5ef 1a3c c685 93bd
000000e0: d741 373e 8211 73bb b91d 483e 9665 8b3d
000000f0: dcce 28bd d4a5 e0bd 0bdf 083d d0f0 18be

fc2.weight f4 [64, 64]
0.0059057544 -0.08783818 -0.04400487 0.24273777 -0.17681955 0.09919885 0.276471 0.0003492446
0.11465713 0.26544252 0.19445944 -0.124536045 -0.07297301 0.043062612 0.19760792 -0.04845696
-0.09991643 -0.056787543 -0.0010180586 0.33444634 -0.095676854 0.1639234 0.04405812 -0.08588981
0.026061347 -0.13134131 -0.10931832 0.032047212 -0.0666285 0.094443604 0.1564578 0.21016356
0.15700203 -0.09303825 0.21484789 0.22696169 0.047616385 0.17329268 0.01074221 -0.037215043
0.08114589 -0.021558085 -0.10566853 -0.16424021 -0.074026674 0.12501149 -0.1435513 -0.02631613
-0.06215455 0.032763395 0.10287634 0.017702082 0.12573151 0.19395147 0.34925404 -0.045444883
-0.0051941033 -0.0029381742 -0.048031032 0.1885246 0.27381724 0.15513785 -0.119248584 0.042153265
-0.22416568 -0.195019 -0.17394717 0.081985354 -0.16320951 -0.020830961 0.028884435 -0.1098459
0.2470286 0.11577617 -0.24948569 -0.20206864 -0.1888912 0.16841638 0.08423237 -0.24246149
-0.06941905 -0.20913126 -0.2614031 0.10844065 -0.008428445 0.0030063614 -0.34716976 0.037825588
0.060183503 -0.1288788 -0.16264156 0.11282655 -0.33400825 -0.039978914 -0.02486445 0.08989507
0.015349809 -0.17089787 0.07981841 -0.10116157 0.07440789 0.01873358 -0.023482777 -0.017258467
-0.25524238 0.0042679915 0.07460293 0.051782288 0.10351601 -0.29124048 -0.05289102 -0.24285358
0.0466662 -0.05423499 0.10727389 -0.17445233 -0.03666398 0.005786783 0.14988242 0.11828404
-0.24709241 0.088827476 -0.27392736 0.11945312 0.16152231 0.00812585 -0.22555843 -0.005142699
0.14482868 0.14658062 0.12820296 -0.14077638 0.0013907849 -0.010051447 -0.16972439 -0.0050313086
-0.13653983 -0.2043995 -0.09732596 0.16400455 0.06460633 -0.038319767 -0.013534527 0.1664751
0.07489401 0.029372059 -0.020736452 0.017294971 -0.06481325 -0.12349364 -0.059416443 0.065324895
-0.17998856 -0.0052018296 0.18737161 0.08077341 0.14579226 -0.028131155 -0.07506107 -0.17365275
-0.21286358 0.16386889 -0.21677971 -0.06557244 -0.17248994 -0.07977403 -0.18078925 -0.111051805
0.041963328 0.081276074 -0.05920668 -0.08103518 -0.022755872 0.0549253 -0.06871865 0.13653807
-0.074653976 0.1896322 0.029244421 0.10143451 -0.1808555 -0.18063419 -0.06984753 0.003536761
0.17667027 -0.15018995 0.029038223 -0.21632859 -0.1440561 -0.0056538587 0.11286834 -0.12079959
-0.043093387 -0.17776096 -0.09042946 0.19474356 -0.12466666 0.029189209 0.23909889 -0.13815401
0.074895084 0.2967155 0.37785134 0.09356538 -0.09747178 -0.08596203 0.016945463 0.0883541
-0.043372452 -0.1254018 0.013152502 0.251803 0.05509776 0.010861118 0.19897215 -0.07453934
0.28743792 -0.17470852 0.02274753 -0.17520164 0.1038535 0.2767069 0.15418608 0.3899922
0.31145298 -0.19069909 0.4040951 0.24450655 0.39620396 0.1698777 0.06880147 0.0921102
0.31304365 -0.25713512 -0.2440317 -0.13964324 -0.060494483 0.010841695 0.030456087 -0.013334848
-0.06494432 -0.029248537 -0.008023909 -0.04326114 0.15036644 0.40723783 0.3439631 -0.059142932
-0.011462829 0.018300705 -0.0124943415 0.28361547 0.010434093 -0.021690525 -0.13137464 0.09050057
00000000: 0f85 c13b 81e4 b3bd 733e 34bd 4090 783e
00000010: 2f10 35be c428 cb3d 9b8d 8d3e d11a b739
00000020: 5bd1 ea3d 15e8 873e 6020 473e c10c ffbd
00000030: e072 95bd 6c62 303d bb59 4a3e ce7a 46bd
00000040: fca0 ccbd 0e9a 68bd 6170 85ba 8d3c ab3e
00000050: 3af2 c3bd 89db 273e 4a76 343d ffe6 afbd
00000060: 9b7e d53c 567e 06be 49e2 dfbd f043 033d
00000070: 8674 88bd a66b c13d 7936 203e 1e35 573e
00000080: 24c5 203e d78a bebd 1601 5c3e a568 683e
00000090: 6609 433d a373 313e 1800 303c cd6e 18bd
000000a0: d12f a63d 959a b0bc be68 d8bd 962e 28be
000000b0: 4c9b 97bd 0303 003e 1dff 12be ed94 d7bc
000000c0: c595 7ebd e932 063d d5b0 d23d f503 913c
000000d0: c3bf 003e 379b 463e 6dd1 b23e 6a24 3abd
000000e0: 4c33 aabb 628e 40bb 30bc 44bd 980c 413e
000000f0: c631 8c3e 75dc 1e3e 9a38 f4bd e7a8 2c3d
00000100: b08b 65be 10b3 47be 351f 32be f0e7 a73d
00000110: 6520 27be b1a5 aabc 0d9f ec3c e3f6 e0bd
00000120: 11f5 7c3e 0e1c ed3d 2d79 7fbe 15eb 4ebe
00000130: b26c 41be 5875 2c3e 0582 ac3d d347 78be
00000140: 932b 8ebd 8126 56be a1d6 85be 2216 de3d
00000150: 7617 0abc 6006 453b 3cc0 b1be 01ef 1a3d
00000160: fa82 763d cef8 03be 828b 26be 9b11 e73d
00000170: 2103 abbe eec0 23bd 88b0 cbbc e81a b83d
00000180: c47d 7b3c daff 2ebe d677 a33d cc2d cfbd
00000190: 2a63 983d 2a77 993c f45e c0bc a161 8dbc
000001a0: 21af 82be 82da 8b3b 6cc9 983d aa19 543d
000001b0: 3400 d43d 791d 95be 41a4 58bd 9cae 78be
000001c0: 0f25 3f3d 8225 5ebd 6ab2 db3d a2a3 32be
000001d0: f82c 16bd 0e9f bd3b c77a 193e e73e f23d
000001e0: cb05 7dbe 2eeb b53d 3540 8cbe d6a3 f43d
000001f0: 1b66 253e 4922 053c caf8 66be 1684 a8bb
00000200: f84d 143e 3b19 163e a347 033e af27 10be
00000210: ff4a b63a d3ae 24bc 3bcc 2dbe addd a4bb
00000220: 19d1 0bbe 1a4e 51be d552 c7bd cff0 273e
00000230: 5350 843d 30f5 1cbd ecbf 5dbc 7378 2a3e
00000240: 0862 993d ac9d f03c 7edf a9bc 2fae 8d3c
00000250: cfbc 84bd 3cea fcbd a85e 73bd 0fc9 853d
00000260: ec4e 38be 1c74 aabb 58de 3f3e 886c a53d
00000270: 914a 153e 4f73 e6bc 9eb9 99bd 07d2 31be
00000280: e9f8 59be 3fcd 273e 80fb 5dbe d84a 86bd
00000290: 34a1 30be 9160 a3bd d120 39be 216f e3bd
000002a0: bde1 2b3d 1274 a63d b482 72bd c6f5 a5bd
000002b0: 866a babc 5af9 603d 5dbc 8cbd a3d0 0b3e
000002c0: 2fe4 98bd f22e 423e ff91 ef3c e5bc cf3d
000002d0: 2f32 39be 2bf8 38be 390c 8fbd 01c9 673b
000002e0: 0de9 343e 65cb 19be 91e1 ed3c 3e85 5dbe
000002f0: 7183 13be 0144 b9bb 8427 e73d c765 f7bd
00000300: b182 30bd f806 36be 1533 b9bd db6a 473e
00000310: 3c51 ffbd 351e ef3c 57d6 743e 3f78 0dbe
00000320: 9862 993d 18eb 973e bb75 c13e 359f bf3d
00000330: 499f c7bd dc0c b0bd 36d1 8a3c fff2 b43d
00000340: 50a7 31bd 5469 00be 977d 573c 53ec 803e
00000350: 30ae 613d d5f2 313c 5bbf 4b3e 15a8 98bd
00000360: 102b 933e cae6 32be 0759 ba3c 0f68 33be
00000370: 25b1 d43d 87ac 8d3e f5e2 1d3e 0fad c73e
00000380: c476 9f3e 9f46 43be 8ee5 ce3e ed5f 7a3e
00000390: 3fdb ca3e 6bf4 2d3e c9e7 8c3d 46a4 bc3d
000003a0: 4247 a03e 37a7 83be 72e3 79be a3fe 0ebe
000003b0: 10c9 77bd 5da1 313c 0b7f f93c 687a 5abc
000003c0: 8701 85bd a19a efbc b776 03bc 9832 31bd
000003d0: a9f9 193e 7a81 d03e ee1b b03e dc3f 72bd
000003e0: 97ce 3bbc 5ceb 953c 11b5 4cbc 0c36 913e
000003f0: c2f3 2a3c 54b0 b1bc 1387 06be 5d58 b93d

fc2.bias f4 [64]
0.13210383 -0.10143402 0.045233652 0.031187028 -0.000921791 0.030418137 0.045847688 0.050872512
-0.034268133 0.1922333 -0.1125998 0.04479042 -0.020103958 -0.042599946 0.078176364 -0.10805817
-0.01842789 0.014882736 0.037324667 -0.09635438 0.020441225 -0.011405668 -0.14728346 0.14866222
-0.02394504 0.08761974 -0.04582632 -0.20929524 0.021592258 -0.0062210867 0.05566879 -0.10395689
0.09511466 -0.11288854 -0.13966145 -0.018727837 -0.08402359 0.14701876 -0.009751361 -0.17902486
-0.011376139 -0.06513626 0.10958649 0.039764084 0.022288445 -0.095067814 -0.021894585 -0.11924353
-0.15122569 -0.16644536 0.049407184 0.004170028 -0.13941269 -0.013110444 0.015046347 0.025672972
-0.038057547 0.010096053 0.06941069 0.121955045 -0.04755302 0.051120225 -0.09818556 0.14482224
00000000: 3a46 073e a4bc cfbd ec46 393d f07b ff3c
00000010: 59a4 71ba 752f f93c c9ca 3b3d b25f 503d
00000020: be5c 0cbd ced8 443e b99a e6bd 2976 373d
00000030: 0eb1 a4bc 487d 2ebd ee1a a03d 9a4d ddbd
00000040: 16f6 96bc b8d6 733c c0e1 183d 7255 c5bd
00000050: 5b74 a73c d7de 3abc 7ad1 16be e93a 183e
00000060: 6328 c4bc fa71 b33d 61b4 3bbd 7e51 56be
00000070: 3fe2 b03c 42da cbbb f504 643d 5ae7 d4bd
00000080: 7acb c23d 1b32 e7bd 6903 0fbe 1f6b 99bc
00000090: 8f14 acbd 168c 163e 2cc4 1fbc 4b52 37be
000000a0: fc62 3abc 2966 85bd e26e e03d aadf 223d
000000b0: 4296 b63c eab2 c2bd 465c b3bc f435 f4bd
000000c0: e8da 1abe a770 2abe 305f 4a3d bba4 883b
000000d0: 33c2 0ebe 30cd 56bc f484 763c 2050 d23c
000000e0: 3be2 1bbd ea69 253c 3127 8e3d 91c3 f93d
000000f0: f5c6 42bd 7163 513d 8315 c9bd 484c 143e

fc3.weight f4 [24, 64]
-0.12101825 -0.20721513 0.033190943 -0.033677064 -0.110837996 0.18433797 0.12210399 -0.18015562
0.1681208 0.08978676 0.13927765 0.17129236 0.08336295 0.16738798 0.11917409 -0.012982907
-0.11917628 -0.0061569773 0.16265513 0.28525767 -0.13494822 0.1869615 -0.057577997 -0.05579797
-0.01588891 0.0353373 -0.0036774194 -0.19466408 -0.13986233 0.0012482884 0.06040933 -0.087014854
0.074195415 -0.17004031 -0.2459467 0.028959805 0.043677647 0.10393127 -0.21214344 -0.1847242
0.1301895 0.18084483 0.12446009 -0.23053762 -0.083025634 -0.018734748 -0.13534991 -0.019515363
-0.08338251 -0.0949012 -0.19361477 0.08556456 0.1136608 -0.13802761 0.14374152 0.073804945
0.011819787 -0.1195304 0.049165636 0.121162824 0.15697047 0.16422929 -0.01801504 0.070021905
-0.0034622771 -0.12448464 0.124766104 0.0817065 -0.2359921 0.009170807 0.036425952 -0.0696517
0.123542145 0.06358282 0.1410233 0.10122007 0.18776338 0.070431165 0.10855647 -0.13143556
-0.21561858 -0.17120275 -0.024356471 0.22127663 0.011339653 0.01774449 -0.2348735 -0.03218755
-0.090481356 -0.032731865 0.098337375 -0.061883148 -0.22687617 -0.07301774 0.008542969 -0.11408942
0.10207044 -0.08347403 -0.22138567 0.16256246 0.026235657 0.17110571 -0.16573423 -0.1413826
-0.047568783 0.15034229 0.14377885 -0.18386212 -0.041151863 0.081867695 -0.12563507 -0.16742319
0.059723444 -0.053359978 -0.07522949 0.15539776 -0.007555158 -0.03838874 0.17469849 0.05488117
0.13043104 -0.15666696 0.11152303 0.18505709 0.17716104 0.13841525 0.041089606 -0.04384583
-0.0206499 -0.073276155 0.13364244 0.12823457 -0.113447845 0.10222636 0.16753353 -0.07302802
0.11562616 0.120093204 0.18821056 -0.018341586 0.21739237 0.0917052 0.2362642 -0.13394473
-0.17773838 -0.13259813 0.06637567 0.24609575 -0.03180807 0.04492765 -0.021133207 0.18469964
-0.18406054 -0.1872294 0.061220523 -0.09830175 -0.09539807 -0.013438266 -0.025158338 -0.2516654
0.09073346 -0.10534406 -0.1411353 0.023852143 -0.21481611 0.049315535 -0.2147189 -0.1925838
0.09568099 0.14885311 0.21930744 -0.15063737 -0.06916421 0.011089538 -0.027145505 -0.21905833
0.13475358 -0.079401255 0.044872288 0.06836701 0.15762225 -0.18473354 0.12903745 -0.028457902
0.05044231 -0.16835989 0.19153969 0.06809032 1.8343182e-05 -0.03341591 -0.001498982 0.018502027
0.13912623 -0.19968325 0.08052228 0.05823711 -0.14280114 0.031777598 0.14743531 -0.04392481
0.14856973 -0.050933283 0.18284795 0.17323151 0.12152248 0.055732273 0.075178385 -0.07752602
-0.20110388 -0.0829335 -0.03636229 0.16133082 -0.021000238 0.19455919 -0.11685419 0.09573087
-0.19336334 -0.05206701 0.1535785 -0.1757744 -0.19089624 -0.16099584 0.14061572 -0.06314788
-0.012487335 -0.056660045 -0.22912769 0.16705532 -0.17013577 0.017623596 -0.030422105 -0.08600141
0.13046075 0.24593721 0.13882147 -0.17128247 -0.1657247 0.16792768 -0.17538513 -0.09971642
-0.053468384 0.044988655 -0.050713193 0.08081047 0.017307445 -0.05688951 0.015065918 0.0062316996
0.1390372 -0.08383471 0.16922809 -0.0011336615 -0.026532907 0.07508853 0.08952994 0.089697056
00000000: 6bd8 f7bd 3430 54be 3af3 073d f6f0 09bd
00000010: 08ff e2bd 18c3 3c3e a811 fa3d b77a 38be
00000020: dc27 2c3e 1fe2 b73d cd9e 0e3e 4467 2f3e
00000030: 32ba aa3d c167 2b3e 8c11 f43d 42b6 54bc
00000040: b212 f4bd 78c0 c9bb 118f 263e 4b0d 923e
00000050: de2f 0abe d672 3f3e e8d6 6bbd 6a8c 64bd
00000060: 7629 82bc d8bd 103d dc00 71bb 0556 47be
00000070: 1238 0fbe 9c9d a33a c66f 773d d834 b2bd
00000080: c4f3 973d 0c1f 2ebe 74d9 7bbe 1d3d ed3c
00000090: 55e7 323d ebd9 d43d 213c 59be 5728 3dbe
000000a0: 6550 053e 632f 393e efe4 fe3d 0e12 6cbe
000000b0: 5809 aabd 9d79 99bc 2b99 0abe afde 9fbc
000000c0: 73c4 aabd 8f5b c2bd f342 46be 793c af3d
000000d0: fec6 e83d 1c57 0dbe fa30 133e 0c27 973d
000000e0: c8a7 413c 5bcc f4bd e861 493d 3724 f83d
000000f0: debc 203e b92b 283e 4794 93bc a567 8f3d
00000100: 5fe7 62bb cef1 febd 5f85 ff3d bd55 a73d
00000110: eaa7 71be 2741 163c 6133 153d 8da5 8ebd
00000120: aa03 fd3d b637 823d 6968 103e 784c cf3d
00000130: 0b45 403e 373e 903d db52 de3d 0b97 06be
00000140: 1ecb 5cbe c64f 2fbe 3987 c7bc 5796 623e
00000150: f4c9 393c e55c 913c ae82 70be 18d7 03bd
00000160: 4a4e b9bd d911 06bd 1b65 c93d 2f79 7dbd
00000170: 3a52 68be 538a 95bd cff7 0b3c b7a7 e9bd
00000180: 4f0a d13d 6ff4 aabd edb2 62be c676 263e
00000190: 29ec d63c 5636 2f3e 3cb6 29be 9ac6 10be
000001a0: 7cd7 42bd 54f3 193e c33a 133e 5a46 3cbe
000001b0: db8e 28bd 40aa a73d 7ba6 00be fc70 2bbe
000001c0: 92a0 743d fe8f 5abd eb11 9abd 9720 1f3e
000001d0: 4291 f7bb 833d 1dbd 29e4 323e 14cb 603d
000001e0: b78f 053e 4e6d 20be 3066 e43d 9b7f 3d3e
000001f0: b469 353e babc 0d3e 934d 283d af97 33bd
00000200: fb29 a9bc cf11 96bd 90d9 083e ec4f 033e
00000210: 5857 e8bd 0e5c d13d e98d 2b3e b78f 95bd
00000220: 68cd ec3d 6df3 f53d 45ba 403e 1841 96bc
00000230: 1b9c 5e3e f0cf bb3d 3eef 713e cf28 09be
00000240: 0d01 36be cec7 07be f8ef 873d 8600 7c3e
00000250: 2e49 02bd 0e06 383d 8c1f adbc e721 3d3e
00000260: 5e7a 3cbe 10b9 3fbe 5fc2 7a3d 6e52 c9bd
00000270: 1060 c3bd 2c2c 5cbc dc18 cebc 4ada 80be
00000280: 77d2 b93d a0be d7bd c685 10be 9265 c33c
00000290: c1f8 5bbe 16ff 493d 45df 5bbe b034 45be
000002a0: 65f4 c33d f36c 183e 2192 603e af40 1abe
000002b0: f7a5 8dbd e5b0 353c 4060 debc d450 60be
000002c0: d8fc 093e 209d a2bd 01cc 373d 0104 8c3d
000002d0: ba67 213e ca2a 3dbe 6522 043e 8c20 e9bc
000002e0: 989c 4e3d 8966 2cbe fb22 443e f072 8b3d
000002f0: afdf 9937 1fdf 08bd 7d79 c4ba 9091 973c
00000300: 1b77 0e3e c479 4cbe dde8 a43d 098a 6e3d
00000310: 763a 12be 3a29 023d 48f9 163e 80ea 33bd
00000320: aa22 183e 6b9f 50bd 7e3c 3b3e 9a63 313e
00000330: c7e0 f83d 8647 643d 20f7 993d f6c5 9ebd
00000340: 2dee 4dbe 0ad9 a9bd a0f0 14bd e833 253e
00000350: b108 acbc 863a 473e 4051 efbd 8c0e c43d
00000360: 0a01 46be 3844 55bd af43 1d3e 34fe 33be
00000370: 4e7a 43be 18dc 24be 91fd 0f3e ad53 81bd
00000380: ae97 4cbc 5d14 68bd 73a0 6abe 8d10 2b3e
00000390: 1238 2ebe 5c5f 903c c737 f9bc 8221 b0bd
000003a0: 8197 053e f7d6 7b3e 3727 0e3e ac64 2fbe
000003b0: bcb3 29be 3cf5 2b3e 2998 33be 1f38 ccbd
000003c0: aa01 5bbd 0646 383d a3b8 4fbd f67f a53d
000003d0: 58c8 8d3c fa04 69bd 0ad7 763c 4933 cc3b
000003e0: c55f 0e3e 88b1 abbd 214a 2d3e 5e97 94ba
000003f0: 8a5b d9bc 04c8 993d 795b b73d 17b3 b73d

fc3.bias f4 [24]
0.003421247 -0.028863495 -0.10124678 -0.108604126 -0.1429419 0.078722015 -0.020691752 0.09420167
-0.045163628 -0.04852425 -0.13286759 -0.0016130711 -0.12837787 0.024476541 0.069155544 -0.10541397
0.078095496 -0.12127222 -0.09016841 -0.017659664 -0.0880481 -0.08274873 -0.09504389 -0.120703064
00000000: 0037 603b 2373 ecbc 795a cfbd d76b debd
00000010: 5d5f 12be 0239 a13d c081 a9bc ceec c03d
00000020: 7ffd 38bd 5dc1 46bd 710e 08be af6d d3ba
00000030: 7d75 03be 0783 c83c 6ca1 8d3d 48e3 d7bd
00000040: 88f0 9f3d 925d f8bd 37aa b8bd 00ab 90bc
00000050: 9052 b4bd 2b78 a9bd 5fa6 c2bd 2b33 f7bd
