model_weights/weather_weights/model_weather_MSE.pt (torch, 142636 bytes, 6 tensors)

fc1.weight f4 [64, 456]
0	0x3c616932	0.013757991
1	0x3cc327d8	0.02382271
2	0x3d4d88e9	0.050179396
3	0xbc12a437	-0.008950285
4	0x3c6f3e99	0.014602327
5	0x3d8b220d	0.06793604
6	0xbb4a5509	-0.0030873439
7	0x3d90fbb4	0.070792586
8	0x3c8ebfed	0.017425502
9	0xbcb5c635	-0.022189239
10	0xbd23b878	-0.039970845
11	0x3d5b45d1	0.05353338
12	0xbd8485a4	-0.064708024
13	0x3c925e5c	0.01786726
14	0x3cf08df5	0.029364565
15	0x3d3978cd	0.04528122
16	0x3bf3c40c	0.007439142
17	0xb967764d	-0.00022073947
18	0x3d268c3e	0.04066109
19	0x3d225d80	0.03963995
20	0xbcc0dbef	-0.023542373
21	0xbccdd6bc	-0.025126807
22	0x3cd7ca97	0.02634172
23	0x3cf37018	0.029716536
24	0xbc9bbcdd	-0.019010955
25	0x3cdb2dc8	0.026755229
26	0xbcaf4620	-0.021395743
27	0xbd1d2708	-0.0383673
28	0x3ce8d4d1	0.028421791
29	0xbc4376ae	-0.011930151
30	0x3d3d4352	0.04620678
31	0xbdd0330b	-0.10165986
32	0x3d91f7fb	0.07127377
33	0x3c876069	0.016525464
34	0x3c7e8615	0.015534897
35	0x3c44b062	0.012004944
36	0x3cb10f65	0.021613786
37	0x3c64153a	0.013921076
38	0x3d1d1f53	0.03835995
39	0xbd21187f	-0.039330002
40	0xba933b29	-0.0011232841
41	0x3d2d34bb	0.042286616
42	0xbaaf2463	-0.0013362285
43	0xbc904a26	-0.017613482
44	0x3d060cc3	0.032727014
45	0x3d061ab3	0.032740306
46	0xbba550bd	-0.005045025
47	0xbcd81377	-0.026376469
48	0x3d1b5502	0.037922867
49	0x3cb2d076	0.021827918
50	0xbdb4ae9b	-0.08822366
51	0x3c23d621	0.009999783
52	0xbcfef0ea	-0.031120736
53	0xbcfeb932	-0.031094167
54	0x3ce81923	0.028332299
55	0x3d116b85	0.03550293
56	0xbd2ea035	-0.042633254
57	0x3d721faf	0.059112247
58	0xbd5f5206	-0.054521583
59	0xbd0a44a9	-0.033756886
60	0xbcfdbcd1	-0.030973824
61	0xbc85a5fd	-0.016314501
62	0xbd2d6dd2	-0.04234106
63	0xbd0df4f9	-0.034657452
64	0xbd037b2d	-0.03209989
65	0x3adcb2b2	0.0016837923
66	0xbbe3b744	-0.006949337
67	0xbcf7b7ec	-0.030239068
68	0xbd48405a	-0.048889495
69	0xbd91c6ff	-0.071180336
70	0x3d85fe45	0.06542639
71	0x3d33bf26	0.043883465
72	0x3af727d5	0.0018856475
73	0xbbe64b6f	-0.0070280354
74	0xbd3c7538	-0.046010226
75	0x3b60c3b8	0.0034296345
76	0xbcb60a98	-0.022221848
77	0xbd3f090a	-0.04663948
78	0x3c42eae9	0.011896827
79	0xbb3b4406	-0.002857448
80	0x3d03be8c	0.03216414
81	0xbd188e3c	-0.03724502
82	0xbcaddb54	-0.021222748
83	0xbd47b661	-0.048757914
84	0xbc1eb4be	-0.009686647
85	0xbd06a8b0	-0.032875717
86	0xbb9033c0	-0.0044007003
87	0xbce552ad	-0.027993524
88	0xbd96a2db	-0.07355281
89	0x3d82475f	0.06361269
90	0xbb74d17b	-0.0037356305
91	0xbbe2bcaf	-0.0069194655
92	0x3cf86cc9	0.03032531
93	0x3c911608	0.0177107
94	0x3cf02222	0.02931315
95	0x3d5369a5	0.051614422
96	0xbb6e8bb7	-0.0036399195
97	0xbccfda36	-0.025372606
98	0xbce9421f	-0.028473912
99	0xbc39346c	-0.011304002
100	0xbd92b3ba	-0.07163186
101	0xbd12b803	-0.03582002
102	0xbceae76d	-0.028674806
103	0xbc76db02	-0.015066864
104	0x3c214c05	0.009844785
105	0xbc3af070	-0.011409864
106	0xbcbdecd4	-0.023184218
107	0xbdb68029	-0.08911163
108	0x3d76888b	0.06018881
109	0x3d553db7	0.05206081
110	0xbd249688	-0.04018262
111	0xbd55d440	-0.05220437
112	0x3d12aa83	0.035807144
113	0x3d2fbe33	0.042905997
114	0x3cea2617	0.028582616
115	0xbcd63102	-0.026146416
116	0x3cd04f0d	0.02542832
117	0xbc8e829a	-0.01739626
118	0xbc649f26	-0.01395396
119	0xbd8d136c	-0.0688847
120	0x3bda839a	0.00666852
121	0xbc88a0de	-0.01667827
122	0xbd25f15b	-0.040513378
123	0x3d2f6eb1	0.042830173
124	0xbcd0a0b2	-0.02546725
125	0xbd723d93	-0.059140753
126	0xbdd2125e	-0.102574095
127	0x3d958b5e	0.07301973
128	0xbd0ec178	-0.034852475
129	0xbc9eac73	-0.01936934
130	0x3b8c222a	0.0042765336
131	0x3b444124	0.0029946053
132	0xbd02aaca	-0.03190116
133	0x3cdd34e4	0.02700276
134	0xbba62493	-0.005070278
135	0x3cd555f1	0.026041957
136	0x3d3715e5	0.044698615
137	0xbcfa743c	-0.030573003
138	0xbd2b65c9	-0.041845117
139	0xbc55f8b3	-0.013059783
140	0xbdce138a	-0.100623205
141	0x3bce6be8	0.0062994845
142	0x3d1f8a97	0.03895053
143	0x3bce5558	0.006296795
144	0xbd5c4ff7	-0.053787198
145	0xbd936c22	-0.07198359
146	0x3cacb40d	0.021081949
147	0x3d31d878	0.04341933
148	0x3b58419e	0.0032998095
149	0xbcd1519d	-0.025551612
150	0x3cc13185	0.023583183
151	0xbcc4a856	-0.02400605
152	0xbceed741	-0.029155375
153	0xbd3fe429	-0.04684845
154	0x3d03a177	0.032136407
155	0xbc4ccf09	-0.012500533
156	0xbd25900d	-0.04042058
157	0x3c19f4d4	0.0093967505
158	0x3d2aa0e6	0.04165735
159	0xbd982584	-0.074290305
160	0x3d17baa0	0.037043214
161	0xbcf7808d	-0.030212665
162	0x3d410d68	0.047131926
163	0xbdad081b	-0.084488116
164	0xbd2a4c5b	-0.041576724
165	0x3d953df7	0.072872095
166	0xbd1df247	-0.03856113
167	0xbbe38d36	-0.006944324
168	0x3c4751e5	0.012165521
169	0xbd51ecfc	-0.051251397
170	0xbd15e793	-0.0365978
171	0xbd41c6c4	-0.0473087
172	0xbb0fa450	-0.0021918006
173	0xbc2572e4	-0.010098193
174	0x3d105365	0.03523578
175	0xbd0e3094	-0.034714296
176	0xbd9303d3	-0.07178464
177	0x3c2de108	0.010612734
178	0xbdc05fa6	-0.093932435
179	0xbbaf0f34	-0.0053423885
180	0xbce9cf46	-0.028541218
181	0xbd152da2	-0.036420472
182	0xbd7a6e42	-0.061140306
183	0xbcc6d30d	-0.024270559
184	0x3c59e479	0.013299101
185	0xbcf4b8c4	-0.02987326
186	0x3a3489ef	0.0006887009
187	0x3c402b61	0.011729092
188	0x3d349026	0.044082783
189	0xbc585b4c	-0.013205361
190	0xbd497239	-0.049181197
191	0x3ce31b4d	0.027722979
192	0xbcc19551	-0.02363077
193	0x3cd3d2dc	0.025857382
194	0xbced343f	-0.028955577
195	0xbd8badf5	-0.06820289
196	0x3bf75aba	0.0075486572
197	0xbcafbde7	-0.021452857
198	0x3d09f9d8	0.033685535
199	0x3ccf0c37	0.02527438
200	0x3cf85a5d	0.030316526
201	0xbdd05728	-0.10172874
202	0x3d4d2c5d	0.050091136
203	0x3d5385ec	0.05164139
204	0xbbe7b2f1	-0.007070892
205	0x3c751c1b	0.014960314
206	0xbca686db	-0.020327976
207	0xbca2a15e	-0.019852336
208	0x3c4ee04c	0.012626719
209	0xbd39c811	-0.045356814
210	0x3c53ab60	0.012919277
211	0x3bb2aa21	0.00545241
212	0x3d184c68	0.03718224
213	0x3c516fe9	0.012783029
214	0x3a1e01c7	0.00060274865
215	0xbd0e4635	-0.034734923
216	0xbd5035aa	-0.050832428
217	0x3c036e3f	0.00802189
218	0xbcdfa54c	-0.0273005
219	0x39955772	0.00028484646
220	0xbd54bb89	-0.05193666
221	0x3dc4f58d	0.096171476
222	0x3d51ab85	0.051188964
223	0x3cebf580	0.028803587
224	0x3d191f5e	0.03738343
225	0x3ca97f59	0.020690607
226	0xbc990c6a	-0.018682677
227	0xbc4c1da4	-0.012458239
228	0xbc445a12	-0.011984365
229	0x3d05bfd9	0.032653663
230	0x3c4e12e9	0.012577751
231	0xbcd27017	-0.025688214
232	0xbcb165ab	-0.021654924
233	0xbc6316be	-0.013860403
234	0xbc9baaab	-0.01900228
235	0xbd36647d	-0.044529427
236	0xbca97426	-0.020685267
237	0xbc2ec586	-0.01066721
238	0xbca04952	-0.019566212
239	0xbd87baf0	-0.066274524
240	0x3d979548	0.0740152
241	0x3c6ed0f5	0.014576186
242	0xbd00ee89	-0.031477485
243	0xbba2d76c	-0.004969528
244	0xbcd4a708	-0.025958553
245	0x3d640e9b	0.05567799
246	0xbb567d77	-0.0032728591
247	0xbd4bbf38	-0.049742907
248	0xbbd0b517	-0.006369244
249	0xbce14fb4	-0.027503826
250	0x3c11f1e6	0.008907771
251	0xbccc458f	-0.024935512
252	0x3b5bfe60	0.0033568367
253	0xbd008c8a	-0.03138403
254	0x3ad448d1	0.0016196017
255	0xbd31eaf6	-0.043436967

fc1.bias f4 [64]
0	0xbb7b8c4b	-0.0038383182
1	0xbe1ec3af	-0.15504335
2	0x3cf92fcc	0.0304183
3	0x3e693c11	0.2277682
4	0xbd584ff4	-0.052810624
5	0x3dc1a1e2	0.09454705
6	0xbd42633a	-0.04745791
7	0x3d9030e6	0.07040577
8	0x3e1137ee	0.14181492
9	0xbdaa81ef	-0.08325564
10	0x3d9700a9	0.07373173
11	0x3d32da94	0.043665484
12	0x3e0a0815	0.13479646
13	0xbe5a7e68	-0.21337283
14	0xbe3b86a1	-0.18313076
15	0xbdf0e638	-0.11762661
16	0x3c14b549	0.009076425
17	0x3d13f600	0.036123276
18	0xbd73efad	-0.059554745
19	0xbd288a6e	-0.04114764
20	0x3c183886	0.00929082
21	0xbd8d1b46	-0.068899676
22	0xbd2cbf30	-0.042174518
23	0xbd9906cc	-0.074719995
24	0xbd6b0d01	-0.05738545
25	0xbdf4fd26	-0.11962347
26	0xbdd9239f	-0.10602497
27	0xbd77f578	-0.06053683
28	0xbcfc9a36	-0.030835252
29	0x3cdfc774	0.027316786
30	0xbdebda59	-0.11516256
31	0x3da0588f	0.07829391
32	0xbc863ad1	-0.016385468
33	0xbdeaf8bf	-0.11473226
34	0xbd9c8193	-0.07641902
35	0xbd96726c	-0.07346043
36	0xbdcbf017	-0.09957903
37	0x3dea31b3	0.114352606
38	0x3d986f50	0.07443106
39	0x3aa9b300	0.0012947023
40	0x3c801057	0.015632791
41	0xbcd194c3	-0.02558363
42	0xbd2dfdbd	-0.04247831
43	0x3dd54c25	0.10414914
44	0xbcadb25e	-0.021203216
45	0x3ccb4d10	0.02481702
46	0x3e22e55f	0.1590781
47	0x3cc757b1	0.024333807
48	0x3e5b4e34	0.21416551
49	0xbd98eb03	-0.074667
50	0x3d98e896	0.07466237
51	0xbcc91c74	-0.0245497
52	0xbdba30a9	-0.090913124
53	0x3cd43c7c	0.025907747
54	0x3d36e528	0.044652134
55	0xbe39693b	-0.18106548
56	0xbdc67605	-0.09690479
57	0x3deb9620	0.115032434
58	0x3e19a91b	0.15005915
59	0x3bb21aa2	0.005435304
60	0xbd3f16f4	-0.04665275
61	0xbd8580cf	-0.06518709
62	0xbd4ce906	-0.050026916
63	0xbe21fc1b	-0.15818827

fc2.weight f4 [64, 64]
0	0x3e36c003	0.17846684
1	0xbe50fda6	-0.20409259
2	0xbe6a41fb	-0.22876732
3	0xbe4d145b	-0.20027296
4	0x3de41e4d	0.11138592
5	0xbe5c946d	-0.21540995
6	0x3de067bf	0.10957288
7	0x3c2eed20	0.010676652
8	0xbe8ba3ef	-0.2727351
9	0xbe864e5d	-0.2623166
10	0xbe67dfcf	-0.2264397
11	0xbcec95c0	-0.02888
12	0xbe0c52e8	-0.13703501
13	0xbc935101	-0.017982962
14	0x3e246d4f	0.16057323
15	0xbdf26269	-0.118351765
16	0xbe828b3b	-0.2549685
17	0xbd7b88b6	-0.061409675
18	0xbe4c8d21	-0.19975711
19	0x3c8374a8	0.016046837
20	0x3d0bd939	0.034142707
21	0xbdbdb1fb	-0.09262463
22	0xbd8e0411	-0.06934369
23	0xbd8880eb	-0.06665214
24	0xbde27589	-0.11057574
25	0xbbd20f33	-0.0064105033
26	0xbd286528	-0.041112095
27	0xbe147e75	-0.14501365
28	0xbd009837	-0.031395163
29	0xbe267350	-0.16254926
30	0xbb879d54	-0.004138628
31	0xbc052098	-0.008125447
32	0x3e1e694c	0.15469855
33	0x3c1da1b6	0.009621074
34	0xbd3d71c4	-0.046251073
35	0xbd940d5f	-0.07229113
36	0x3dcc1fac	0.099669784
37	0xbddcf776	-0.10789387
38	0x3d58b7c7	0.05290964
39	0x3d95a199	0.07306213
40	0xbd4c5b30	-0.04989165
41	0xbe7e1714	-0.24813491
42	0xbe0aaad3	-0.13541727
43	0x3d4dbc99	0.05022869
44	0x3e212843	0.15738015
45	0x3dd8e92a	0.105913475
46	0xbe49372d	-0.19649954
47	0x3dc216ee	0.0947703
48	0xbc820d78	-0.015875563
49	0xbdaf0af3	-0.0854701
50	0x3d8bd367	0.06827431
51	0xbcb25696	-0.021769803
52	0x3d63d475	0.055622537
53	0xbdb91bfe	-0.09038542
54	0x3e2100e7	0.15723
55	0x3dc5783f	0.09642076
56	0xbce0ade2	-0.027426664
57	0x3da0f0a9	0.07858402
58	0xbe190216	-0.14942202
59	0xbda6f5ce	-0.08152352
60	0xbde669ce	-0.112506494
61	0xbdf3b57e	-0.11899851
62	0x3d2fd6bc	0.042929396
63	0xbe25f5bf	-0.16207026
64	0x3e82a67f	0.2551765
65	0xbd9b351c	-0.07578489
66	0xbe7a86a3	-0.24465422
67	0xbdbc06c8	-0.09180981
68	0x3e4277c8	0.18991005
69	0xbe20e72a	-0.15713182
70	0x3dcd7e32	0.100338355
71	0xbc9eb990	-0.019375592
72	0xbe0ff46d	-0.14058085
73	0xbe3aa0ab	-0.18225352
74	0xbd93b9e7	-0.072131924
75	0xbcecf13f	-0.028923629
76	0xbd7567e7	-0.059913542
77	0x3cbd4713	0.02310518
78	0x3e54756d	0.2074792
79	0xbd5c0732	-0.0537178
80	0xbd9edc6a	-0.077568844
81	0xbd9fceed	-0.0780314
82	0xbe58f7e7	-0.21188317
83	0xbcc84a19	-0.024449395
84	0x3d793eb6	0.06085082
85	0xbe3d427d	-0.18482395
86	0xbd087f3b	-0.03332446
87	0xbe1de7e3	-0.15420489
88	0xbdb13455	-0.0865256
89	0x3cd4c42b	0.025972446
90	0xbe0b1591	-0.13582446
91	0xbe971e59	-0.2951534
92	0x3df62438	0.12018627
93	0xbe553f34	-0.20824891
94	0x3d39e962	0.045388587
95	0x3d718c6a	0.0589718
96	0x3d1b0cc1	0.03785396
97	0x3dbdd464	0.09269026
98	0xbdea7f66	-0.114500806
99	0xbe403d88	-0.18773472
100	0x3cf173e5	0.029474208
101	0x3d0d1295	0.03444155
102	0x3e0b7e37	0.13622366
103	0x3e8cf4fe	0.27530664
104	0xbdf9d1a6	-0.121981904
105	0xbdaee8fb	-0.08540531
106	0xbb894901	-0.004189611
107	0x3e2e4edc	0.1702227
108	0x3d88d32c	0.06680903
109	0x3da5025f	0.08057093
110	0xbd6eb615	-0.058279116
111	0x3e053787	0.13009463
112	0xbc878169	-0.0165412
113	0xbd09a7cf	-0.0336073
114	0x3d83f801	0.06443787
115	0xbdabd6c9	-0.083905764
116	0x3d65daf8	0.056117028
117	0xbe036daf	-0.1283481
118	0x3e17cc5f	0.14824055
119	0x3da7df98	0.08196944
120	0xbdde7347	-0.10861831
121	0x3dbdd84d	0.09269772
122	0xbe19ca1e	-0.15018508
123	0xbe40efed	-0.18841524
124	0x3d50d60d	0.050985385
125	0xbd6854d8	-0.05672154
126	0x3bb7b17c	0.0056058746
127	0xbce62895	-0.028095523
128	0x3d73f9eb	0.059564512
129	0xbdcd59f8	-0.10026926
130	0xbe4a06a4	-0.19729096
131	0xbe6e062e	-0.23244545
132	0x3dccd586	0.10001664
133	0xbe0ce3ab	-0.13758723
134	0x3d7f3306	0.06230452
135	0x3e2d574b	0.16927831
136	0xbdf9f11c	-0.12204191
137	0xbddffa3b	-0.109363995
138	0x3d0e6b40	0.03477025
139	0xbd00254c	-0.03128557
140	0xbe1ebf0b	-0.15502565
141	0xbe416712	-0.18886974
142	0x3d61fc87	0.05517247
143	0x3c18d518	0.009328149
144	0xbe1e002f	-0.15429758
145	0x3d31417b	0.043275338
146	0xbde595b5	-0.11210195
147	0x3e198c8d	0.14995022
148	0x3e202edd	0.15642877
149	0xbe1ad993	-0.1512206
150	0xbd33d279	-0.043901894
151	0xbd986f48	-0.074431
152	0xbdebaf09	-0.11507995
153	0x3d53ae13	0.051679682
154	0xbda42d3d	-0.08016441
155	0xbdf64b1f	-0.12026047
156	0x3e2417e7	0.16024743
157	0x3c52f848	0.012876578
158	0xbe28d24c	-0.16486472
159	0x3c9199fd	0.017773623
160	0x3dcb1295	0.099156536
161	0x3e2f0742	0.17092612
162	0xbd828e71	-0.06374825
163	0xbd2428f2	-0.04007811
164	0xbd1b0dcc	-0.037854955
165	0xbd006fe9	-0.031356726
166	0x3d01e686	0.031713985
167	0x3e1a5fd4	0.15075618
168	0xbdb33eb8	-0.08752197
169	0xbe09e90e	-0.1346781
170	0x3d4ceb02	0.05002881
171	0x3e1832cb	0.14863126
172	0x3d882a44	0.066486865
173	0x3e12c08a	0.1433126
174	0xbd3c6e13	-0.046003412
175	0x3e1c3401	0.15254213
176	0x3dac5716	0.08415048
177	0xbe4403e3	-0.19142108
178	0x3d06fcc4	0.0329559
179	0xbd65df91	-0.056121413
180	0x3de14c17	0.11000841
181	0x3d4c1f24	0.049834386
182	0x3e172e8c	0.1476385
183	0x3db62e66	0.088955685
184	0xbc2ab70e	-0.01041962
185	0x3e0ca553	0.13734941
186	0xbe4e4bb3	-0.20146064
187	0xbe16aa05	-0.14713295
188	0xbd3bcc37	-0.04584905
189	0xbe403ef7	-0.18774019
190	0x3de22a2a	0.110431984
191	0xbe000d88	-0.12505162
192	0xbd8c3e5e	-0.06847833
193	0x3d893505	0.06699566
194	0xbda933bf	-0.08261823
195	0x3d7b3326	0.061328076
196	0xbd85b97c	-0.06529519
197	0x3c988210	0.018616706
198	0xbc1b2b43	-0.009470764
199	0xbca84a28	-0.020543173
200	0x3df85cef	0.12127101
201	0x3dc49c19	0.09600086
202	0x3e3bff64	0.18359143
203	0x3dd7b72e	0.10532986
204	0x3e207f6e	0.1567361
205	0x3b4901b9	0.0030671193
206	0xbe3e0099	-0.18554915
207	0x3e20d3f8	0.1570586
208	0xbcb736b0	-0.022364944
209	0x3def768c	0.11692533
210	0xbc90aa0f	-0.017659215
211	0x3c4a45ae	0.0123457145
212	0xbe1a7768	-0.15084612
213	0x3e1b23af	0.15150331
214	0x3dd8e206	0.105899855
215	0x3e4fd27b	0.20295136
216	0x3d97954c	0.07401523
217	0x3dec3a00	0.115345
218	0x3e293d88	0.16527379
219	0xbc84645c	-0.016161136
220	0xbdd0fadf	-0.102041
221	0x3e035d52	0.12828568
222	0x3e0feaab	0.14054362
223	0xbdc6e281	-0.09711171
224	0xbdf4fcb2	-0.1196226
225	0xbd210dd6	-0.039319836
226	0x3d9b9f0a	0.07598694
227	0x3e40a111	0.18811442
228	0xbd816fb7	-0.06320136
229	0xbbc0cd68	-0.0058838613
230	0xbe4ca2cf	-0.19983982
231	0xbe1bf599	-0.15230407
232	0x3e0e7959	0.13913478
233	0x3e2af5dd	0.16695352
234	0x3e35bd49	0.17747988
235	0x3c2adf75	0.010429253
236	0xbd8c1bef	-0.068412654
237	0xbd902568	-0.07038385
238	0x3e151391	0.14558245
239	0xbdfaaabd	-0.12239597
240	0xbe2aeab9	-0.16691102
241	0x3cae3d80	0.02126956
242	0xbe278f85	-0.16363342
243	0x3df2f804	0.118637115
244	0xbe304ac6	-0.17216024
245	0x3e49de49	0.19713701
246	0xbd2f7381	-0.042834762
247	0xbe02253b	-0.12709515
248	0xbcc79589	-0.024363296
249	0xbd1a8435	-0.03772374
250	0x3c76dfe2	0.015068026
251	0x3e472fb1	0.19451787
252	0x3c0f9d72	0.008765565
253	0x3e115ecb	0.14196317
254	0x3d3e9ea3	0.046538007
255	0x3c39f202	0.011349203

fc2.bias f4 [64]
0	0xbd1df802	-0.038566597
1	0x3e0dc892	0.13846043
2	0xbe15d49c	-0.14631885
3	0xbd29f6f0	-0.041495264
4	0x3da11508	0.078653395
5	0x3e1f800a	0.15576187
6	0xbe35334c	-0.1769535
7	0xbd31dc59	-0.04342303
8	0xbe4736ba	-0.1945447
9	0x3dfd1b4c	0.12358722
10	0xbd936e8d	-0.0719882
11	0xbc01f424	-0.007931743
12	0x3dae0272	0.0849656
13	0x3db0bf13	0.086301945
14	0xbe2bed14	-0.16789657
15	0xbc041b0c	-0.008063089
16	0xbd611db8	-0.054959983
17	0xbc049d1c	-0.008094098
18	0x3e47cf5b	0.19512694
19	0x3e0c350a	0.13692108
20	0xbd8a4d30	-0.067530036
21	0xbda71b7b	-0.08159538
22	0x3c6c6425	0.014428173
23	0xbd32513c	-0.043534502
24	0x3d074374	0.033023313
25	0xbcd2850a	-0.025698204
26	0xbe126deb	-0.14299743
27	0xbdeb5a64	-0.1149185
28	0xbe44ac2b	-0.19206302
29	0xbd70cd9f	-0.058789846
30	0x3c14eba1	0.009089381
31	0xbb0416d8	-0.0020155217
32	0xbd8d30ee	-0.06894098
33	0x3de2394e	0.11046086
34	0xbdf9642e	-0.12177311
35	0x3c885b59	0.01664512
36	0xbd6ce746	-0.057837747
37	0x3ca6c0a1	0.020355524
38	0x3d6c746a	0.05772821
39	0x3d84025d	0.06445763
40	0xbdae0315	-0.084966816
41	0x3db82a7e	0.0899248
42	0x3e17862b	0.14797275
43	0xbd65a513	-0.05606563
44	0xbdbb8440	-0.09156084
45	0x3de370df	0.11105513
46	0x3de30f65	0.11086921
47	0x3bdd8514	0.006760249
48	0xbe3ac8fb	-0.1824073
49	0x3de747fd	0.112930275
50	0xbe088985	-0.1333371
51	0xbdcab289	-0.09897334
52	0x3ca29f11	0.01985124
53	0x3a9b7291	0.0011859705
54	0x3cf17b59	0.029477762
55	0x3e1f48ca	0.1555511
56	0x3dd0fce1	0.10204483
57	0xbe24200d	-0.16027851
58	0xbd839065	-0.064240254
59	0x3d1c69a8	0.0381867
60	0x3d08cda5	0.033399243
61	0x3c0190e6	0.007908082
62	0x3cc3f107	0.023918642
63	0x3d86d1a5	0.06582955

fc3.weight f4 [24, 64]
0	0xbd87e9be	-0.0663638
1	0xbd869f26	-0.06573324
2	0xbe0d9e20	-0.13829851
3	0x3e48804f	0.19580196
4	0xbd59cf87	-0.05317643
5	0xbe3534b6	-0.17695889
6	0xbb5897d4	-0.003304948
7	0xbdc2e5ec	-0.0951651
8	0xbe1c9024	-0.1528936
9	0x3dd2b1d5	0.10287825
10	0xbe1319bc	-0.14365286
11	0x3e823d9f	0.25437638
12	0xbdfe913b	-0.12430044
13	0xbde6fa48	-0.11278206
14	0x3db9727d	0.0905504
15	0x3dbef8be	0.093247876
16	0x3c2a7cba	0.010405714
17	0x3e0e1d8c	0.13878459
18	0x3d923a33	0.07140007
19	0x3d93caa4	0.07216385
20	0xbe068550	-0.13136792
21	0xbe4f4cc8	-0.20244133
22	0xbadfd11d	-0.001707587
23	0x3d87de50	0.066341996
24	0xbdc11750	-0.09428275
25	0x3d39a5e4	0.04532422
26	0x3e8ff1e9	0.2811425
27	0x3e18ef75	0.14935096
28	0xbcef02e2	-0.02917618
29	0xbcff85b5	-0.031191686
30	0x3dd722c1	0.10504676
31	0xbe1ff123	-0.1561933
32	0xbdc4d033	-0.09610023
33	0xbcbcc9ff	-0.023045538
34	0x3e9351a8	0.28773236
35	0xbe0aa364	-0.13538891
36	0x3e1e942d	0.15486212
37	0xbe2588eb	-0.16165511
38	0xbe0db7db	-0.13839667
39	0xbe0c1d9c	-0.1368317
40	0xba9f93f0	-0.0012174826
41	0xbde01f84	-0.10943511
42	0xbcd85575	-0.026407937
43	0xbdab7cec	-0.08373436
44	0xbe50bee4	-0.20385319
45	0xbd962e1d	-0.07333014
46	0xbcd7910b	-0.026314279
47	0xbe032f70	-0.12811065
48	0x3deedef2	0.11663617
49	0x3bcdaaae	0.00627645
50	0x3d6c4d1c	0.057690725
51	0x3d278e6c	0.04090731
52	0x3cf0f71a	0.029414702
53	0x3d2047cf	0.039130982
54	0x3d60b262	0.05485762
55	0xbceb92d6	-0.02875654
56	0x3e433b23	0.19065528
57	0x3db699fc	0.08916089
58	0xbbb35a8f	-0.005473442
59	0xbe3263af	-0.17420839
60	0x3e181172	0.14850405
61	0xbe063c89	-0.1310903
62	0x3e583d0d	0.21117039
63	0xbd929d1c	-0.071588725
64	0xbcee0593	-0.029055392
65	0xbe2926ac	-0.16518658
66	0xbe514612	-0.20436886
67	0xbcda3e33	-0.026640987
68	0xbe33de41	-0.17565252
69	0xbe3a0d8f	-0.18169235
70	0xbd39e543	-0.045384657
71	0xbe2ebf51	-0.17065169
72	0xbe2a1f50	-0.16613507
73	0x3e22c743	0.15896325
74	0xbd007ccd	-0.03136902
75	0x3e5be2b4	0.21473199
76	0xbe047548	-0.12935364
77	0xbd38d950	-0.04512912
78	0x3d8155e1	0.06315208
79	0x3e11b2b0	0.1422832
80	0x3decd216	0.11563508
81	0xbc809eef	-0.015700785
82	0x3b7b4f96	0.0038346997
83	0x3e497559	0.19673671
84	0x3cbc5388	0.02298905
85	0xbe251348	-0.16120636
86	0xbd1c2793	-0.03812368
87	0x3e1bf2c8	0.15229332
88	0xbe36f577	-0.17867075
89	0x3cdd7ff4	0.027038552
90	0x3e1770cf	0.14789127
91	0x3e28d25e	0.16486499
92	0x3de43bf5	0.111442484
93	0xbd7f966f	-0.062399324
94	0x3cf86e72	0.030326102
95	0xbda5ec04	-0.08101657
96	0xbcced055	-0.025245825
97	0x3e415135	0.18878634
98	0x3e766cda	0.24064961
99	0xbe3bf9a0	-0.18356943
100	0x3db48aa2	0.088155046
101	0xbe4d09f7	-0.20023333
102	0xbe1fb367	-0.1559578
103	0x3cab3421	0.02089888
104	0x3d52c93f	0.051461454
105	0xbd38cb86	-0.04511597
106	0xbc76497a	-0.015032167
107	0xbbdde4f1	-0.0067716767
108	0xbe37948a	-0.17927757
109	0xbd9b2cfb	-0.07576939
110	0xbe19f5e4	-0.15035206
111	0xbd340917	-0.04395398
112	0x3dc9af09	0.098478384
113	0xbdc3fc6d	-0.09569631
114	0x3d18e866	0.037331007
115	0x3e333eb3	0.17504387
116	0x3e2b546c	0.16731423
117	0x3d8f4091	0.06994737
118	0xbba1308f	-0.0049191187
119	0xbd806187	-0.06268602
120	0x3e1b87d4	0.15188533
121	0x3d6176a0	0.05504477
122	0xbcfa7b31	-0.03057632
123	0xbd322dba	-0.04350064
124	0x3dfe249d	0.12409327
125	0xbe6ea4f5	-0.23305114
126	0x3e12aed7	0.14324509
127	0xbe40aa2d	-0.18814917
128	0xbe2a1fd9	-0.16613711
129	0xbdbe3988	-0.09288317
130	0xbdb6c9e9	-0.0892523
131	0x3c7645be	0.015031276
132	0xbe29ae3f	-0.16570376
133	0xbe82a6a4	-0.25517762
134	0x3d80908d	0.06277571
135	0xbd0c173b	-0.03420184
136	0xbd9e4dc7	-0.077296786
137	0x3e67d0d8	0.22638261
138	0xbc133582	-0.008984925
139	0x3e0d72d6	0.13813338
140	0xbc9f2cd0	-0.019430548
141	0xbd99c76d	-0.075087406
142	0x3e133f7b	0.14379685
143	0x3e41f084	0.18939406
144	0x3e3b65bb	0.18300526
145	0x3e5f3bb2	0.21800116
146	0xbc14823a	-0.009064252
147	0x3d94f1de	0.07272695
148	0xbdaa6543	-0.083200954
149	0xbe3ff993	-0.18747549
150	0x3c10cb3d	0.008837518
151	0x3d148f39	0.0362694
152	0xbe202b7a	-0.15641585
153	0x38f19396	0.000115192655
154	0x3d23f529	0.040028725
155	0xbc81c41d	-0.015840584
156	0xbcfc6d64	-0.03081388
157	0xbe2dde7c	-0.16979402
158	0x3e1947d6	0.1496881
159	0x3cffe9f7	0.031239493
160	0xbce73844	-0.028225072
161	0x3deb0d89	0.11477191
162	0x3e3f9485	0.18709
163	0xbc813faf	-0.015777437
164	0x3e0c236a	0.13685384
165	0xbe353eb0	-0.17699695
166	0xbb0032a1	-0.0019561427
167	0xbdc8e02b	-0.09808382
168	0xbde15f4e	-0.11004506
169	0x3ce39843	0.027782565
170	0x3c00ee98	0.007869385
171	0xbe046ed1	-0.12932898
172	0xbd8e0468	-0.06934434
173	0xbdf9a27c	-0.121891946
174	0xbe647a3d	-0.22312255
175	0xbe2694a0	-0.16267633
176	0x3e42d17f	0.19025229
177	0xbe2b3d2f	-0.16722558
178	0x3d233c45	0.0398524
179	0x3e2b15bc	0.1670751
180	0x3e676d37	0.22600256
181	0x3dd879c5	0.10570101
182	0xbe1874fe	-0.14888379
183	0xbe0ea194	-0.13928825
184	0x3e18ee50	0.14934659
185	0xbc88ddd4	-0.016707338
186	0xbe55ddb1	-0.2088535
187	0x3ca86354	0.020555176
188	0x3d7016c6	0.05861547
189	0xbdb6b666	-0.089215085
190	0x3dda6f66	0.10665779
191	0xbda36763	-0.07978704
192	0xbdc27a15	-0.094959415
193	0xbd8d03dc	-0.06885502
194	0xbcc2e881	-0.023792507
195	0x3db35607	0.08756643
196	0xbd804562	-0.06263234
197	0xbe46fc8a	-0.19432274
198	0x3de56187	0.112002425
199	0xbe1ba9aa	-0.1520144
200	0xbe19435a	-0.14967099
201	0x3df0c447	0.11756187
202	0xbc2539a6	-0.010084545
203	0x3e531b92	0.20615986
204	0xbdff6832	-0.124710456
205	0xbddb89ef	-0.10719668
206	0x3df6f6e9	0.12058813
207	0x3d0048ef	0.031319555
208	0x3dd6848b	0.10474499
209	0x3e064724	0.13113075
210	0xbdde14ed	-0.10843835
211	0x3e178cbc	0.1479978
212	0xbdaa1985	-0.08305649
213	0xbe347a6b	-0.17624824
214	0x3c280a6c	0.010256391
215	0xbbd61390	-0.0065330938
216	0xbd2b1835	-0.041771132
217	0x3d82d1f2	0.063877
218	0x3e3de6ef	0.18545125
219	0xbbe5c1fa	-0.007011649
220	0x3de19664	0.11015013
221	0xbddb73fd	-0.107154824
222	0x3d0fe05a	0.035126068
223	0xbda54bad	-0.08071075
224	0xbe0af990	-0.13571763
225	0x3e09c33c	0.13453382
226	0x3e35d69d	0.1775765
227	0xbd809821	-0.06279016
228	0x3e45bd2b	0.19310443
229	0xbe2aa953	-0.16666155
230	0xbcd3eeda	-0.02587073
231	0xbe22c573	-0.15895633
232	0xbdea9028	-0.11453277
233	0x3c4d8af2	0.012545334
234	0x3d5d799c	0.054071054
235	0xbe1662eb	-0.14686172
236	0xbe4492ff	-0.191967
237	0xbd58d8d4	-0.05294116
238	0xbdab58a3	-0.083665155
239	0xbe30a28f	-0.17249511
240	0x3e4e0685	0.20119675
241	0x3cf54775	0.0299413
242	0x3d71a01c	0.058990583
243	0x3cb310f1	0.021858664
244	0x3e1c6d54	0.1527608
245	0x3e52f4cf	0.206012
246	0xbd76d255	-0.060259182
247	0xbd0f7a18	-0.035028547
248	0x3df51e3b	0.11968657
249	0xbd989b7f	-0.074515335
250	0xbe3fe123	-0.18738227
251	0xbe1c19cc	-0.15244216
252	0x3e76beeb	0.24096267
253	0xbdcd9481	-0.100380905
254	0x3dbbb910	0.09166157
255	0xbdc00acf	-0.093770616

fc3.bias f4 [24]
0	0xbd712ce3	-0.058880698
1	0x3db5a19d	0.08868716
2	0x3dd50d90	0.104029775
3	0x3d1363fa	0.035984017
4	0x3d4c7403	0.049915325
5	0xbd00c6c9	-0.031439576
6	0x3d3d2524	0.046178
7	0xbcc73fc9	-0.024322407
8	0xbdd7c9a1	-0.105365045
9	0xbcd43c42	-0.02590764
10	0x3d78d67e	0.06075143
11	0x3dcc33de	0.099708304
12	0xbdd317cf	-0.103072755
13	0x3d31d8d0	0.04341966
14	0x3d0c64a0	0.03427565
15	0x3bc5538b	0.006021922
16	0x3e063be9	0.13108791
17	0xbda2939b	-0.0793831
18	0x3c8cdff1	0.017196627
19	0xbd5ae157	-0.053437557
20	0xbd2a496c	-0.041573927
21	0xbc964077	-0.018341286
22	0x3d6874b8	0.056751937
23	0x3dca0bee	0.09865557
