model_weights/weather_weights/model_weather_MSE.pt (torch, 142636 bytes, 6 tensors)

fc1.weight f4 [64, 456]
-0.035053268 -0.026992265 -0.0065169055 -0.036270723 -0.04485599 -0.020071255 0.03340986 -0.02951962
-0.036287647 0.019209085 0.03545213 -0.014066906 0.0115739405 -0.020161899 -0.0077976673 -0.040565155
0.03553416 0.0003503736 -0.040450603 0.0018470437 -0.004390966 0.032127183 -0.011363168 -0.02228546
0.028313473 -0.040823877 -0.017352032 0.041614104 -0.011029743 0.00091434986 0.02094061 0.001242628
-0.021737622 -0.014382288 -0.011131065 0.024475044 -0.025205975 0.003831305 0.04636838 0.02439038
0.041705232 -0.029157506 0.04307139 -0.024576997 0.03227478 0.036521547 -0.028899008 0.031047495
0.046077464 0.044504743 -0.010709978 0.037313458 -0.025351483 -0.044245996 0.00010626821 0.03930127
-0.013259566 0.046468116 0.02450068 -0.038174976 0.045840915 -0.010417109 -0.0036563221 -0.024880227
-0.0019509785 0.027300313 -0.026330942 -0.007938943 -0.03123159 0.012727528 -0.026445137 0.0006447995
-0.019188307 -0.018292183 -0.014693797 0.009229067 0.009440336 0.011467622 0.01791861 0.0021789225
0.0050914455 -0.003691313 0.026641456 0.0324277 -0.035622466 -0.021417394 0.005827552 -0.033176728
0.033428002 0.009576281 -0.0070216963 0.019997578 -0.02447674 -0.041129187 0.0064008734 0.039991315
0.011425507 0.003228084 -0.00994372 0.0033330012 0.02975088 0.041013636 -0.005341831 -0.023793858
-0.007875995 -0.015369272 0.013030093 -0.025780095 -0.039146177 0.006920871 0.019610727 -0.025921796
0.028624881 0.0035730817 0.004289097 0.0349884 0.035129454 0.009813783 0.0067842 0.04603631
-0.041392893 0.020165622 0.0054626586 0.017525407 0.017345233 -0.046041027 -0.021839513 -0.00082382426
0.033691075 0.023061927 0.013136305 -0.013157183 0.017145714 0.006362957 -0.01361703 0.028522385
-0.025567314 0.0021850802 0.03404055 -0.0010560558 0.01702813 0.0029428133 0.015524035 -0.03263589
0.024860252 0.038505986 0.03805243 -0.033456963 0.012525715 0.03136012 -0.0021785821 0.021045338
0.019795764 -0.019191762 0.029631838 0.010279529 0.045472566 -0.0013986194 -0.013184186 -0.011107892
0.0062580956 0.014381473 -0.035077874 -0.035149723 -0.029152833 0.0056632985 0.0049719913 0.024195842
-0.025947096 -0.013649849 0.0334085 0.023502994 0.0335602 0.023738306 -0.01408065 0.013080296
0.018416734 0.0324925 -0.00018250823 -0.040769044 -0.045711245 -0.035600353 0.043629963 0.020369198
0.013822019 -0.013513089 0.01946886 -0.03417311 0.041048285 0.013350382 0.009419067 0.041631218
-0.015186836 -0.005747918 0.023741646 -0.016546931 0.027189003 -0.033764 0.023595288 -0.013312567
0.008768735 0.005134609 -0.030877296 -0.04534522 0.014028259 -0.0437312 -0.011643727 0.025232878
-0.013658988 -0.0014185265 -0.012061224 -0.009152631 -0.020423878 0.014063518 -0.027192978 -0.00659271
0.024836583 -0.026643148 -0.01231357 0.009487888 -0.03231702 -0.028394384 0.04444853 0.031744327
-0.012989034 0.0065281764 0.023636768 0.043553494 -0.009086819 0.0031348397 -0.017989255 0.01793501
0.035145547 0.034254763 0.020473383 0.027084818 -0.00063292554 -0.0029575287 0.008135492 0.0049377875
0.022664795 -0.00043701936 0.041526217 -0.022307616 0.038679413 -0.006480407 0.0025042922 -0.027991781
0.027705511 -0.009891887 -0.029837893 0.02124771 -0.046444893 0.04414858 0.038433466 0.03734954
00000000: 0494 0fbd e21e ddbc c48b d5bb 9c90 14bd
00000010: eaba 37bd 796c a4bc c7d8 083d 21d3 f1bc
00000020: 5ba2 14bd 5f5c 9d3c 4136 113d e178 66bc
00000030: a0a0 3d3c 912a a5bc 9383 ffbb a627 26bd
00000040: 448c 113d 59b2 b739 88af 25bd 8118 f23a
00000050: 18e2 8fbb cb97 033d 952c 3abc ff8f b6bc
00000060: a8f1 e73c f036 27bd d925 8ebc 8d73 2a3d
00000070: 18b6 34bc fbb0 6f3a a48b ab3c addf a23a
00000080: 1913 b2bc b0a3 6bbc 125f 36bc e37f c83c
00000090: c37c cebc a216 7b3b c5ec 3d3d 56ce c73c
000000a0: 1bd3 2a3d b9db eebc a06b 303d b355 c9bc
000000b0: 8f32 043d 9e97 153d 9dbd ecbc 5157 fe3c
000000c0: b9bb 3c3d 9b4a 363d e778 2fbc ffd5 183d
000000d0: eaad cfbc 4a3b 35bd 50dc de38 5efa 203d
000000e0: a73e 59bc 5a55 3e3d a6b5 c83c 5d5d 1cbd
000000f0: afc3 3b3d 86ac 2abc e89e 6fbb 9ed1 cbbc
00000100: fab7 ffba e8a4 df3c fdb3 d7bc 5712 02bc
00000110: 64d9 ffbc 1f87 503c 79a3 d8bc c307 293a
00000120: cc30 9dbc 7dd9 95bc 40be 70bc 8335 173c
00000130: a4ab 1a3c b1e2 3b3c 0cca 923c 41cc 0e3b
00000140: 24d6 a63b f5e9 71bb 2f3f da3c e8d2 043d
00000150: dde8 11bd 8873 afbc 0df5 be3b 52e4 07bd
00000160: cdeb 083d d5e5 1c3c 4216 e6bb f6d1 a33c
00000170: 7283 c8bc 1477 28bd 6bbe d13b efcd 233d
00000180: 0d32 3b3c 438e 533b fcea 22bc 7b6e 5a3b
00000190: 1eb8 f33c eafd 273d 870a afbb 56eb c2bc
000001a0: 510a 01bc 66cf 7bbc 2c7c 553c c730 d3bc
000001b0: be57 20bd 79c8 e23b ada6 a03c f259 d4bc
000001c0: ba7e ea3c 5d2a 6a3b 8e8b 8c3b ff4f 0f3d
000001d0: e7e3 0f3d fdc9 203c ff4d de3b 9290 3c3d
000001e0: 988b 29bd 6032 a53c 1a00 b33b 7191 8f3c
000001f0: 9717 8e3c 8495 3cbd c7e8 b2bc e9f5 57ba
00000200: a7ff 093d 5eec bc3c a839 573c 3a91 57bc
00000210: 2b75 8c3c 5a80 d03b f719 5fbc c7a7 e93c
00000220: 8b72 d1bc 9033 0f3b 1b6e 0b3d 5a6b 8aba
00000230: 947e 8b3c 37dc 403b 8658 7e3c 36ad 05bd
00000240: baa7 cb3c 74b8 1d3d dddc 1b3d 2b0a 09bd
00000250: a838 4d3c 7873 003d 8bc6 0ebb 4667 ac3c
00000260: ba2a a23c 0b38 9dbc 78be f23c 786b 283c
00000270: 7141 3a3d e151 b7ba 7c02 58bc e0fd 35bc
00000280: b610 cd3b 45a0 6b3c d1ad 0fbd 28f9 0fbd
00000290: ecd1 eebc 3193 b93b 16ec a23b 5c36 c63c
000002a0: 018f d4bc 9ea3 5fbc 5ad7 083d 5a89 c03c
000002b0: 6c76 093d d676 c23c 87b2 66bc bd4e 563c
000002c0: b1de 963c db16 053d ae5f 3fb9 71fd 26bd
000002d0: b73b 3bbd add1 11bd 55b5 323d 4edd a63c
000002e0: c075 623c 0166 5dbc 297d 9f3c 1af9 0bbd
000002f0: 3f22 283d 90bb 5a3c 6e52 1a3c 7f85 2a3d
00000300: 35d2 78bc 0859 bcbb d77d c23c 6e8d 87bc
00000310: 79bb de3c 1f4c 0abd e84a c13c f41c 5abc
00000320: beaa 0f3c 3940 a83b 62f2 fcbc e9bb 39bd
00000330: c8d6 653c 7d1f 33bd 55c5 3ebc 2eb5 ce3c
00000340: f3c9 5fbc daed b9ba 719c 45bc ebf4 15bc
00000350: fa4f a7bc ab6a 663c cfc3 debc a907 d8bb
00000360: 1776 cb3c bb42 dabc dbbe 49bc 1673 1b3c
00000370: da5e 04bd 579b e8bc a90f 363d 5706 023d
00000380: f5cf 54bc 50ea d53b e5a1 c13c 2665 323d
00000390: e2e0 14bc e271 4d3b 345e 93bc 71ec 923c
000003a0: c7f4 0f3d b94e 0c3d ccb7 a73c fbe0 dd3c
000003b0: eaea 25ba 19d3 41bb ba4a 053c 2acd a13b
000003c0: 85ab b93c bf1f e5b9 6517 2a3d 76be b6bc
000003d0: 4e6e 1e3d 9859 d4bb 0d1f 243b 054f e5bc
000003e0: abf6 e23c 9511 22bc 996e f4bc ad0f ae3c
000003f0: 003d 3ebd 24d5 343d 696c 1d3d d5fb 183d

fc1.bias f4 [64]
0.032981686 0.020038463 0.016191633 -0.0011581464 -0.033337526 0.027329927 0.017318001 0.028006643
-0.02194846 -0.002634353 0.04021471 -0.042861853 0.0252537 0.043419547 0.009535221 0.03217659
0.008454452 0.026266713 -0.03790654 -0.018773913 -0.00019490135 -0.02944089 0.032650243 0.019795593
-0.013094196 -0.015832573 0.032937635 -0.0056783212 0.012130191 0.037289374 -0.031047964 0.045429945
-0.029941589 0.013264686 -0.040534038 -0.010613479 0.030170124 -0.03834498 -0.04175685 0.0022353001
0.019146053 0.02909152 -0.036280736 -0.020658236 0.008702025 -0.018725608 -0.0048968736 -0.0063207136
0.0053533646 0.038593754 -0.020433089 0.024731917 0.003150091 -0.0081104655 -0.0059631895 -0.045328014
0.023467131 0.018760996 0.04113962 0.04569465 0.03441686 -0.004940551 0.0023743599 0.04446179
00000000: ce17 073d b427 a43c 51a4 843c f2cc 97ba
00000010: ee8c 08bd 03e3 df3c 7bde 8d3c 306e e53c
00000020: 42cd b3bc 1ca5 2cbb 2eb8 243d e98f 2fbd
00000030: d9e0 ce3c b2d8 313d 9e39 1c3c 9acb 033d
00000040: 8b84 0a3c 4a2d d73c e343 1bbd c0cb 99bc
00000050: 6f5e 4cb9 052e f1bc 43bc 053d 5e2a a23c
00000060: 0a89 56bc 50b3 81bc 9de9 063d 3611 babb
00000070: b5bd 463c bebc 183d 4d58 febc c014 3a3d
00000080: 1048 f5bc 2054 593c 0507 26bd 28e4 2dbc
00000090: 5627 f73c a00f 1dbd 3b09 2bbd 1d7e 123b
000000a0: 2fd8 9c3c 5751 ee3c 1c9b 14bd 763b a9bc
000000b0: f092 0e3c 7266 99bc f475 a0bb fd1d cfbb
000000c0: 476b af3b 7c14 1e3d 4b63 a7bc 979a ca3c
000000d0: c271 4e3b c2e1 04bc dc66 c3bb dea9 39bd
000000e0: 243e c03c a9b0 993c 0582 283d 502a 3b3d
000000f0: b2f8 0c3d 58e4 a1bb 269b 1b3b 911d 363d

fc2.weight f4 [64, 64]
0.29231673 0.010291591 0.07840736 0.10571585 0.14643006 0.256478 0.049501374 0.10498006
0.10459353 -0.018210202 -0.05391346 -0.115134686 0.09900186 0.19362444 0.11009002 -0.078758895
0.2971678 -0.07783414 -0.12467432 0.0415397 -0.03976044 -0.016265348 0.13867503 0.3044582
0.11245915 0.07372594 -0.051319942 0.112191536 -0.11736122 0.07316059 0.12447098 -0.046508193
0.26953205 -0.046065554 0.17098157 0.06251703 0.10707517 0.13253629 0.028905794 0.052274674
0.17703936 0.105230816 0.08832805 -0.016660526 0.04937184 0.09421271 0.28430256 0.07313612
-0.025991917 -0.0870654 0.1729692 0.17118691 0.10167754 -0.01938717 0.1437687 0.0714015
0.26983237 0.1276588 0.2567291 0.006390378 0.026165292 0.07928738 0.15289418 0.23556305
0.26209897 0.0999589 0.06534074 -0.10440578 0.084587745 0.054298528 -0.12423119 0.067996964
-0.03195101 0.08895564 -0.09498288 -0.10275297 0.19083819 0.08352139 0.15818885 -0.05757165
0.2372259 0.10916325 0.019057289 0.021441042 0.022215128 0.11610697 0.22656606 0.2037907
0.07987763 0.29375643 0.006305799 0.28790393 -0.09557745 0.033585444 -0.010230005 -0.09722732
0.20499891 0.07870884 0.25288293 0.035938576 0.18322851 0.0773303 0.09391546 -0.050826877
0.17987207 0.16688955 0.17945778 0.099282935 -0.10311073 0.20476079 0.18990776 0.10631048
0.009391561 0.05995521 0.13468757 0.054597158 -0.120152995 -0.1049975 0.24480937 0.10457266
0.27409717 0.17037098 0.053901907 0.11892308 -0.08840166 0.16907036 0.15981977 0.26569745
0.039916918 0.08800641 -0.09676476 -0.09095634 -0.041085258 -0.15495205 -0.041640952 0.06484418
-0.11012736 0.10736723 0.074986994 -0.037716687 -0.029529948 -0.17229144 0.010766227 0.10936843
-0.14801323 -0.10852104 -0.12329826 0.1237258 -0.055721 -0.0012538731 -0.16215162 0.014930796
-0.052304287 -0.0032800448 0.07152091 0.06913233 0.099435806 -0.038932204 -0.10154721 0.021220997
-0.1052429 -0.062205195 0.03858372 -0.047614306 0.07392266 -0.07484079 -0.007252276 -0.0799949
-0.045437593 -0.1429317 -0.11835574 0.07505964 0.10020088 0.01862184 -0.069731794 0.075687945
0.055106193 0.019391432 -0.07129709 -0.09105097 0.030171797 -0.0844045 -0.095948175 0.07176136
-0.10741978 0.04007098 0.01854707 -0.1027637 -0.04220614 0.0047341967 -0.03423545 -0.14968477
0.096399754 0.017305136 0.12447709 0.007476144 0.2057532 0.24634908 -0.054257944 0.09826609
0.07597558 -0.017447636 -0.08344185 -0.120109856 0.100469664 0.2631808 0.17074125 0.10888164
0.19228701 -0.07637752 0.060553387 0.10577625 -0.115147114 -0.0091701895 0.26409972 0.25170097
0.14953941 0.27574906 -0.086426735 0.19499993 0.063673764 -0.09113824 -0.06861451 0.058672413
0.18603718 -0.012237743 0.07845043 0.080658704 0.16396461 0.11078633 -0.023442253 0.008058757
0.20392035 0.27380595 0.19657318 -0.009131849 -0.0068502873 0.065880515 0.18005873 0.008128079
0.077088356 -0.099182695 0.23401482 0.18318814 0.102606565 -0.09608421 0.13662508 0.092848085
0.10947928 0.23221292 0.20293447 -0.12234835 0.08961497 0.05460139 0.09627268 0.27669865
00000000: 8aaa 953e 109e 283c 0a94 a03d 8d81 d83d
00000010: c3f1 153e 1651 833e f4c1 4a3d c9ff d63d
00000020: 2235 d63d 902d 95bc 5cd4 5cbd bccb ebbd
00000030: 7dc1 ca3d 7c45 463e e076 e13d 584c a1bd
00000040: 6126 983e 8167 9fbd 4055 ffbd 8825 2a3d
00000050: d8db 22bd e83e 85bc d400 0e3e f2e1 9b3e
00000060: fc50 e63d a0fd 963d dc34 52bd adc4 e53d
00000070: 145b f0bd 38d5 953d a4ea fe3d 607f 3ebd
00000080: 1b00 8a3e 3caf 3cbd cb15 2f3e ee08 803d
00000090: 3a4a db3d 98b7 073e d8cb ec3c f81d 563d
000000a0: ce49 353e 4183 d73d 56e5 b43d a87b 88bc
000000b0: 203a 4a3d 98f2 c03d 1b90 913e 64c8 953d
000000c0: 00ed d4bc 584f b2bd d71e 313e 9f4b 2f3e
000000d0: 503c d03d d8d1 9ebc 1a38 133e f33a 923d
000000e0: 7827 8a3e fdb8 023e ff71 833e 6066 d13b
000000f0: 9858 d63c 6c61 a23d 4b90 1c3e 7137 713e
00000100: d631 863e 40b7 cc3d 5ed1 853d b3d2 d5bd
00000110: 573c ad3d 2268 5e3d ec6c febd fe41 8b3d
00000120: 10df 02bd 602e b63d 6286 c2bd 2670 d2bd
00000130: 166b 433e 430d ab3d 42fc 213e 40d0 6bbd
00000140: 59eb 723e fb90 df3d 081e 9c3c 20a5 af3c
00000150: 80fc b53c 7ec9 ed3d ef00 683e 82ae 503e
00000160: e296 a33d 3e67 963e e0a0 ce3b 2568 933e
00000170: 1cbe c3bd e490 093d c09b 27bc 1e1f c7bd
00000180: 3ceb 513e 1a32 a13d df79 813e 5434 133d
00000190: 41a0 3b3e 595f 9e3d c056 c03d d82f 50bd
000001a0: 6230 383e 18e5 2a3e c8c3 373e da54 cb3d
000001b0: b82b d3bd d0ac 513e 2e77 423e 4fb9 d93d
000001c0: 10df 193c 9893 753d 8aeb 093e 45a1 5f3d
000001d0: c612 f6bd ee08 d7bd 4faf 7a3e 312a d63d
000001e0: 7756 8c3e bb75 2e3e 3fc8 5c3d f28d f33d
000001f0: ee0b b5bd c820 2d3e cba7 233e 7f09 883e
00000200: ec7f 233d b43c b43d 9a2c c6bd 5147 babd
00000210: 0449 28bd c0ab 1ebe b48f 2abd 07cd 843d
00000220: 748a e1bd 5ae3 db3d c892 993d d07c 1abd
00000230: cae8 f1bc 2b6d 30be d464 303c 8efc df3d
00000240: c890 17be 4740 debd cc83 fcbd f463 fd3d
00000250: b43b 64bd 0059 a4ba 130b 26be 4ca0 743c
00000260: 053d 56bd 05f6 56bb 8e79 923d 4095 8d3d
00000270: 00a5 cb3d 6077 1fbd fcf7 cfbd a8d7 ad3c
00000280: 9789 d7bd e0ca 7ebd f609 1e3d 3807 43bd
00000290: c364 973d 2146 99bd 80a4 edbb 5ed4 a3bd
000002a0: c51c 3abd b05c 12be 7f64 f2bd deb8 993d
000002b0: 1e36 cd3d d48c 983c 8bcf 8ebd 4802 9b3d
000002c0: 08b7 613d c8da 9e3c 3504 92bd ee78 babd
000002d0: d82a f73c 44dc acbd 7a80 c4bd 9ff7 923d
000002e0: e7fe dbbd 7821 243d 06f0 973c c675 d2bd
000002f0: 58e0 2cbd 5221 9b3b 793a 0cbd f746 19be
00000300: 3c6d c53d 80c3 8d3c d8ed fe3d 71fa f43b
00000310: f8b0 523e ef42 7c3e 943d 5ebd bb3f c93d
00000320: 1699 9b3d 58ee 8ebc 90e3 aabd 28fc f5bd
00000330: 0ac3 cd3d a2bf 863e cbd6 2e3e 56fd de3d
00000340: e3e6 443e d16b 9cbd d406 783d 38a1 d83d
00000350: 40d2 ebbd 903e 16bc 1438 873e f3de 803e
00000360: dc20 193e fb2e 8d3e 8000 b1bd 10ae 473e
00000370: 6467 823d b0a6 babd c485 8cbd 7c52 703d
00000380: 8880 3e3e d080 48bc 9eaa a03d 6430 a53d
00000390: 57e6 273e f2e3 e23d f809 c0bc e008 043c
000003a0: 7fd0 503e 4b30 8c3e 7b4a 493e c09d 15bc
000003b0: 6078 e0bb 5dec 863d 5161 383e a22b 053c
000003c0: 80e0 9d3d 4c20 cbbd 95a1 6f3e ac95 3b3e
000003d0: 6423 d23d ccc7 c4bd 72e7 0b3e 2327 be3d
000003e0: ac36 e03d 39c9 6d3e 0ece 4f3e c691 fabd
000003f0: 0e88 b73d b5a5 5f3d 9c2a c53d 72ab 8d3e

fc2.bias f4 [64]
0.27246428 0.089334786 -0.14021164 0.04861815 0.11889303 0.22948101 0.29927152 0.10276599
0.24482545 0.28118816 0.21448748 0.15728028 0.16801392 0.15456213 0.22487268 0.08009088
0.20500812 0.027564643 0.24398334 0.11357782 0.24777783 0.14445905 0.14321506 -0.07276989
0.21176717 0.27588788 0.2217979 0.24141899 0.16442832 0.10083892 0.17844282 0.27682653
0.09602643 0.14322887 0.26978868 0.063962676 0.08828481 0.1792776 -0.044541106 0.27798712
0.11892606 0.147601 0.16503558 0.15571363 0.21354827 0.09568837 0.20636529 0.26115474
0.12526713 0.2524314 0.14555295 0.17080541 0.19717152 0.23167117 0.20979752 0.15244368
0.1573416 0.14500359 0.133157 0.20157668 0.096520945 0.08466513 0.10219874 0.08575403
00000000: 7080 8b3e 28f5 b63d a493 0fbe d323 473d
00000010: 307e f33d 12fd 6a3e 1e3a 993e fa76 d23d
00000020: 86b3 7a3e e5f7 8f3e 9ba2 5b3e 150e 213e
00000030: d70b 2c3e 8945 1e3e 0645 663e b006 a43d
00000040: a6ed 513e 3fcf e13c c5d6 793e 7d9b e83d
00000050: 79b9 7d3e 13ed 133e f8a6 123e 6108 95bd
00000060: 7ed9 583e 2d41 8d3e fd1e 633e 8a36 773e
00000070: e65f 283e a384 ce3d b7b9 363e 35bc 8d3e
00000080: 81a9 c43d 97aa 123e be21 8a3e ddfe 823d
00000090: abce b43d 8c94 373e bc70 36bd 5454 8e3e
000000a0: 828f f33d b724 173e 16ff 283e 6573 1f3e
000000b0: 66ac 5a3e 44f8 c33d 6c51 533e 13b6 853e
000000c0: 0746 003e b03e 813e d50b 153e 9de7 2e3e
000000d0: 55e7 493e 353b 6d3e 29d5 563e 321a 1c3e
000000e0: 281e 213e d27b 143e 4f5a 083e 1e6a 4e3e
000000f0: c6ac c53d e964 ad3d 934d d13d cf9f af3d

fc3.weight f4 [24, 64]
0.06910338 0.2405175 -0.057092045 0.23626362 0.12959205 0.21028446 0.036037993 0.018939905
0.25447935 0.046652038 0.01872229 0.031537134 0.14332196 0.11015712 0.19977856 0.16876358
0.22050586 0.019874964 0.10651326 0.079973646 0.04576819 0.16953586 0.16942045 0.033398356
0.24563622 0.20664439 0.017615026 0.19309963 0.1344626 0.10191581 0.140695 0.17806606
0.03496237 0.094028294 0.12708515 0.0743985 0.19484162 0.22607216 0.04162101 0.13061306
0.05937665 0.16504344 0.06083039 0.1639143 0.1259871 0.19663154 0.023301428 0.01604957
0.110564955 0.11776481 0.15534611 0.16742723 0.25566602 0.26199922 0.004277693 0.24667332
0.218956 0.04112713 0.015691942 0.100109026 0.18250346 0.105601184 0.100820884 0.04056593
0.14552519 0.118916824 0.077559285 0.21349147 0.13190083 0.16200565 0.0657189 0.115022525
0.0808913 0.15354909 0.190474 0.2068906 0.13571239 0.1347423 0.22275196 0.029652461
0.09894223 0.12028496 0.025268707 0.19934072 0.01272396 0.14451449 0.2412938 -0.031337675
0.16573387 0.12882602 0.21029346 0.20612015 0.10286329 0.047917064 0.07156712 0.17977774
0.13896964 0.17775846 0.03930237 0.07070323 0.11774284 0.085394785 -0.020537635 0.2390783
0.08045781 0.017236294 0.08707924 0.112606764 0.22972755 0.12063647 0.23625632 0.09844808
0.18027455 0.2067787 0.015162528 0.035016987 0.09160268 0.08774749 0.17685662 0.08446493
0.075178444 0.18463749 0.13155416 0.20164701 0.064985864 0.23205559 0.03858888 0.046354197
0.2309984 0.1234776 -0.06711949 -0.0056647905 0.15765485 0.13130774 0.06991144 0.18249501
0.20003678 0.17621799 0.06297308 0.16336322 0.16329536 0.19292417 0.18611549 0.23409826
0.118090816 0.052459415 0.13603735 0.16050744 0.08454058 0.095474616 0.10952452 -0.04267469
0.06129988 0.14572568 0.23295344 0.23028113 0.15837161 0.17674322 0.15814637 0.023179933
0.13135058 0.12224622 0.16599068 0.09075342 0.17236148 0.01672016 0.012665442 0.14974588
0.16973908 0.13981047 0.11040673 0.14460343 0.11029332 0.054405354 0.23106195 0.012026953
0.21536186 0.12824322 0.14367722 0.02490818 0.10031723 0.07624301 0.046986453 0.117216185
0.20029145 0.2326486 0.113975815 0.047109295 -0.005755096 0.20549208 0.080330655 0.07705159
0.17345065 0.033511866 0.13570149 0.05514554 0.21557729 0.20497723 0.024747552 0.22572206
0.046683032 0.18051693 0.23439924 0.2424597 0.021046339 0.2590736 0.23254998 0.07045312
0.23210287 0.07581185 0.0218285 0.07023483 0.15698051 0.07316005 0.04059885 0.10548311
0.09617865 0.15785913 0.010799794 0.07748562 0.15166484 0.0135315005 0.06390033 0.117202826
0.04008189 0.11644126 0.11587021 0.06387116 0.09200497 0.063924536 0.18641916 0.1978754
0.118031956 0.23914894 0.08743905 0.093184315 0.24008423 0.023447504 0.025375944 0.17455143
0.17397116 0.2399483 0.19685704 0.18979688 0.020868234 0.250442 0.2155841 0.022903517
0.218246 0.25275046 0.095059775 0.03366585 0.026653986 0.20047005 0.04516299 0.090939514
00000000: 1386 8d3d 384a 763e 59d9 69bd 17ef 713e
00000010: c7b3 043e cf54 573e 939c 133d dc27 9b3c
00000020: 1e4b 823e 3516 3f3d 7d5f 993c 152d 013d
00000030: fec2 123e 0e9a e13d c092 4c3e 5cd0 2c3e
00000040: 4acc 613e d2d0 a23c a023 da3d 39c9 a33d
00000050: 6d77 3b3d cf9a 2d3e 8e7c 2d3e b7cc 083d
00000060: 1088 7b3e 969a 533e 634d 903c e9bb 453e
00000070: 90b0 093e 3cb9 d03d 5a12 103e f356 363e
00000080: b434 0f3d e891 c03d 9c22 023e 3e5e 983d
00000090: 9084 473e 767f 673e cb7a 2a3d 6ebf 053e
000000a0: ee34 733d 2601 293e 4929 793d 26d9 273e
000000b0: c302 013e c759 493e a3e2 be3c 637a 833c
000000c0: e16f e23d ad2e f13d 0d13 1f3e 0b72 2b3e
000000d0: a8e6 823e c324 863e e42b 8c3b ee97 7c3e
000000e0: 0036 603e ec74 283d 638c 803c f605 cd3d
000000f0: 30e2 3a3e 6f45 d83d 2e7b ce3d 7628 263d
00000100: 8e04 153e aa8a f33d 67d7 9e3d 829d 5a3e
00000110: 0311 073e cfe4 253e a197 863d ee90 eb3d
00000120: 57aa a53d f93b 1d3e 9e0b 433e 21db 533e
00000130: 30f8 0a3e e3f9 093e 1719 643e b8e9 f23c
00000140: 39a2 ca3d f657 f63d 5200 cf3c f91f 4c3e
00000150: 2878 503c 9bfb 133e b915 773e ef5b 00bd
00000160: 24b6 293e f8ea 033e 2b57 573e 2911 533e
00000170: fda9 d23d af44 443d c891 923d a817 383e
00000180: 0f4e 0e3e 5006 363e 86fb 203d dbcc 903d
00000190: 2823 f13d 76e3 ae3d 8b3e a8bc f1d0 743e
000001a0: 10c7 a43d 2133 8d3c 9a56 b23d 609e e63d
000001b0: b33d 6b3e 4110 f73d 2ded 713e 269f c93d
000001c0: e499 383e ccbd 533e 406c 783c f96d 0f3d
000001d0: 309a bb3d f5b4 b33d e719 353e f3fb ac3d
000001e0: 28f7 993d 9c11 3d3e 22b6 063e 8e7c 4e3e
000001f0: 4f17 853d fb9f 6d3e 600f 1e3d e6dd 3d3d
00000200: d88a 6c3e d3e1 fc3d f175 89bd b59f b9bb
00000210: 4670 213e 8975 063e bb2d 8f3d f9df 3a3e
00000220: 71d6 4c3e 7d72 343e 08f8 803d b048 273e
00000230: e636 273e ea8d 453e 0f95 3e3e 74b7 6f3e
00000240: 99d9 f13d afdf 563d 604d 0b3e 105c 243e
00000250: 9d23 ad3d 3288 c33d 644e e03d a8cb 2ebd
00000260: 9515 7b3d 1d39 153e 598b 6e3e d1ce 6b3e
00000270: 2b2c 223e 2dfc 343e 1ff1 213e d8e3 bd3c
00000280: c480 063e 3a5c fa3d 76f9 293e eedc b93d
00000290: 877f 303e b8f8 883c b782 4f3c fc56 193e
000002a0: 15d0 2d3e 7a2a 0f3e ec1c e23d ec12 143e
000002b0: 77e1 e13d 26d8 5e3d 819b 6c3e b20c 453c
000002c0: d287 5c3e 3152 033e 1f20 133e 3d0c cc3c
000002d0: 1f73 cd3d 4c25 9c3d de74 403d 0a0f f03d
000002e0: 3419 4d3e 6f3b 6e3e 276c e93d adf5 403d
000002f0: 3f95 bcbb 846c 523e 6684 a43d 39cd 9d3d
00000300: 0c9d 313e bd43 093d 55f5 0a3e 4ae0 613d
00000310: 4bc0 5c3e 8de5 513e 61bb ca3c af23 673e
00000320: b536 3f3d 6ed9 383e 5b06 703e 5b47 783e
00000330: 5f69 ac3c 4ba5 843e 9521 6e3e ba49 903d
00000340: 60ac 6d3e 3e43 9b3d afd1 b23c 47d7 8f3d
00000350: 80bf 203e f0d4 953d fb4a 263d 8707 d83d
00000360: 50f9 c43d d3a5 213e 9ff1 303c c8b0 9e3d
00000370: 074e 1b3e 3ab3 5d3c 2dde 823d 0908 f03d
00000380: e82c 243d c178 ee3d 5c4d ed3d e2ce 823d
00000390: 1a6d bc3d deea 823d aae4 3e3e d99f 4a3e
000003a0: bdba f13d 76e3 743e 3f13 b33d 6bd7 be3d
000003b0: a4d8 753e fb14 c03c 36e1 cf3c 9cbd 323e
000003c0: 7f25 323e 02b5 753e e494 493e 1d5a 423e
000003d0: dcf3 aa3c ef39 803e 14c2 5c3e 28a0 bb3c
000003e0: e17b 5f3e 8268 813e b3ae c23d 34e5 093d
000003f0: 7659 da3c 0548 4d3e d4fc 383d 7f3e ba3d

fc3.bias f4 [24]
0.08280726 0.12649412 0.05316152 0.14315811 0.20829311 0.15969668 0.045499146 0.05657816
0.04141396 0.0045087133 0.057438985 0.20755143 0.10801255 0.043344874 0.021709103 -0.013619298
0.20197676 0.07564292 0.22644177 0.0029790143 0.18836543 0.14461151 0.1630379 -0.012015648
00000000: da96 a93d ad87 013e e5bf 593d 0a98 123e
00000010: ca4a 553e 8787 233e 505d 3a3d 80be 673d
00000020: afa1 293d d4bd 933b 2445 6b3d 5d88 543e
00000030: af35 dd3d 658a 313d 4ad7 b13c 7a23 5fbc
00000040: ffd2 4e3e adea 9a3d 5ae0 673e 913b 433b
00000050: dee2 403e 0a15 143e 68f3 263e 48dd 44bc
